2022/20-华立民 指导老师-马里佳/code/output/2-agents_domain-PredatorPrey-2_adversaryratio-0.5_RADAR_X_2022-11-16-08-00-25/adversary_model.pth (torch, 52943 bytes, 7 tensors)

fc_net.fc_net.0.weight f4 [64, 125]
000000 6e e6 46 3d c0 8b 2e bc f6 1f 41 3d bc 50 a1 3c
       0.0485596 -0.010653436 0.04714962 0.019691817
000010 1d 84 34 bd 5f 95 a9 3d a8 cd ef 3c 90 0d ce bc
       -0.044071306 0.082804434 0.02927287 -0.025152951
000020 60 a2 59 bc 56 48 01 bd 20 9b 5e bc 4f eb b3 3d
       -0.013283342 -0.031563126 -0.013586789 0.08785116
000030 c3 51 68 bc 63 af 12 bd e1 f5 03 bd 84 92 7c bd
       -0.01417965 -0.035811793 -0.03221691 -0.061663166
000040 88 e6 a3 bd 40 a7 65 bb 44 e3 ff bc e9 ed 9a bd
       -0.08002955 -0.0035042316 -0.031236298 -0.07564909
000050 10 5b 76 3c c0 be 9f 3c 57 bb 8f bd 8f f3 b5 3d
       0.015036359 0.019500136 -0.07018154 0.08884346
000060 aa 1f 7b 3d 5e 1d 34 bd 08 6c 1b 3d 13 c3 dc 3c
       0.061309494 -0.04397332 0.037944824 0.026948487
000070 e4 34 db ba ef 6a 0b 3d cc be 81 bd 19 b0 8b bd
       -0.0016724137 0.034037527 -0.0633522 -0.06820697
000080 06 08 b5 bc 47 05 ce 3c 31 5f ed bc 74 26 ae ba
       -0.022098552 0.025149 -0.028976055 -0.0013286606
000090 72 5c 07 bd a8 b3 8f 3c e9 65 9d 3d b3 a8 16 3d
       -0.033047147 0.017541721 0.076854534 0.036781978
0000a0 2e 90 19 3d 4d 51 16 bd 3d 53 a5 bc ad ea 10 3c
       0.037491016 -0.03669863 -0.020181293 0.008845014
0000b0 c2 6f ee 3c b1 76 16 bd 44 50 7d 3d 8a d0 c0 3c
       0.029106025 -0.036734287 0.061844125 0.02353694
0000c0 5f 54 88 bd 15 2b 72 bc 4e 89 bb bd 38 19 b1 bd
       -0.066567175 -0.014780779 -0.09157048 -0.08647388
0000d0 64 cc 7d bd 87 ba 49 bd c4 e0 1a 3b 5c 10 5e bd
       -0.0619625 -0.049250152 0.0023632506 -0.05421482
0000e0 e9 23 71 3d 13 30 08 bd 48 5d 4d 3a 22 53 36 bc
       0.058872137 -0.033248972 0.00078340294 -0.011128219
0000f0 52 67 38 3d 7f 74 35 3d 73 f4 2d bd 5d 0e f4 bc
       0.04502041 0.044300552 -0.042469453 -0.029792005
000100 4b 5e e1 bc 6e 91 2c 3d a5 20 d5 bc b7 d6 20 bd
       -0.027510783 0.04213088 -0.026016543 -0.039267268
000110 d2 44 ab bd 0f ef a8 3b ff c4 b5 bd 4b 36 6b 3d
       -0.08362736 0.005155451 -0.08875465 0.057424825
000120 b5 ff 0f 3d e2 fb 7b 3d b1 aa de bc 5e 5a 24 bc
       0.03515597 0.06151951 -0.027181001 -0.010031311
000130 87 8c 9a 3d d6 39 7e 3c eb de 75 bd 8a 7d 90 bc
       0.07546335 0.015516719 -0.060027044 -0.017637987
000140 b4 bc 67 bd 2a 7a 3f 3c 96 14 6f bd 5b 79 aa 3d
       -0.056576446 0.011686841 -0.05836924 0.08323928
000150 03 09 9c bd 95 03 57 3d 23 c2 8f 3d b2 bc 61 3d
       -0.07618906 0.05249365 0.070194505 0.055111594
000160 98 53 7c 3a 82 4a 78 bd 80 b8 ff ba 19 d7 4d bc
       0.00096254935 -0.06061793 -0.0019509941 -0.01256349
000170 a6 40 45 bd 00 ee 22 bc 50 f2 97 bc ab 67 95 bd
       -0.048157357 -0.009944439 -0.01854816 -0.07295164
000180 db 6d f0 3c e7 b7 2d bd 1a b9 eb 3c f1 21 da 3b
       0.029349258 -0.04241171 0.028774787 0.006656878
000190 c2 b3 0a 3d e8 fc 13 3c a1 a3 62 bd f9 fe 9e bd
       0.033862837 0.0090324655 -0.05533183 -0.07763476
0001a0 b4 b7 a0 3c 62 b2 18 3d 32 9d e2 bc 2e ef 27 3d
       0.019618846 0.037279494 -0.027662847 0.040999584
0001b0 00 6e 8f bc b8 ee 1e bc 80 f9 43 3b 1b 4b 80 3d
       -0.017508507 -0.00970047 0.0029903352 0.06264325
0001c0 6b 36 b3 3d b2 9a 31 3d 8d c7 ab 3d 20 5a 92 3b
       0.08750614 0.04336042 0.08387671 0.00446631
0001d0 08 7f 54 3c eb e8 22 bd 3a 2e 0d 3d 7a 5f 31 3d
       0.01296974 -0.03977291 0.034467913 0.043303944
0001e0 aa a9 0c 3d 34 c7 89 bd ce 81 85 bd 70 b7 a8 bd
       0.03434149 -0.06727448 -0.06518899 -0.08238113
0001f0 90 26 6e 3c 1c be d3 bc 48 19 ae bd 59 5d b1 3d
       0.014535561 -0.025847487 -0.08500916 0.08660383
000200 20 f9 ae bb 26 a1 83 bd 38 c1 29 bc 1f 92 ac bd
       -0.0053397566 -0.06427221 -0.010361008 -0.08426308
000210 41 6a b2 3d ee af 74 3d 29 04 b6 3d d0 80 b6 3c
       0.087116726 0.059738092 0.08887512 0.02227822
000220 14 66 03 3d 53 92 0f bd d8 08 85 bd 00 d8 61 b8
       0.03207977 -0.035051655 -0.064958274 -5.3845346e-05
000230 40 d0 ff 3a 80 d9 bd bc a6 ee 9e bd a2 9f 30 3d
       0.0019517019 -0.023175001 -0.07760362 0.043120988
000240 ce 7c 99 bd d8 b4 3a 3c d1 41 9a bd 98 a9 78 3c
       -0.07494508 0.011395656 -0.07532085 0.015177153
000250 47 ed a7 3d e6 33 7c 3d 4f d7 af 3d 06 5f 6b 3d
       0.08199554 0.06157293 0.08585989 0.05746367
000260 c6 b4 fe bc a3 f5 a0 bb a4 8a 03 bc c5 1b bb bd
       -0.031092059 -0.0049120947 -0.00802866 -0.09136156
000270 55 a7 ac bd 9f a5 57 bc f3 9b a2 3b e9 24 36 bd
       -0.084303536 -0.013162046 0.0049624383 -0.044468794
000280 08 86 20 3d 3c f0 4b bd 5b 25 0b 3d d7 fc 84 bd
       0.039190322 -0.049789652 0.03397117 -0.06493538
000290 e2 39 4e bd 88 ff a0 bd 60 5c ce 3c f3 80 99 3d
       -0.05034817 -0.07861239 0.025190532 0.07495298
0002a0 78 1b 39 3d d6 06 60 bc 16 69 3d bd 24 e0 ad bd
       0.045192212 -0.013673505 -0.046242796 -0.08490017
0002b0 6e c1 ed bb bb 43 05 3c 42 5c 00 bd 08 ee 9a 3d
       -0.0072557246 0.008133824 -0.031337984 0.07564932
0002c0 a5 d3 80 bd ed e3 ed bc de 66 70 bd 5a 2d 5c 3d
       -0.06290368 -0.029039348 -0.05869185 0.053754188
0002d0 31 09 e1 3b 09 80 74 bd 52 fd 1b 3d 3d 04 b3 bd
       0.006867551 -0.059692416 0.038083382 -0.08741043
0002e0 09 93 7c 3d fa 0a 86 3c 26 20 fd bc 14 9f 29 3d
       0.06166366 0.016362656 -0.030899119 0.041411474
0002f0 4c dd 5d bc 5d 3e 63 3d 25 d6 4c bd a0 3a 81 3c
       -0.013541531 0.055479396 -0.05000891 0.015775025
000300 b8 97 18 bd c6 ce cc bc 3d 99 9f bd f1 4a 8e bd
       -0.037254065 -0.025000941 -0.077929 -0.06947888
000310 d4 13 2a 3d 9b 80 68 3c 3e f7 81 3d 6e d8 ec bc
       0.041522816 0.014190818 0.06345986 -0.028911795
000320 48 92 52 3d c4 f8 33 3d db 43 a4 3d 6f d2 25 3d
       0.051409036 0.043938413 0.08020755 0.04048389
000330 a3 e7 42 bc af 37 c0 3c a7 b6 a3 bd ab 06 f9 3c
       -0.011896047 0.023464052 -0.079938225 0.030398687
000340 db 0b 69 bd 33 e7 a7 bc 72 19 ae bd d6 39 b4 3c
       -0.056896072 -0.020495987 -0.08500947 0.022000235
000350 c0 09 cd bb 5c 30 43 bd 19 ed 80 3d ae bf 84 bb
       -0.006257266 -0.04765354 0.06295223 -0.0040511703
000360 52 b9 70 3d d6 8d 55 bd b2 b0 9e bc fa c1 85 bb
       0.058770485 -0.05213722 -0.019371364 -0.0040819617
000370 aa 49 46 bd d9 e3 3a 3d 06 37 6a bd e1 e7 73 3d
       -0.048410095 0.04562745 -0.05718138 0.05954731
000380 28 3a 8c bc 61 7d b2 3d 78 8f 60 bc 80 23 ab bc
       -0.017117575 0.087153204 -0.013706081 -0.020890951
000390 80 0d 2a ba 46 19 1e 3d 60 7f 62 3b b0 c3 bb bc
       -0.0006486997 0.03859832 0.0034560785 -0.02292046
0003a0 c4 e0 81 3c 50 20 c4 3b d6 d2 55 bd f2 64 4e bd
       0.015854247 0.0059852973 -0.052203022 -0.050389238
0003b0 02 a4 02 bd 4e 89 84 bd 5f de a7 bd 78 f7 17 3c
       -0.03189469 -0.06471501 -0.08196711 0.00927531
0003c0 60 eb 83 bd a0 9a 71 3c 7e a8 6d bd 21 6e 9d bd
       -0.064413786 0.014746338 -0.058022015 -0.07687021
0003d0 47 53 9b bd 70 7a ad bd 84 88 bf 3c 86 11 30 3d
       -0.07584243 -0.08470619 0.023380525 0.04298546
0003e0 b0 f7 df 3c 4c 15 d3 3c b0 7e 7f bc 79 44 ad 3d
       0.027339786 0.025766991 -0.0155941695 0.08460326
0003f0 34 d2 a5 bc e2 36 72 bd 80 4d 49 3b d0 54 ea bb
       -0.020241834 -0.05913437 0.003071636 -0.0071512237

fc_net.fc_net.0.bias f4 [64]
000000 fd 75 15 3c 4f a0 43 3d a3 d5 6e 3c a0 43 45 3c
       0.009122369 0.047760304 0.014577302 0.012040049
000010 23 9e 4c bc 5e a1 94 bd 24 73 67 3d 8e cb b1 bd
       -0.012488875 -0.07257341 0.05650629 -0.08681403
000020 37 f7 b5 3d aa 38 9a 3d e3 d5 7e 3d 2f eb 4e 3c
       0.08885043 0.07530339 0.062215697 0.012629314
000030 32 c1 d6 3c 0a a9 cd bb 48 3b 8b bc b4 66 9c bd
       0.02621517 -0.0062762545 -0.016996041 -0.076367766
000040 43 b7 fa bc a0 f3 88 3c 5f 8d 90 3d 15 ae 31 bd
       -0.030604964 0.016717732 0.070582144 -0.04337891
000050 b1 29 39 3d 91 a3 8b 3d c4 87 82 bc f7 7d eb bc
       0.045205776 0.06818307 -0.015933879 -0.028746588
000060 04 53 af bc cc bf a6 bc 67 98 9f 3d 7f ea 42 bb
       -0.02140189 -0.020355128 0.0779274 -0.0029741821
000070 f3 2c 2a 3c f4 50 fe 3b d6 14 6f 3d 87 be 90 bd
       0.010386693 0.007761115 0.05836948 -0.0706759
000080 e9 0e 79 bc 9e 15 07 bd f2 78 81 3d 13 11 0e 3b
       -0.015201309 -0.0329796 0.063218966 0.0021677657
000090 51 f8 f0 3c e8 dd 8d bd 30 ca ee bc cf bf 94 3d
       0.029415281 -0.06927091 -0.029149145 0.07263147
0000a0 c9 78 73 bd 0c c4 0f bd 13 38 52 3d ef bb 9d bd
       -0.05944136 -0.035099074 0.051323008 -0.07701861
0000b0 a2 0e 25 bd 4f 59 b2 bc 13 1b 6a 3d c6 a6 81 bd
       -0.040297158 -0.021771101 0.057154726 -0.06330638
0000c0 d4 56 33 bd e4 2a 6a 3d 72 e9 9c 3d df 04 93 3d
       -0.043783978 0.05716981 0.07661714 0.071786635
0000d0 74 e1 91 bd 65 d4 05 3c 3b 04 a1 bc 0a 50 94 3d
       -0.0712308 0.008168315 -0.019655338 0.07241829
0000e0 a7 86 7e 3d 0e 9e 79 3b 39 0d 56 bc e2 45 79 bd
       0.062140133 0.0038088593 -0.013064676 -0.06085766
0000f0 ee 6a 1e bc 0e 9d 0f 3d 92 c0 0e 3d f8 ea 4d bd
       -0.009669049 0.03506189 0.034851618 -0.05027291

fc_net.fc_net.2.weight f4 [64, 64]
000000 29 4b d2 bc 36 55 76 3d 8c 2f ce 3d 31 2f 35 3d
       -0.025670605 0.060139857 0.100676626 0.04423446
000010 10 87 d2 3c c7 2e 84 3d e9 c9 a3 bd 09 95 5a bb
       0.025699168 0.064542346 -0.07997496 -0.0033352992
000020 de 52 49 bb b7 23 c9 bd 8d dd ec bd 21 a0 11 3c
       -0.0030719559 -0.09821265 -0.11565695 0.008888275
000030 14 28 f1 bc 4b df 67 3d d7 03 ef bd a7 a2 0e 3d
       -0.029438056 0.056609433 -0.11670654 0.034823086
000040 e8 b8 76 3d 2b 45 06 bc fd 55 00 3c b7 e2 e0 bc
       0.060234934 -0.008195202 0.007833001 -0.027451856
000050 4b d8 c0 bd cb 0d 80 3d 5a f3 e7 bd 38 97 f9 bc
       -0.094162546 0.06252631 -0.113257125 -0.030467615
000060 41 7a fd 3d 04 9a 39 bd 76 0b bf 3d a1 40 80 bd
       0.12376834 -0.045312896 0.09328358 -0.06262327
000070 0b ab 96 bd 51 97 76 bd 09 55 53 3d 44 74 cb bd
       -0.073568426 -0.0602029 0.051594768 -0.09934285
000080 e2 f6 32 bd 15 2b 6d 3d 95 fa c5 3d 5e 99 66 bd
       -0.043692477 0.057902414 0.09666935 -0.056298606
000090 79 55 c7 bd f4 77 bf bd cb fe 49 bc 61 8e 70 bd
       -0.097330995 -0.09349051 -0.012328814 -0.058729533
0000a0 ed 6f 7d 3d 5c c9 ec bb 38 f2 d0 3d 48 8f c5 3d
       0.06187432 -0.0072261523 0.102024496 0.09646469
0000b0 ca 44 ba 3d 7e 3c a4 3c 36 77 e8 bd 73 70 96 bd
       0.09095152 0.020048376 -0.11350863 -0.07345667
0000c0 34 03 2f 3d 22 f8 9d bc 86 0d d3 bd 7e 9a 04 3d
       0.042727664 -0.019283358 -0.10305314 0.032373898
0000d0 cf 8d e8 bc ca a2 71 bc 16 d0 bf bc c5 de 8a 3d
       -0.028387932 -0.014748285 -0.023414653 0.06780771
0000e0 73 ef 2e bc fd e9 93 bd d7 57 cc bb 2f 9b 7f 3d
       -0.010677206 -0.07222364 -0.0062360573 0.062403854
0000f0 30 41 63 bb f3 7e d6 bd 6e 8b 08 3d 96 0d fe bd
       -0.0034676306 -0.104734324 0.033336096 -0.12404935
000100 82 2f 3a bd 61 85 38 3d f1 3b 18 bb d2 c5 15 bd
       -0.045455463 0.045049075 -0.0023229087 -0.03656561
000110 c5 42 d4 bc 85 0e f3 3d 6a b3 79 3d 43 42 b7 3c
       -0.025910744 0.11868004 0.06096212 0.022370463
000120 bf d6 bd bd 83 e0 91 bd f9 cf 01 bd a2 f5 8c 3d
       -0.09269475 -0.071229 -0.03169248 0.06882788
000130 01 1e 7b 3c d2 4c 94 3d 06 f3 6c bd 06 c9 bd bd
       0.015326978 0.07241215 -0.057848953 -0.09266858
000140 ab b9 06 3d 00 3b 70 3d 0d 7a c1 3d ec b1 59 bd
       0.03289191 0.058650017 0.094471075 -0.053148195
000150 2f 6d bc 3c 9f 80 ca bd fb 99 b9 bd aa 0e 3a 3d
       0.023001282 -0.09887814 -0.090625726 0.04542414
000160 27 d1 50 3d 97 52 37 bd d9 b8 e4 3d 60 b1 aa 3d
       0.050980713 -0.0447565 0.111680694 0.08334613
000170 35 ce 38 bd ea 55 a5 bb 47 9e 94 bd 98 78 3e 3c
       -0.04511853 -0.005045642 -0.072567515 0.0116254315
000180 94 94 da 3a 31 3f 8a bd 23 9b 1e 3c e2 3f a3 bd
       0.001667636 -0.06750334 0.009680542 -0.07971169
000190 6c 2d 38 3d 46 7a d4 3a e9 03 0b bd 97 88 99 bc
       0.044965193 0.0016210757 -0.033939276 -0.018741889
0001a0 fb fe 22 bc eb c6 15 3d d1 b9 1e bc 9c 47 7c 3d
       -0.009948487 0.036566656 -0.009687857 0.06159173
0001b0 1c c5 56 bd 28 f8 a7 3c da 7b 27 3d aa 61 1e bd
       -0.052434072 0.020504072 0.0408896 -0.03866736
0001c0 b5 60 e1 3d 85 cb c4 3d d1 93 f4 bd 69 d8 b8 3d
       0.110047735 0.09609131 -0.11942256 0.09025652
0001d0 e7 b7 8b 3b c3 cb 8a 3d 86 ba c1 bd 23 7e 83 3c
       0.004263866 0.06777146 -0.09459405 0.016051358
0001e0 24 ba 74 3d c9 5a 8f 3c c7 a3 d1 3c 18 49 0c 3d
       0.05974783 0.017499344 0.02559079 0.034249395
0001f0 e0 c5 8b bd 66 6e 5a 3c 8e 0f 8e bd 4b 67 a2 bd
       -0.06824851 0.013331985 -0.069365606 -0.07929858
000200 86 48 76 ba 3c 37 95 bd f3 b7 c9 bd cc 51 7d 3c
       -0.0009394962 -0.07285926 -0.09849539 0.015461396
000210 7b 74 d1 3d c5 07 6f bd 3a 3e e3 bd 69 54 92 bd
       0.10227295 -0.05835702 -0.11095853 -0.07145006
000220 52 41 83 bc 0a 90 da bd 8c 54 00 be 5f 28 32 3c
       -0.016022358 -0.106720045 -0.12532252 0.010873883
000230 30 6b 73 3d 9c 3b c9 3d f1 91 a6 bc 51 00 fa 3c
       0.059428394 0.09825823 -0.020333262 0.030517729
000240 9d 33 23 bc c1 10 88 3c f2 6f 99 3d 00 4f 6d bd
       -0.009961036 0.016609551 0.07492055 -0.05793667
000250 02 2d 3e 3d fc 4a 2c bd 82 2b 2e bd 7c 3e 97 3d
       0.04642964 -0.0420637 -0.04252196 0.07384965
000260 92 64 a3 3c 40 de be 3d ce 1e b0 bc f9 96 a4 3d
       0.019945417 0.093197346 -0.021499064 0.08036608
000270 8d 1f 71 bd 55 f4 e2 3d 56 aa ef 3d fd e5 d7 3b
       -0.05886798 0.11081759 0.11702411 0.006588696
000280 83 a4 c0 bd 11 84 f2 3c fc 8c c4 bd c7 68 b3 bd
       -0.09406378 0.02960399 -0.09597203 -0.08760219
000290 7a ad 67 3d 51 de 02 3d 45 82 96 bd 1c 0b 3d 3d
       0.056561925 0.0319503 -0.07349066 0.046153173
0002a0 63 df 97 bd 8d 75 9a 3d 9b 2d b9 3d eb 6e 66 bc
       -0.074156545 0.07541952 0.09041902 -0.014064531
0002b0 6d c6 eb 3d 63 95 d0 3d ea f4 c4 bd 3d 46 a5 bb
       0.11512456 0.10184743 -0.09617026 -0.0050437734
0002c0 af e9 c2 bd 4d 18 39 3d b0 77 af 3a aa 81 9e 3d
       -0.09517228 0.04518919 0.001338711 0.07739575
0002d0 4a 5a 12 3b b8 ea 9e 3d 74 8e b1 bd 49 ad a7 bd
       0.0022331649 0.07759613 -0.08669749 -0.081873484
0002e0 56 44 cd 3a 22 7b d9 bc 65 61 97 3c 87 f0 30 3d
       0.0015660624 -0.026547972 0.018479059 0.043198135
0002f0 87 eb 01 be 37 1f 88 3d cc b3 a9 3d b2 dd 84 3d
       -0.12687503 0.06646579 0.08286247 0.064875975
000300 a4 e7 cd bd 35 90 af 3d 87 61 79 3d 43 3a d5 3d
       -0.100539476 0.08572427 0.060884025 0.10411503
000310 33 6b a4 3d c7 41 1e 3d 03 6b fc bc a5 ff 4c 3c
       0.08028259 0.03863695 -0.030812746 0.012512122
000320 04 c9 4d 3d 76 0e bf bc 55 6a ed bd c5 d5 97 3d
       0.05024053 -0.023322325 -0.11592547 0.0741382
000330 bf 4b c6 bd 24 4a be bd 01 2b ee 3d d1 2e a6 bd
       -0.09682416 -0.09291485 0.11629296 -0.08114398
000340 15 37 1b bd 5f b8 f8 bc de c3 e6 bd ef 6c 89 3d
       -0.037894327 -0.030361352 -0.112678275 0.067102306
000350 6d f4 a9 bd c5 ae d2 3c f3 07 7f 3d 23 0f 26 3c
       -0.08298574 0.025718102 0.06226344 0.010135445
000360 94 3d 1f bd b0 f3 e2 3c 8e 04 42 3d f1 cc cd 3c
       -0.038877085 0.02770409 0.047367625 0.025122138
000370 94 45 73 bd 98 17 8a 3d 26 c7 f8 bb 52 68 9b 3c
       -0.059392527 0.067427814 -0.0075920997 0.018970642
000380 e6 e9 7e bd 1c a9 15 ba 30 8e a9 bd b9 03 e8 3d
       -0.06223478 -0.0005709098 -0.08279073 0.11328835
000390 be f4 18 3d ee 29 49 bd 94 72 42 3d c0 a8 9a bc
       0.03734278 -0.049112253 0.04747255 -0.018879294
0003a0 2d 04 8c 3d c4 5b d7 3d 7c 05 9c bd 49 81 4c 3d
       0.06836734 0.1051555 -0.076182336 0.049927983
0003b0 ca c8 3c bd 98 bd 9a 3c 88 17 bb 3d cf 83 8b 3d
       -0.046089925 0.018889233 0.091353476 0.0681225
0003c0 00 6d c2 3c a3 b2 2a 3c 2f 37 3f bd 92 7c c5 bc
       0.023733616 0.010418567 -0.046683487 -0.024107251
0003d0 1a 12 0a 3c 22 62 e8 3d de 1f 3a bd 65 48 2f 3c
       0.008427167 0.11346842 -0.045440547 0.010698413
0003e0 b3 4a ab 3d 93 9f 76 bd ea e6 80 bd d6 29 4a bd
       0.08363857 -0.060210776 -0.06294043 -0.049356304
0003f0 89 09 3c 3d 85 67 f4 3d e2 cf 02 be 80 20 36 bd
       0.04590753 0.11933807 -0.12774613 -0.04446459

fc_net.fc_net.2.bias f4 [64]
000000 c1 09 c4 bd b5 39 57 bd 97 51 38 3c 89 89 f8 3c
       -0.09572173 -0.052545268 0.011249921 0.03033902
000010 36 a5 79 3d cb 40 2c 3d cc 01 8e bd 41 51 a5 bd
       0.060948573 0.04205398 -0.069339365 -0.080721386
000020 98 ea ed 3d ab 6f 9c bd 7e 62 06 bd c1 e4 bf bd
       0.11617011 -0.076384865 -0.032808773 -0.09369803
000030 2b e2 68 bd 42 5e be 39 2b 14 fb 3d 9f 73 35 3d
       -0.056856316 0.00036309852 0.12259706 0.044299718
000040 b5 5f cd bb 90 49 32 bd a8 21 2e 3d 46 7e b4 bd
       -0.0062675127 -0.043527186 0.042512566 -0.08813147
000050 f0 b3 ad 3c 08 24 df bd f1 7b 25 3d e4 f8 4e 3d
       0.021203965 -0.10895544 0.040401403 0.05053033
000060 fc e5 85 ba 4a da 8e bc dd 31 8a bd d4 84 1c bd
       -0.0010215635 -0.017438073 -0.06747792 -0.038212612
000070 81 9b a3 3c 17 60 95 bd d0 5c f8 3c c9 e0 05 bd
       0.019971611 -0.07293718 0.030317694 -0.032685075
000080 04 03 78 3c e3 17 9a 3d 75 94 e5 bc 04 f4 e8 bc
       0.015137438 0.07524087 -0.028024891 -0.028436668
000090 c7 08 a4 3d af 83 ac 3d 50 f1 2b 3d 7b 90 d8 3d
       0.08009487 0.08423554 0.04197818 0.105744325
0000a0 bc 29 bd bd f1 b8 d9 3d 6a 9a 27 3d 55 40 a0 3d
       -0.09236476 0.10630978 0.040918745 0.0782477
0000b0 9d 7d 21 bc 41 0c 1a bc e0 ce d9 bc f2 e2 00 bd
       -0.009856609 -0.009402336 -0.026587903 -0.031466432
0000c0 53 20 e7 bd 37 51 b9 3d 70 39 82 b9 e9 12 f8 bd
       -0.11285462 0.090486936 -0.00024838326 -0.12112982
0000d0 1e 96 0e 3d cd 92 96 3d 07 44 66 3d 78 71 28 bd
       0.03481113 0.07352219 0.05621722 -0.041123837
0000e0 9f fb be 39 78 63 95 3d 65 91 58 bd f8 44 34 3d
       0.00036427096 0.07294363 -0.052873034 0.044011086
0000f0 16 96 a7 bd 5b 15 78 bd 53 b4 a7 3d dc 98 20 bc
       -0.081829235 -0.06056724 0.08188691 -0.0098020695

action_head.weight f4 [5, 64]
000000 7a 15 da 3c e9 be 79 bc e7 b8 72 3d 94 4f 9e bd
       0.026621569 -0.01524327 0.059258368 -0.07730022
000010 8d b4 e9 bd e4 f4 7a bc 94 5d c2 3d 2c 37 93 3d
       -0.114113905 -0.015317176 0.09490505 0.071882576
000020 d7 8a 00 3d 2d 1b b8 bd 10 bb 3b bd 29 05 b6 3b
       0.031382408 -0.08989558 -0.045832694 0.0055548144
000030 28 60 b8 bc be 15 0f 3d 6e bd ff bd d2 ec dc bd
       -0.022506788 0.034932844 -0.12487303 -0.107873574
000040 21 7b e8 bd c0 1d 88 bb b8 ba ca 3d cf bb de 3d
       -0.1135161 -0.004153937 0.09898895 0.108756654
000050 34 0f 9c 3d c7 dc de bc 06 cc 00 bc 5d a4 ad 3d
       0.07620087 -0.027204884 -0.007861143 0.084786154
000060 f1 4e d5 3d e7 ee ef 3c 9b 5f 00 3d e5 73 a4 3d
       0.104154475 0.029288722 0.031341176 0.08029918
000070 fc a5 17 3d 84 92 76 3c 3b 38 de bc dc eb 18 bd
       0.03702353 0.0150495805 -0.027126422 -0.037334308
000080 e2 e2 ca bd d9 61 b2 bd 45 7a 00 bd d8 1a b2 bd
       -0.09906556 -0.08710069 -0.031366605 -0.08696526
000090 bf b8 ff 3c e8 e4 b1 3d 73 fa 0d bd d4 46 91 bd
       0.031216023 0.086862385 -0.034662675 -0.070935875
0000a0 90 23 f8 bd c1 1a e5 3c b8 46 2a 3d 42 dd 80 3d
       -0.12116158 0.027966859 0.04157135 0.062922016
0000b0 d4 a0 c6 3d b6 0d b5 3d 38 20 95 bd 75 df 17 3d
       0.09698644 0.08840506 -0.07281536 0.03707834
0000c0 10 4f db bb 05 96 d9 bd c8 fc da bd 4e 03 bf 3d
       -0.0066927746 -0.10624317 -0.106927454 0.09326802
0000d0 23 b8 53 3d 18 57 99 bb 3d d1 1a bd bb 5a 11 bc
       0.05168928 -0.004679572 -0.0377972 -0.0088717295
0000e0 91 fe f0 3d 2f 91 4b bd e7 0c 9b 3d 46 94 f8 bd
       0.11767305 -0.049699005 0.0757082 -0.12137656
0000f0 83 3b 9e 3d b2 ca bf bd 9c a6 90 3d 9f 73 68 bd
       0.07726195 -0.09364833 0.07063028 -0.05675089
000100 14 51 9e 3c a1 b7 96 bd cc db 88 bb 1a cb 9b 3c
       0.01932577 -0.07359243 -0.0041765925 0.019017745
000110 10 dd 24 bc 14 74 d6 3d 83 85 ca bd 1e 14 80 3d
       -0.010062471 0.10471359 -0.098887466 0.06253837
000120 72 72 04 bc 61 63 92 bc a4 36 06 3d d7 17 e9 bd
       -0.0080839265 -0.017869653 0.032766953 -0.113815
000130 7a 2b e7 bd 52 f0 e3 3d c4 d5 1f 3d b1 fb 43 bc
       -0.11287589 0.11129822 0.039022222 -0.011961863
000140 6c 5c fe 3c ae 56 c9 3b 73 50 80 bd 50 c6 ce 3b
       0.03104993 0.006144366 -0.062653445 0.006310262
000150 ff cd 9d 3d 7f bb 5c 3c 2b 8f 9e bd 38 0a ab bd
       0.07705306 0.013472437 -0.07742151 -0.083515584
000160 91 7e 21 bc cd 48 f2 3d 14 63 77 bd 08 29 d8 3c
       -0.009856836 0.11830292 -0.060397223 0.026386753
000170 2f d0 3f bd 93 82 e1 3d 8b 73 e1 3d 6f 09 9e bc
       -0.0468294 0.11011233 0.11008366 -0.019291608
000180 9f eb a2 bd 78 c8 df 3d 77 1e a0 3d cc 78 8b bd
       -0.079550974 0.10926908 0.07818311 -0.068101496
000190 d8 2d 2e bd c6 44 c3 bd 01 3c ce bb 12 ff 70 3d
       -0.04252419 -0.09534602 -0.006293774 0.058837004
0001a0 fa 96 14 3d 66 00 f0 bd b7 c6 b7 bd 52 36 12 bd
       0.036276795 -0.11718826 -0.08973449 -0.035696335
0001b0 97 2a b7 bc b9 19 86 bd 07 d0 52 3d 5f 68 b4 bd
       -0.022359176 -0.06547875 0.05146792 -0.0880897
0001c0 2e 5b 98 3d f7 86 bf 3c 76 f3 6a 3d 70 dd 8e 3d
       0.07439266 0.023379786 0.05736109 0.069758296
0001d0 95 8c d1 3d 0a 06 28 3d 4e 3b 6c bc eb 57 bb bd
       0.10231892 0.041021384 -0.014418436 -0.091476284
0001e0 f2 e2 21 bd 88 b0 5a 3d e7 88 1b 3c 76 3b f3 3c
       -0.039523073 0.05339101 0.009493089 0.02969144
0001f0 29 d5 16 bd 36 52 4d 3b c3 a3 85 3d 7e 5d d7 bc
       -0.03682438 0.003132952 0.06525376 -0.026289698
000200 61 29 e8 3d 0d e3 6e 3c 3a 5e e9 bd af 89 93 3b
       0.113360174 0.0145805 -0.113949254 0.004502497
000210 8b 3d 37 3c 4c d7 c0 bd e7 19 83 bd a3 a0 fa bd
       0.011184107 -0.094160646 -0.06401425 -0.1223767
000220 2a 64 a1 3c eb 3b 22 3d 6a 27 bd 3c 7f 91 f5 bc
       0.019701082 0.039607923 0.023090083 -0.029976605
000230 9d 26 9a bd 0a 36 86 3d 98 b1 b8 3d 4a bf 71 bd
       -0.07526896 0.06553276 0.09018248 -0.059020318
000240 87 9e cc 3d 24 dd b4 bd cc 88 55 3c 32 39 a3 3d
       0.09991174 -0.08831242 0.013033103 0.079698935
000250 44 f4 5f 3d 4b d2 cd 3d 8e 50 8e 3d cb eb 4e 3d
       0.05467631 0.10049876 0.06948958 0.05051784
000260 a7 88 2d 3c 52 56 bd bd 41 7a d6 3d 5e 7a 34 3d
       0.0105916625 -0.0924498 0.10472537 0.04406201
000270 cf c4 d3 bd d3 c7 8b bd 73 c8 28 3b cd 11 3c 3d
       -0.10340273 -0.06825223 0.0025754243 0.045915414
000280 ab 1f dd bd e4 57 43 bc a4 6d cb 3d ce 39 26 bd
       -0.10797056 -0.01192281 0.09933022 -0.04058247
000290 14 dd cc bd bc 8b 8f bd 45 95 a8 3a 5a d3 54 3d
       -0.10003105 -0.07009074 0.0012861869 0.051959373
0002a0 53 b9 90 bd e2 bb eb 3c 6b eb 72 bd ae 45 b7 bd
       -0.07066598 0.028776113 -0.059306543 -0.08948837
0002b0 bd 40 b3 bd 33 5e ac bd 8d 86 87 bd f6 2b 9c 3d
       -0.08752582 -0.084164046 -0.066174604 0.076255724
0002c0 77 3e bc 3d f0 a8 03 bd ba 60 cb 3d 04 c3 ed bd
       0.09191602 -0.032143533 0.099305585 -0.11609462
0002d0 68 87 a7 bd c5 2a 45 3c e5 35 ba bd 9f 56 d6 bd
       -0.081801236 0.012034123 -0.09092311 -0.104657404
0002e0 60 f9 ff 3d c3 89 a8 3d dd 62 fa 3d eb 57 85 3d
       0.124987364 0.08229401 0.12225888 0.0651091
0002f0 4e cb 6b bc f9 9a 63 3d 73 85 26 3d da ad d5 3d
       -0.014391733 0.055567715 0.04065461 0.1043355
000300 a8 07 6a bd 1f 93 ab bd 44 6e a3 3b b8 26 fa bc
       -0.057136208 -0.083776705 0.00498751 -0.03053604
000310 54 f9 21 3d 1f bd 38 bd 1d 19 df 3d 7a 1f 17 3d
       0.03954442 -0.045102235 0.10893462 0.036895253
000320 bd 43 ea bc 09 68 8d bd f6 f4 f5 3d 9d 56 a5 3d
       -0.028596753 -0.06904609 0.12009613 0.08073161
000330 ca 9b da bd 2e 50 53 3d 8b 9a 0b 3b 5b b9 f8 bc
       -0.10674246 0.051590137 0.0021301832 -0.030361822
000340 dc db c3 3d ab de f0 3d ea c8 8d bd 03 66 fa 3d
       0.09563419 0.117612205 -0.06923087 0.122264884
000350 a9 b5 cc bd b7 fa 2d bb e3 79 36 3d a5 5c 62 3d
       -0.099955864 -0.0026547143 0.044549834 0.055264134
000360 db 03 15 3d 70 fe 7f 3d 81 8b f0 bc 7c 21 e1 3d
       0.03638063 0.06249851 -0.029363396 0.10992715
000370 78 c3 96 bc 77 75 63 bd 77 0e 59 3d fa 06 e8 3c
       -0.018403754 -0.055531945 0.05299231 0.02832364
000380 28 fa dd bd 52 a4 e2 bc 54 07 78 bc 96 7b d2 3d
       -0.10838729 -0.027666245 -0.015138466 0.102774784
000390 dc 90 5f 3c d2 4c b5 bd 2a da 09 bd 83 33 c5 3d
       0.013645377 -0.08852543 -0.033655323 0.09628966
0003a0 7b 51 dc 3d f3 87 9c 3d 07 10 b9 3b 37 e3 3e 3d
       0.10757729 0.07643118 0.0056476626 0.046603408
0003b0 b1 c6 8a 3d d3 3b f9 bd eb 23 bc 3d f5 0e a8 3d
       0.06776179 -0.12169614 0.09186538 0.08205978
0003c0 2c fe 63 3d 2b bc 8b bd c1 d2 11 3d 1c da 83 3c
       0.05566232 -0.068229996 0.03560138 0.016095214
0003d0 7e 01 54 3d bd 79 a4 3d 97 a9 d5 3d 0b f6 e2 bd
       0.051759236 0.08031032 0.10432737 -0.11082085
0003e0 4c 36 70 3d ba a9 fd bc 51 57 9e bd 00 3d c8 bd
       0.05864553 -0.030964721 -0.07731498 -0.0977726
0003f0 14 fa df bd 1d b1 08 bd 75 50 82 bd 8c 10 55 bc
       -0.109363705 -0.033372033 -0.06363002 -0.013004433

action_head.bias f4 [5]
000000 99 e1 a1 3d 8c 78 de bc 11 fa 3d bd 1a 29 37 bb
       0.079043575 -0.02715709 -0.04638106 -0.0027948082
000010 da e4 44 3b
       0.0030043633

value_head.weight f4 [1, 64]
000000 5b f5 99 3d cc d4 a1 bd b0 87 fb 3d fc c5 7a 3d
       0.07517501 -0.07901916 0.1228174 0.06122397
000010 35 a2 c9 3d d0 34 6b bd 93 ae 36 3d aa 58 e8 bd
       0.09845392 -0.057423413 0.04460008 -0.11345036
000020 11 3b 76 3d ba 53 c8 bd d3 30 ed bb 57 15 6b 3d
       0.060114924 -0.097815946 -0.0072384863 0.057393398
000030 7d 28 b0 3d 33 17 eb bd a2 05 87 bc 68 a9 a2 3c
       0.086014725 -0.11479034 -0.016482178 0.01985617
000040 d7 f0 a3 3d 01 92 d7 3d 0f c9 73 bd ef 5c c2 3d
       0.08004921 0.10525895 -0.059517916 0.09490382
000050 94 5a bf bc 09 e1 c4 3d e8 f3 50 3d a4 c1 df bc
       -0.02335862 0.096132345 0.051013857 -0.027314015
000060 d8 33 29 3d b7 45 4d bd d3 5a 5b bd 00 05 48 3d
       0.041309208 -0.050115313 -0.053553414 0.048832893
000070 48 ca ea 3d f1 31 c1 bd aa fd 91 3c 82 38 69 bd
       0.11464363 -0.09433354 0.017821152 -0.056938656
000080 3c 41 b3 bd 98 de 79 bc 90 ac 3a bd 60 8d 54 3c
       -0.08752677 -0.015250824 -0.045574725 0.01297316
000090 30 e4 93 3d 9e 46 72 3d 2f 70 d4 bc ff 36 04 bd
       0.07221258 0.059149377 -0.0259324 -0.03227901
0000a0 5d 41 c2 bd 94 17 c8 3d db bc b1 3d d6 99 c9 3c
       -0.09485123 0.09770122 0.086785994 0.024609488
0000b0 5c bb bd 3d 58 87 e1 3d 4c c7 7d 3d c6 f9 ed bb
       0.092642516 0.11012143 0.061957642 -0.0072624413
0000c0 2c 93 cf 3d ab 16 53 bd 9f 58 5d bd 25 cc d6 bd
       0.10135493 -0.05153529 -0.054039594 -0.10488156
0000d0 29 12 a5 ba 7c b1 77 b9 c6 2f 13 3d 73 ad 32 3a
       -0.0012593913 -0.00023621874 0.035934232 0.0006816007
0000e0 4d bd ce bd 74 e5 08 3d 04 4f a6 3d 57 b0 fa bc
       -0.100947 0.03342195 0.0812054 -0.030601664
0000f0 ae 37 d7 3b cf 66 cb 3c ab 04 ca bd 67 4e 9d 3b
       0.006567917 0.024829296 -0.098641716 0.004800606
