2022/20-华立民 指导老师-马里佳/code/output/2-agents_domain-PredatorPrey-2_adversaryratio-0.5_RADAR_X_2022-11-16-08-00-25/protagonist_model.pth (torch, 52943 bytes, 7 tensors)

fc_net.fc_net.0.weight f4 [64, 125]
-0.07707866 0.088644914 0.07605644 0.06946712 -0.0352315 -0.04387179 -0.024202965 0.04443816
-0.005530089 -0.06821942 0.06249664 -0.06671849 -0.043525 0.001719065 0.05819813 -0.06617155
-0.057649687 0.012922116 0.038711555 0.024998613 0.0106479 0.016832046 0.054867767 0.08859169
0.05763101 -0.0029255752 -0.036643136 0.006233274 0.06817303 -0.068553895 0.026345532 -0.021583408
-0.02056311 -0.06919093 -0.08095742 -0.029674208 -0.078766845 -0.029026315 0.011742556 0.041027393
0.030720366 0.050395325 0.041412845 0.023301119 -0.08038862 -0.08658547 0.009789387 -0.0070898538
0.07150787 0.021782618 0.07347417 -0.019220343 0.036986478 -0.060355082 -0.04009415 -0.013311497
-0.03844573 -0.026646748 0.02688276 -0.03285026 0.05086987 0.0015567206 0.07764092 0.080531344
-0.04035454 -0.043892164 -0.040230416 -0.024901804 -0.0017539231 -0.06997191 0.0077842604 0.04420108
0.041994784 -0.0856848 -0.052976638 -0.018161582 0.079872034 0.064872734 -0.0117513575 0.026110994
-0.049877863 -0.038611766 0.04346142 0.06402052 0.0819357 -0.060930822 0.00351772 0.00022023916
0.007720704 -0.007723408 0.06272633 0.012645009 -0.037532184 -0.0023785867 0.02030604 -0.019488228
-0.08708343 -0.08035782 0.08450618 0.05559837 0.051055543 0.029389292 0.058892824 0.0206021
0.028390653 0.083197854 -0.0733846 0.05543088 0.03754603 -0.074181154 0.051136337 0.0051072985
-0.078809045 -0.051600616 -0.037946086 -0.04209183 0.08423623 -0.026631162 -0.019548379 0.08036622
-0.010459736 -0.015192173 0.07291152 -0.025366776 -0.055917855 0.036491655 0.046222843 -0.04998153
0.022913806 0.068870924 0.05749757 -0.07698144 -0.08901406 -0.073090926 0.06826814 0.063781895
0.013601452 0.045463134 -0.06406708 0.07930688 -0.0754568 -0.049325474 -0.059222504 -0.0052438527
-0.009882249 -0.06974741 -0.014976703 -0.023368299 0.04730984 -0.025371924 0.06015704 0.031433366
-0.058976304 0.08538146 0.058540843 -0.07749276 0.0022925632 0.011224477 0.008594638 0.062307443
0.0042473776 -0.05541915 0.06152323 0.007755255 -0.06882573 0.08772368 0.00044453645 -0.010004168
0.06017486 -0.016668063 -0.037159372 -0.07513651 -0.030745 0.053978987 -0.03784039 -0.08202686
0.08821765 0.004184032 0.010419451 0.08696153 0.059124496 -0.018120673 0.060708288 0.045532264
0.047098607 -0.005497603 0.028252069 0.039578173 -0.038034942 0.002816652 0.008388869 -0.018682042
-0.04475495 -0.08210204 -0.027094197 0.030474726 -0.07053562 0.012342746 0.044730354 0.02221686
0.0023786968 -0.05151465 0.028022211 0.07840322 -0.014489188 0.03778403 -0.07760977 -0.08222574
0.06126599 -0.07734833 0.06104088 -0.012071326 -0.07858636 -0.04369744 -0.009181149 0.074053474
0.006883706 -0.06734666 -0.0865435 0.03577426 -0.085019246 -0.040365737 0.017411483 -0.06024965
0.026758498 -0.02859842 -0.07300183 0.018859208 0.026935928 0.070513256 -0.0067016333 0.085489504
-0.039043557 0.03211569 -0.08099173 0.05532276 0.031950288 -0.04152886 0.07188947 -0.028389215
-0.06401381 0.05478952 -0.084199674 -0.07512579 0.087802134 0.013159364 -0.052020703 -0.05740314
0.023738287 0.011957675 0.038635857 0.027958483 0.046062447 0.088762306 -0.06773533 -0.029067907
00000000: 6bdb 9dbd 778b b53d 7bc3 9b3d c744 8e3d
00000010: e84e 10bd e8b2 33bd 4c45 c6bc ca04 363d
00000020: c035 b5bb a0b6 8bbd 7afc 7f3d b4a3 88bd
00000030: 4547 32bd 4052 e13a 2a61 6e3d f384 87bd
00000040: 1422 6cbd 48b7 533c 0290 1e3d e4c9 cc3c
00000050: 8874 2e3c 5ce3 893c 06bd 603d 8f6f b53d
00000060: 7e0e 6c3d 02bb 3fbb 1d17 16bd 7e40 cc3b
00000070: 4d9e 8b3d fc65 8cbd 96d2 d73c b0cf b0bc
00000080: f873 a8bc f9b3 8dbd 01cd a5bd 5317 f3bc
00000090: 8350 a1bd 98c8 edbc d963 403c 570c 283d
000000a0: 47a9 fb3c 546b 4e3d 84a0 293d fde1 be3c
000000b0: caa2 a4bd b953 b1bd aa63 203c 0152 e8bb
000000c0: b872 923d 7671 b23c a079 963d fb73 9dbc
000000d0: 227f 173d e436 77bd c339 24bd 7718 5abc
000000e0: 4579 1dbd 484a dabc 3c39 dc3c ff8d 06bd
000000f0: ed5c 503d e00a cc3a 3402 9f3d 9eed a43d
00000100: cd4a 25bd 45c8 33bd a6c8 24bd defe cbbc
00000110: e5e3 e5ba 6f4d 8fbd 1c13 ff3b 310c 353d
00000120: b902 2c3d 837b afbd 08fe 58bd 99c7 94bc
00000130: f393 a33d ffdb 843d c488 40bc b9e6 d53c
00000140: bb4c 4cbd 5f27 1ebd 9a04 323d 311d 833d
00000150: e7cd a73d 9992 79bd 8c89 663b 00f0 6639
00000160: f6fd fc3b a414 fdbb a976 803d 032d 4f3c
00000170: 59bb 19bd 10e2 1bbb da58 a63c c7a5 9fbc
00000180: cc58 b2bd a492 a4bd 9311 ad3d 1ebb 633d
00000190: 9e1f 513d d0c1 f03c 9a39 713d bcc5 a83c
000001a0: 8493 e83c a363 aa3d aa4a 96bd 7e0b 633d
000001b0: dec9 193d 4aec 97bd 5674 513d 205b a73b
000001c0: a366 a1bd 2b5b 53bd 5b6d 1bbd 7c68 2cbd
000001d0: 0b84 ac3d 9829 dabc ec23 a0bc 0b97 a43d
000001e0: 505f 2bbc 98e8 78bc a352 953d fccd cfbc
000001f0: 1f0a 65bd 4678 153d 2a54 3d3d 6fb9 4cbd
00000200: bcb5 bb3c 330c 8d3d 9282 6b3d 72a8 9dbd
00000210: 014d b6bd b2b0 95bd 2bd0 8b3d 15a0 823d
00000220: a0d8 5e3c 8d37 3a3d 9a35 83bd a56b a23d
00000230: 1889 9abd 8209 4abd 4c93 72bd a0d4 abbb
00000240: 28e9 21bc bbd7 8ebd d860 75bc e06e bfbc
00000250: f6c7 413d c8d8 cfbc 3a67 763d 46c0 003d
00000260: 2391 71bd 7adc ae3d 86c8 6f3d 86b4 9ebd
00000270: d43e 163b dee6 373c 86d0 0c3c 1736 7f3d
00000280: 962d 8b3b 31ff 62bd c8ff 7b3d cb1f fe3b
00000290: 81f4 8cbd 79a8 b33d ac10 e939 86e8 23bc
000002a0: ea79 763d 768b 88bc 6d34 18bd 2ce1 99bd
000002b0: f0dc fbbc 1219 5d3d 86fe 1abd b3fd a7bd
000002c0: 75ab b43d 341a 893b 58b6 2a3c e318 b23d
000002d0: 872c 723d ce71 94bc 41a9 783d 0a80 3a3d
000002e0: 78ea 403d 3d25 b4bb e270 e73c b91c 223d
000002f0: 87ca 1bbd 9497 383b 7871 093c 150b 99bc
00000300: f750 37bd 1d25 a8bd a6f4 ddbc 22a6 f93c
00000310: fb74 90bd 3b39 4a3c 2d37 373d 2200 b63c
00000320: e9e3 1b3b 0701 53bd d68e e53c de91 a03d
00000330: 0f64 6dbc 6dc3 1a3d dff1 9ebd f865 a8bd
00000340: 0cf2 7a3d cd68 9ebd 0006 7a3d d0c6 45bc
00000350: e3f1 a0bd 16fc 32bd 886c 16bc 59a9 973d
00000360: b690 e13b 0ced 89bd b83d b1bd 0888 123d
00000370: 921e aebd 8b56 25bd 87a2 8e3c 56c8 76bd
00000380: a334 db3c 3c47 eabc fc81 95bd a07e 9a3c
00000390: bca8 dc3c 4169 903d 6099 dbbb 1f15 af3d
000003a0: 23ec 1fbd be8b 033d fede a5bd 1e9a 623d
000003b0: 4ede 023d 2a1a 2abd c93a 933d 8090 e8bc
000003c0: ac19 83bd fa6a 603d e170 acbd 8ddb 99bd
000003d0: 9bd1 b33d 609a 573c a913 55bd 8e1f 6bbd
000003e0: cc76 c23c 20ea 433c a240 1e3d 3009 e53c
000003f0: faab 3c3d 03c9 b53d d2b8 8abd d21f eebc

fc_net.fc_net.0.bias f4 [64]
-0.025196338 0.029911734 0.07136114 -0.028650882 0.022536723 0.04662887 -0.018420272 0.0075235344
-0.0051094163 -0.072260104 0.065806426 0.0036772252 0.084905155 -0.050371133 -0.036049385 -0.033241462
-0.06114477 -0.08252293 0.058937285 0.057675194 -0.012998598 -0.05327015 0.039399967 -0.0752217
-0.03658941 -0.004539605 0.015021083 0.0015038718 0.016672503 0.01577455 -0.010102414 -0.085683055
0.05494656 0.024258431 0.06490035 0.029763248 0.0037525059 -0.082155146 -0.04601819 -0.018306011
0.078607194 -0.07231416 -0.018061625 0.08890221 -0.042302713 -0.08098197 0.061059806 0.04754445
0.029524269 0.0027971151 -0.07426773 -0.050336804 -0.0342621 0.044318408 0.066572785 -0.063752726
-0.017648324 -0.08423713 0.08556234 0.030045958 0.012511546 -0.07685095 0.03535259 -0.06538096
00000000: 8d68 cebc 7409 f53c ca25 923d 41b5 eabc
00000010: ef9e b83c eafd 3e3d 1ce6 96bc fb87 f63b
00000020: e46c a7bb 1bfd 93bd 85c5 863d 9afd 703b
00000030: c1e2 ad3d f651 4ebd 85a8 13bd 3328 08bd
00000040: f072 7abd c801 a9bd 3968 713d d33c 6c3d
00000050: 12f8 54bc cd31 5abd dc61 213d d60d 9abd
00000060: c7de 15bd f8c0 94bb fd1a 763c 901d c53a
00000070: c694 883c a139 813c 9884 25bc 997a afbd
00000080: a50f 613d 9eb9 c63c 7aea 843d 0ed2 f33c
00000090: 9aec 753b f540 a8bd 927d 3cbd 7df6 95bc
000000a0: cffc a03d 7219 94bd f9f5 93bc 5d12 b63d
000000b0: 9c45 2dbd e0d9 a5bd d919 7a3d f8bd 423d
000000c0: e1dc f13c ce4f 373b ae19 98bd f72d 4ebd
000000d0: 6a56 0cbd 3887 353d 5057 883d ca90 82bd
000000e0: 3893 90bc 8484 acbd 4f3b af3d f122 f63c
000000f0: 3afd 4c3c 0864 9dbd e1cd 103d 74e6 85bd

fc_net.fc_net.2.weight f4 [64, 64]
-0.02281981 -0.02102816 -0.024194553 0.0104389405 -0.08397642 0.043752786 -0.10358321 0.017031118
-0.058344256 0.115829244 0.056421917 0.022218466 0.11887523 0.06353871 -0.0190647 -0.018685242
-0.047905017 0.102213584 -0.07277474 -0.10297174 -0.11536959 0.04919347 0.06153602 0.101396896
0.11400639 -0.0035000206 0.09665326 0.04135689 -0.046113804 0.024461422 0.07002889 0.11636545
0.070419304 -0.06590136 -0.08797792 0.047759715 0.09189826 -0.054610644 -0.03316037 0.0026970175
-0.017392833 -0.072629906 0.054981936 0.07266627 -0.012591927 -0.08837184 0.03554189 0.04543902
-0.08180526 -0.057981055 -0.07914891 0.05887227 -0.08914849 0.07177311 0.1097793 0.07143062
0.08754341 0.0143384235 0.09943812 -0.01911775 -0.05942952 -0.09171527 -0.028155614 -0.11946288
-0.016691178 0.115309104 -0.059218343 0.056745317 -0.08819201 0.01695197 0.05659094 -0.06846718
-0.10524106 0.075389534 -0.094341174 -0.004504564 -0.025876869 -0.021935083 0.020615242 -0.073314324
0.08410385 -0.034042872 0.051344655 0.08820923 0.030469213 -0.068851344 -0.0037145596 -0.11738736
-0.044356845 -0.011585791 -0.07213747 -0.10923317 0.065159194 0.024286851 0.035131365 0.046936028
-0.03738825 0.027683066 0.12541679 -0.12531057 0.082119375 -0.03166654 -0.029144475 0.018567499
-0.05265197 0.016589457 0.10193411 0.057144694 -0.027932536 0.017006924 -0.0828219 -0.07550368
0.09268322 -0.100355044 0.071435675 0.07813806 -0.088137336 0.06520967 0.061537314 -0.101887226
0.07349086 0.059508696 0.0032426815 -0.123519674 -0.047879398 -0.04708593 0.062575325 -0.0036488194
0.12618779 0.052056257 0.018572364 -0.07486891 0.0586639 0.004673813 -0.08191041 0.04021256
0.020937 0.098222144 -0.07266079 0.04854041 0.02502312 0.055662435 0.049894128 0.0029290314
0.06157518 0.06850974 0.05511199 0.1183672 0.019671401 0.1204601 0.05459192 0.04494202
0.050632898 -0.049773775 -0.09264753 0.020318134 0.01167888 -0.1178494 -0.08015379 0.10670877
0.021798706 -0.022966491 0.11432176 -0.034972813 0.020165432 -0.036121428 -0.009017497 0.09414193
0.08167523 -0.019675754 0.09758275 0.05963169 0.0023832407 -0.069490366 -0.090103745 0.09581151
-0.035113376 -0.02071188 0.11151526 -0.08897001 0.12091321 0.0033707428 0.032907262 0.019740438
0.061157454 -0.116175435 0.0006601585 0.061536714 0.036043525 -0.04600631 0.01957678 0.053937793
0.12543303 0.07162999 0.037538454 -0.0015345268 0.041856077 -0.018331131 0.06352892 -0.08362362
0.05276316 0.025355803 -0.04758904 0.109069124 -0.03697084 0.08425419 0.095372505 0.082903676
0.10435935 0.07351946 0.08405027 0.0007702427 -0.06333584 0.110866874 0.03236806 0.123619996
-0.11402775 -0.10850201 0.06681274 0.05488521 -0.020661836 0.03523487 -0.054125477 0.0025419963
0.008149201 -0.08999294 0.0047301785 -0.08002583 0.007591077 -0.015172477 0.09049171 0.079096064
-0.0040468047 0.027880615 -0.09733162 -0.004345528 -0.10610831 -0.017695667 -0.041878663 -0.07314681
-0.09367763 0.11139031 0.0015069315 0.09329702 -0.024320222 0.099844866 -0.101399034 0.07986272
-0.014008479 -0.11259544 -0.015833411 0.091429986 0.030358508 0.027306784 -0.075369895 0.037190963
00000000: 9cf0 babc 3f43 acbc a833 c6bc 1708 2b3c
00000010: d4fb abbd 1f36 333d 6f23 d4bd d884 8b3c
00000020: 63fa 6ebd e237 ed3d ab1a 673d 8003 b63c
00000030: db74 f33d 9520 823d 932d 9cbc cb11 99bc
00000040: 0d38 44bd 5b55 d13d ec0a 95bd d9e2 d2bd
00000050: e446 ecbd 187f 493d 320d 7c3d 2da9 cf3d
00000060: 2f7c e93d 9a60 65bb 25f2 c53d d865 293d
00000070: d4e1 3cbd 5263 c83c 4f6b 8f3d 0251 ee3d
00000080: ff37 903d 4bf7 86bd c52d b4bd b19f 433d
00000090: 2835 bc3d 69af 5fbd 2bd3 07bd 72c0 303b
000000a0: 6a7b 8ebc fdbe 94bd bd34 613d 0ed2 943d
000000b0: 5f4e 4ebc 4cfc b4bd 5f94 113d 441e 3a3d
000000c0: 8489 a7bd 8b7d 6dbd d318 a2bd 0d24 713d
000000d0: 7c93 b6bd c8fd 923d f8d3 e03d 384a 923d
000000e0: f649 b33d b5eb 6a3c 37a6 cb3d d49c 9cbc
000000f0: 5e6c 73bd 37d5 bbbd 9aa6 e6bc f4a8 f4bd
00000100: f0bb 88bc 2e27 ec3d ef8e 72bd c76d 683d
00000110: 039e b4bd dcde 8a3c e7cb 673d 8538 8cbd
00000120: a088 d7bd d465 9a3d f235 c1bd 069b 93bb
00000130: bafb d3bc 34b1 b3bc 4ce1 a83c d225 96bd
00000140: a43e ac3d 8a70 0bbd c64e 523d 0aa7 b43d
00000150: 929a f93c ef01 8dbd f86f 73bb c968 f0bd
00000160: 86af 35bd 54d2 3dbc cfbc 93bd a4b5 dfbd
00000170: 2f72 853d 38f5 c63c e8e5 0f3d fe3f 403d
00000180: 6c24 19bd 99c7 e23c 426d 003e 6a51 00be
00000190: 342e a83d c6b4 01bd 65c0 eebc de1a 983c
000001a0: 98a9 57bd 9de6 873c d5c2 d03d 8e10 6a3d
000001b0: c6d2 e4bc 1b52 8b3c 879e a9bd aca1 9abd
000001c0: b3d0 bd3d f286 cdbd de4c 923d d906 a03d
000001d0: 5981 b4bd a68c 853d 8d0e 7c3d 40aa d0bd
000001e0: 6082 963d 64bf 733d 2b83 543b e2f7 fcbd
000001f0: 301d 44bd 2ddd 40bd 7e27 803d 0821 6fbb
00000200: 5f37 013e f138 553d 1225 983c df54 99bd
00000210: 8f49 703d c926 993b a5c0 a7bd edb5 243d
00000220: 1284 ab3c b128 c93d 2ecf 94bd 4fd2 463d
00000230: 49fd cc3c 4bfe 633d c95d 4c3d fef4 3f3b
00000240: 4236 7c3d d64e 8c3d 1cbd 613d 816a f23d
00000250: eb25 a13c c9b3 f63d c79b 5f3d 2015 383d
00000260: 7164 4f3d 96df 4bbd fdbd bdbd 3772 a63c
00000270: c658 3f3c 075b f1bd ac27 a4bd 218a da3d
00000280: 3393 b23c 3924 bcbc 8721 ea3d a73f 0fbd
00000290: fa31 a53c 10f4 13bd 20be 13bc 7ccd c03d
000002a0: 5845 a73d 0c2f a1bc 77d9 c73d 5c40 743d
000002b0: 2530 1c3b f750 8ebd 5088 b8bd d338 c43d
000002c0: 0bd3 0fbd f6ab a9bc 1d62 e43d e935 b6bd
000002d0: 58a1 f73d aee7 5c3b c4c9 063d b3b6 a13c
000002e0: 3d80 7a3d 63ed edbd 7d0e 2d3a ec0d 7c3d
000002f0: 60a2 133d 1d71 3cbd 7c5f a03c e0ed 5c3d
00000300: 8471 003e bfb2 923d ecc1 193d 2d22 c9ba
00000310: 4771 2b3d 2b2b 96bc 731b 823d dc42 abbd
00000320: 2f1e 583d f9b6 cf3c baec 42bd a25f df3d
00000330: bc6e 17bd 768d ac3d a952 c33d 67c9 a93d
00000340: 5bba d53d 5f91 963d 8c22 ac3d 1dea 493a
00000350: 39b6 81bd 2c0e e33d 5f94 043d 7b2c fd3d
00000360: 6287 e9bd 4d36 debd 1ed5 883d 50cf 603d
00000370: 0343 a9bc 7052 103d adb2 5dbd 9f97 263b
00000380: 3a84 053c 384e b8bd 9dff 9a3b 95e4 a3bd
00000390: 92be f83b fb95 78bc b853 b93d 1efd a13d
000003a0: 0f9b 84bb e365 e43c cd55 c7bd ee64 8ebb
000003b0: 504f d9bd 81f6 90bc f688 2bbd ffcd 95bd
000003c0: 0fda bfbd 9a20 e43d 3b84 c53a 8212 bf3d
000003d0: 343b c7bc 777b cc3d 4caa cfbd 118f a33d
000003e0: d283 65bc 7098 e6bd 12b5 81bc a53f bb3d
000003f0: 68b2 f83c 7ab2 df3c 885b 9abd 8d55 183d

fc_net.fc_net.2.bias f4 [64]
0.0004126127 -0.07440873 -0.068999924 -0.08905481 -0.01608398 0.024672007 0.031037332 -0.024919175
-0.016811209 0.01047934 -0.008523405 0.05742862 -0.029357992 0.059111003 -0.07287375 0.034887414
-0.031972136 -0.03539466 0.069208525 0.09793149 0.06364697 -0.10094337 0.08747768 -0.05191198
0.019159518 0.019636204 -0.04304268 0.0031653647 -0.09490749 -0.036845144 0.010040876 0.08625262
0.016613156 -0.020009583 0.113241315 0.067757376 -0.12455059 -0.032944523 -0.007969226 -0.118517764
-0.0004210628 0.00849595 -0.064619265 0.10768631 -0.11841841 -0.08825702 0.06621082 0.009143551
0.0020988204 0.09488089 0.102350414 -0.038892183 0.015658747 -0.062102128 -0.09458879 -0.12650439
-0.03565502 0.10527918 0.0073960447 -0.11343034 0.12052093 0.061855584 0.027383316 0.028314112
00000000: f053 d839 9b63 98bd d54f 8dbd 5e62 b6bd
00000010: 8dc2 83bc f31c ca3c 0142 fe3c 4c23 ccbc
00000020: a9b7 89bc 8ab1 2b3c c0a5 0bbc 463a 6b3d
00000030: 2c80 f0bc 611e 723d d53e 95bd 1be6 0e3d
00000040: 37f5 02bd fef9 10bd 33bd 8d3d 4e90 c83d
00000050: 5859 823d 66bb cebd 7f27 b33d a8a1 54bd
00000060: 6cf4 9c3c 1bdc a03c 854d 30bd 0272 4f3b
00000070: dc5e c2bd efea 16bd 7d82 243c 37a5 b03d
00000080: 5018 883c 23eb a3bc 10eb e73d 61c4 8a3d
00000090: 6114 ffbd d6f0 06bd 5b91 02bc 71b9 f2bd
000000a0: 18c2 dcb9 9932 0b3c 1b57 84bd a48a dc3d
000000b0: 5a85 f2bd 19c0 b4bd 8a99 873d d5ce 153c
000000c0: 5d8c 093b e950 c23d 189d d13d 694d 1fbd
000000d0: c646 803c cd5e 7ebd c4b7 c1bd 5e8a 01be
000000e0: 000b 12bd 9c9c d73d 855a f23b 2b4e e8bd
000000f0: add3 f63d 485c 7d3d fa52 e03c fff2 e73c

action_head.weight f4 [5, 64]
0.049189243 0.09107831 -0.07208225 -0.101878 -0.1148756 0.09777548 -0.119270355 -0.09693099
-0.09494338 -0.0175758 0.017641485 0.00882333 0.009559484 0.042574316 0.07479602 0.095235236
0.05643561 -0.021704866 0.046790205 0.014496342 0.093538396 -0.016835958 0.0018553216 -0.005874082
0.08858646 -0.08917663 0.09361877 -0.017221339 -0.10850889 0.11021596 -0.089239806 0.036091227
-0.11446056 -0.11670951 -0.030958205 0.01149879 -0.021642804 0.038064037 0.10288148 0.070118636
-0.057662748 -0.1226448 0.04927181 -0.10028842 -0.007896957 0.06378367 -0.08960367 0.10136375
0.04951927 0.06857841 -0.07055458 -0.11604344 0.08758411 -0.077937014 -0.11886097 -0.05971593
-0.043036427 0.058956724 -0.11790245 0.070925735 0.105817705 0.053842787 -0.095026195 0.11940467
-0.054389786 0.07550559 0.05220614 -0.029727582 -0.102764025 0.035308566 -0.0728128 -0.119695306
-0.07462482 0.04991693 0.089824155 0.041376233 -0.057406172 -0.091069855 -0.042347558 -0.07060667
-0.08527337 -0.045819096 0.10104569 0.11857488 -0.072492205 0.12611645 0.008522083 0.08575606
-0.072146885 0.017101953 -0.025001213 -0.1126908 0.10291835 0.116288334 -0.011551361 -0.095434055
0.024699891 -0.098957166 0.045663327 -0.054086503 0.09350023 -0.0072531416 0.057474256 0.038710944
0.028447581 0.023736 0.02611606 0.068145536 -0.042257752 0.112307586 -0.007158028 -0.027834421
-0.085234754 0.07531401 0.11251367 0.09324668 0.04553039 0.105059475 -0.055443257 0.034043517
-0.07450673 0.11392488 0.056013152 -0.05851769 -0.09995111 -0.076131016 0.018436292 0.012563238
0.07430184 0.07265589 -0.061883852 0.11145296 0.08341122 -0.0848686 0.05531338 -0.09508149
-0.105622336 -0.10097656 0.0742698 -0.085161895 -0.062903 0.10361597 0.10083591 0.10800359
0.004031209 -0.05903036 0.10552999 -0.024899136 -0.07159366 -0.03151842 0.08970509 -0.081518695
0.05758021 0.11628089 -0.045771863 0.113719836 0.059511703 0.004167814 0.030559987 -0.005965094
0.048767194 0.09409746 -0.022876682 -0.11409023 0.05027542 0.050841194 0.08761009 -0.10550976
0.12310351 -0.020841232 -0.0033114834 0.07097199 0.030586326 0.038819894 0.11399101 0.024231225
-0.09562179 0.021055905 -0.03229894 0.11849018 -0.033927165 0.07215686 -0.082764715 -0.100299746
-0.016331883 0.076805316 -0.10346859 0.0034893898 0.05103669 0.02651659 -0.099334985 -0.04590943
-0.10887798 -0.115678445 0.06383584 -0.015270556 -0.029847683 -0.050287686 -0.040051468 -0.07307437
0.11816383 0.08021995 0.049572207 0.11296478 -0.023770465 0.048229374 0.073463686 0.118066
0.01403074 -0.06486521 0.09677536 0.014434026 -0.053349555 0.11648764 -0.010238906 -0.07187739
0.066043414 0.109646805 0.03529532 0.11856618 -0.046752907 0.07089319 0.044266596 0.110283874
-0.10899438 0.024272956 -0.1208386 0.016537068 -0.10202673 0.0068434696 -0.007874284 0.028089609
0.112372525 0.06055562 -0.054869868 0.051575318 -0.02885835 -0.05014637 -0.014125118 0.058545996
0.0515453 -0.081751466 -0.09426717 -0.10267497 0.057461563 -0.0560627 0.058944803 -0.078813724
0.018446302 -0.09339293 0.031068679 -0.046017542 0.014732727 -0.07503539 -0.094201684 0.012912442
00000000: a97a 493d 4487 ba3d dc9f 93bd 6aa5 d0bd
00000010: e643 ebbd 833e c83d 0444 f4bd c183 c6bd
00000020: ad71 c2bd 20fb 8fbc e084 903c ba8f 103c
00000030: 629f 1c3c 6862 2e3d a82e 993d b10a c33d
00000040: 0729 673d 67ce b1bc 16a7 3f3d 1182 6d3c
00000050: 0f91 bf3d 90eb 89bc 432e f33a 5f7b c0bb
00000060: d16c b53d 3da2 b6bd 33bb bf3d c413 8dbc
00000070: e939 debd e8b8 e13d 5cc3 b6bd 65d4 133d
00000080: 4c6a eabd 6505 efbd 109c fdbc 6c65 3c3c
00000090: 404c b1bc 09e9 1b3d 86b3 d23d 5c9a 8f3d
000000a0: c62f 6cbd 322d fbbd 3dd1 493d 0464 cdbd
000000b0: 3d62 01bc 03a1 823d 2182 b7bd cc97 cf3d
000000c0: b8d4 4a3d d672 8c3d eb7e 90bd 2fa8 edbd
000000d0: 4c5f b33d 719d 9fbd 616d f3bd b198 74bd
000000e0: f746 30bd 9b7c 713d d776 f1bd 8341 913d
000000f0: f4b6 d83d 418a 5c3d 189d c2bd 708a f43d
00000100: d3c7 5ebd ada2 9a3d 1bd6 553d 4287 f3bc
00000110: f275 d2bd b79f 103d e11e 95bd d022 f5bd
00000120: e6d4 98bd b275 4c3d baf5 b73d 207a 293d
00000130: bc22 6bbd d582 babd a274 2dbd 3b9a 90bd
00000140: cea3 aebd ceac 3bbd 0bf1 ce3d 63d7 f23d
00000150: cb76 94bd ac24 013e 35a0 0b3c e0a0 af3d
00000160: bfc1 93bd 6519 8c3c 58cf ccbc 6fca e6bd
00000170: dbc6 d23d 9428 ee3d eb41 3dbc ee72 c3bd
00000180: 6d57 ca3c 0eaa cabd 7809 3b3d cf89 5dbd
00000190: 0c7d bf3d c3ab edbb 206a 6b3d 5e8f 1e3d
000001a0: e70a e93c 0072 c23c 59f1 d53c e38f 8b3d
000001b0: 7716 2dbd 8501 e63d e48d eabb 0305 e4bc
000001c0: 8f8f aebd 3b3e 9a3d 916d e63d 1ef8 be3d
000001d0: 137e 3a3d 6c29 d73d 7818 63bd 3771 0b3d
000001e0: fc96 98bd 7351 e93d 0c6e 653d 3fb0 6fbd
000001f0: 2bb3 ccbd 94ea 9bbd b507 973c 0ad6 4d3c
00000200: 902b 983d 9ccc 943d ec79 7dbd 7341 e43d
00000210: 80d3 aa3d 97cf adbd 4890 623d 16ba c2bd
00000220: 8650 d8bd cccc cebd c41a 983d 5c69 aebd
00000230: 4ad3 80bd 9c34 d43d 0f83 ce3d fc30 dd3d
00000240: 3b18 843b d2c9 71bd 1b20 d83d 46f9 cbbc
00000250: b29f 92bd 7519 01bd 4db7 b73d 46f3 a6bd
00000260: 3ad9 6b3d ad24 ee3d 477b 3bbd f2e5 e83d
00000270: 8bc2 733d 2892 883b f058 fa3c d676 c3bb
00000280: 1cc0 473d 2bb6 c03d e167 bbbc 23a8 e9bd
00000290: 99ed 4d3d db3e 503d eb6c b33d 8015 d8bd
000002a0: b11d fc3d 3bbb aabc 7905 59bb c359 913d
000002b0: 2d90 fa3c 9c01 1f3d 1e74 e93d 9080 c63c
000002c0: 5bd5 c3bd 6f7d ac3c e54b 04bd fbaa f23d
000002d0: 36f7 0abd fac6 933d 8c80 a9bd f469 cdbd
000002e0: 71ca 85bc 1b4c 9d3d 57e7 d3bd 3fae 643b
000002f0: d90b 513d 5239 d93c 2470 cbbd 870b 3cbd
00000300: 6bfb debd d2e8 ecbd 5dbc 823d 5b31 7abc
00000310: 2183 f4bc 76fa 4dbd 020d 24bd 04a8 95bd
00000320: e1ff f13d 5b4a a43d 3a0c 4b3d 145a e73d
00000330: 47ba c2bc 2a8c 453d 2174 963d 96cc f13d
00000340: 30e1 653c 0dd8 84bd 2932 c63d b17c 6c3c
00000350: 1085 5abd 1291 ee3d 16c1 27bc 7434 93bd
00000360: c541 873d 818e e03d d391 103d d3d2 f23d
00000370: fa7f 3fbd 7330 913d e450 353d 83dc e13d
00000380: 7238 dfbd 14d8 c63c 3a7a f7bd bf78 873c
00000390: 64f3 d0bd 2f3f e03b 2403 01bc 2e1c e63c
000003a0: 9123 e63d 2b09 783d 3abf 60bd a440 533d
000003b0: 5968 ecbc 4866 4dbd 0a6d 67bc edcd 6f3d
000003c0: 2a21 533d 506d a7bd 250f c1bd 4147 d2bd
000003d0: d15c 6b3d 00a2 65bd 1b70 713d 1769 a1bd
000003e0: b31c 973c cb44 bfbd be83 fe3c e47c 3cbd
000003f0: 8961 713c 28ac 99bd d0ec c0bd b58e 533c

action_head.bias f4 [5]
0.080615096 -0.014805731 -0.06345941 -0.06840745 0.025502713
00000000: 8719 a53d bd93 72bc 02f7 81bd 3519 8cbd
00000010: 11eb d03c

value_head.weight f4 [1, 64]
-0.09744129 -0.03970435 0.08912247 0.07073868 0.0786284 -0.075852744 0.020576557 -0.082130164
0.018427966 -0.039079428 -0.105755545 -0.119110465 0.04287749 0.1065403 0.12069305 0.118889
0.009163502 0.022012655 0.026167614 0.06858131 0.0873291 0.057714038 0.07232537 -0.10412465
0.11977998 -0.04679024 -0.059417248 0.11388793 0.027562084 0.08049092 0.08508882 0.062693186
0.06125804 0.12081527 -0.05115894 -0.10134166 0.04753944 0.052511644 -0.06506636 -0.06772472
0.02325828 -0.06787959 0.0082302755 -0.071516976 -0.090590276 -0.013954318 -0.08366978 0.022550413
-0.06791959 -0.05938149 0.027895495 0.08181338 -0.08091658 -0.102818325 0.09752769 0.029536717
0.04699066 0.10079182 0.031151624 0.108574584 -0.10233063 0.05456433 -0.019110799 0.1191784
00000000: 4d8f c7bd 07a1 22bd d785 b63d 71df 903d
00000010: ed07 a13d af58 9bbd 2b90 a83c dc33 a8bd
00000020: 3ff6 963c c011 20bd 5d96 d8bd 30f0 f3bd
00000030: 4fa0 2f3d cd31 da3d eb2d f73d 137c f33d
00000040: 8322 163c e253 b43c 775d d63c 5c74 8c3d
00000050: 99d9 b23d 8e65 6c3d 531f 943d 4e3f d5bd
00000060: 354f f53d 1fa7 3fbd 805f 73bd 133e e93d
00000070: e1c9 e13c 6cd8 a43d 0c43 ae3d 4965 803d
00000080: b6e9 7a3d ff6d f73d 098c 51bd 378c cfbd
00000090: b7b8 423d 7316 573d 8341 85bd 42b3 8abd
000000a0: 2688 be3c 7404 8bbd 47d8 063c 7e77 92bd
000000b0: 6587 b9bd a7a0 64bc 105b abbd a5bb b83c
000000c0: 6d19 8bbd 013a 73bd 1885 e43c c68d a73d
000000d0: 98b7 a5bd 6a92 d2bd 99bc c73d fcf6 f13c
000000e0: 4779 403d f16b ce3d b131 ff3c 5a5c de3d
000000f0: b992 d1bd d97e 5f3d 408e 9cbc ce13 f43d
