2022/20-华立民 指导老师-马里佳/code/output/2-agents_domain-PredatorPrey-2_adversaryratio-0.5_RADAR_X_2022-11-16-08-45-21/adversary_model.pth (torch, 52943 bytes, 7 tensors)

fc_net.fc_net.0.weight f4 [64, 125]
0	0x3d1f9ec6	0.038969778
1	0xbc2e88a8	-0.010652699
2	0xbda89463	-0.082314275
3	0xbd014efa	-0.03156946
4	0x3d86f4f7	0.06589692
5	0xbc903404	-0.017602928
6	0x3db2c6ed	0.08729348
7	0x3c6ad180	0.014332175
8	0xb9e3af00	-0.000434272
9	0xbd8b8048	-0.06811577
10	0x3cbfe2cc	0.023423575
11	0x3dabebed	0.08394609
12	0x3d65c272	0.05609364
13	0xbd90097a	-0.070330575
14	0xbcbd8bb4	-0.023137905
15	0xbd5fb59e	-0.054616563
16	0x3c9795a0	0.018503964
17	0x3c5dba88	0.013533242
18	0xbdb24e4e	-0.08706342
19	0xbc2b49d8	-0.010454617
20	0x3d87b8e9	0.06627066
21	0xbccf65bc	-0.025317065
22	0xbad28380	-0.0016060919
23	0xbd95eb94	-0.073203236
24	0xba989780	-0.001164183
25	0xbd2f1a41	-0.042749647
26	0x3bb17bfc	0.0054163914
27	0x3d8a3fda	0.0675046
28	0xbb012b46	-0.001970963
29	0xbd8acee1	-0.0677774
30	0xbd77e904	-0.060524955
31	0x3d334c3a	0.043773867
32	0x3d6754af	0.056477245
33	0x3d372712	0.044714995
34	0xbd643684	-0.055716053
35	0x3d495398	0.049151987
36	0x3d52d712	0.05147464
37	0x3d2022c1	0.039095644
38	0x3d8517d3	0.06498685
39	0x3c4ce38e	0.012505425
40	0xbae743b7	-0.0017644082
41	0xbd7e4236	-0.062074862
42	0xbd5d3bf6	-0.05401226
43	0xbd464fcd	-0.048415948
44	0xbd44c3ac	-0.04803817
45	0x3d5cc911	0.05390269
46	0x3d3e236a	0.046420492
47	0x3d9d538f	0.07681953
48	0x3cf04be2	0.029333059
49	0x3d1faee2	0.03898514
50	0xbba40fc8	-0.005006764
51	0x3d7b4614	0.06134613
52	0xbcc49e31	-0.024001213
53	0xbd7d141c	-0.061786756
54	0xbd9356be	-0.07194279
55	0x3d4654f1	0.04842085
56	0xbc3d080e	-0.011537565
57	0x3cfece57	0.03110425
58	0xbcdb0386	-0.026735079
59	0xbd766392	-0.06015355
60	0xbda167f6	-0.07881157
61	0x3b57892e	0.0032888162
62	0xbb276fb4	-0.0025548758
63	0xbd5b462c	-0.053533718
64	0xbdb1c491	-0.0868007
65	0x3d2aa83b	0.041664343
66	0xbd6edcef	-0.058316167
67	0xbd766d0a	-0.06016258
68	0xbdb277e0	-0.087142706
69	0xbd4de9a6	-0.050271653
70	0xbb930f7b	-0.0044879294
71	0xbc2a329c	-0.010388043
72	0x3d81ecde	0.06344007
73	0xbd85b503	-0.06528666
74	0x3d230547	0.039799955
75	0xbd8ce384	-0.06879333
76	0xbc059763	-0.008153769
77	0x3dc0eb8b	0.09419926
78	0x3dacd520	0.08439088
79	0x3d9dc2e8	0.07703191
80	0xbc9da102	-0.019241814
81	0xbd05b799	-0.032645795
82	0x3b9a3636	0.0047061695
83	0x3d4a802c	0.04943864
84	0x3c68b9b8	0.014204435
85	0xbd7ecaeb	-0.062205236
86	0x3cbc6b78	0.023000464
87	0x3d9bc64b	0.07606181
88	0xbc1e9cee	-0.00968097
89	0xbc8946df	-0.016757427
90	0x3d833e63	0.06408384
91	0xbd21bbe2	-0.03948582
92	0x3cb3bee8	0.021941617
93	0x3d517766	0.051139258
94	0x3d83dbde	0.06438421
95	0xbd560b3b	-0.052256804
96	0xbca6e038	-0.020370588
97	0xbda22157	-0.07916515
98	0xbb65a3b6	-0.0035040206
99	0x3d9e1ee0	0.07720733
100	0x3d2ed65e	0.042684905
101	0xbcf3705c	-0.029716663
102	0xb9b0b600	-0.00033704937
103	0xbbe85b40	-0.007090956
104	0x3d1eb732	0.038748927
105	0xbc086460	-0.0083247125
106	0xbd1bc19f	-0.03802645
107	0xbd9efe2b	-0.077633224
108	0xbd098fea	-0.033584513
109	0xbd20f259	-0.03929362
110	0x3d892fcd	0.066985704
111	0x3d06694a	0.032815255
112	0xbcdfb784	-0.027309187
113	0xbdaed873	-0.08537378
114	0xbd01548b	-0.031574767
115	0x3d8d8dfd	0.06911848
116	0x3d08e160	0.03341806
117	0xbd7b7daa	-0.06139914
118	0x3d101530	0.035176456
119	0x3cc4a9a8	0.02400668
120	0xbd66352f	-0.056203064
121	0xbcc2e80c	-0.02379229
122	0x3bbf83e0	0.005844578
123	0xbd9924ee	-0.07477747
124	0x3c98c0ec	0.01864668
125	0x3d9d2d83	0.07674696
126	0x3dae3a6d	0.085072376
127	0xbd5375d2	-0.051626034
128	0xbd7f864e	-0.062383942
129	0xbd4698d8	-0.048485607
130	0xbcc9a488	-0.024614587
131	0x3d84b699	0.0648014
132	0x385db800	5.286187e-05
133	0x3cab4860	0.020908535
134	0x3d48f3be	0.049060576
135	0x3b20a3c0	0.0024511665
136	0x3d8091fb	0.062778436
137	0xbd7cd207	-0.061723735
138	0x3d841b9d	0.06450579
139	0xbd4e0d3d	-0.050305594
140	0x3cf7619c	0.030197911
141	0x3d53d77a	0.051719166
142	0xbdb56404	-0.08856967
143	0xbc6509e0	-0.013979405
144	0xbd844950	-0.06459296
145	0x3d4d9d82	0.05019904
146	0x3d6d9b6e	0.058009557
147	0x3d842b21	0.06453539
148	0xbd213c3d	-0.03936409
149	0x3d3f866a	0.046759047
150	0xbd3f3456	-0.04668077
151	0x3d2b76d6	0.041861378
152	0xbd64467e	-0.05573129
153	0x3d8bda06	0.06828694
154	0xbd900957	-0.070330314
155	0x3bb1ce33	0.005426192
156	0x3c982ae7	0.018575145
157	0xbd12dd66	-0.035855673
158	0xbbdfd707	-0.006831053
159	0x3bc2ed03	0.005948664
160	0x3ba13de7	0.0049207094
161	0xbc87503e	-0.016517755
162	0x3da6204f	0.08111631
163	0xbd8954bb	-0.06705614
164	0xbc5f8922	-0.013643535
165	0xbd4cee21	-0.050031785
166	0x3d8e5ad5	0.069509186
167	0xbd9487d7	-0.07252472
168	0xbd7b2091	-0.061310355
169	0xbd948bd1	-0.0725323
170	0xbd2a110b	-0.04152016
171	0xbd6c7b68	-0.057734877
172	0xbda8b258	-0.08237141
173	0xbd534d92	-0.05158765
174	0x3cb6ef60	0.02233094
175	0xbd373032	-0.044723697
176	0x3d34d6b0	0.044150054
177	0x3da00c5c	0.07814857
178	0x3dad3278	0.08456892
179	0x3cf930a0	0.030418694
180	0xbd02f79c	-0.03197442
181	0xbdabbd2e	-0.083856925
182	0xbd64a067	-0.055817034
183	0xbdaa1f49	-0.083067484
184	0x3da81bd6	0.08208434
185	0xbd955249	-0.07291085
186	0xbd74aaba	-0.05973313
187	0xbc99dd93	-0.018782413
188	0xbda16b9b	-0.07881852
189	0x3d3b53c8	0.045734197
190	0x3d692e87	0.056929138
191	0xbd60d4f5	-0.05489059
192	0xbcb3372d	-0.021876896
193	0x3cf939b1	0.030423017
194	0xbce94e63	-0.02847976
195	0x3d6b1c0e	0.057399802
196	0xbd4354dd	-0.047688354
197	0xbc255bb1	-0.010092662
198	0xbd8c4ac8	-0.06850201
199	0x3d4d3cc9	0.050106797
200	0xbc65903b	-0.014011438
201	0x3cf9f950	0.03051439
202	0xbd86f868	-0.065903485
203	0x3d7a3112	0.061081953
204	0x3cbcfa19	0.023068475
205	0xbc9e5d01	-0.019331457
206	0xbd94de75	-0.07268993
207	0xbd133dd7	-0.035947647
208	0x3d008ea4	0.031386033
209	0x3d99f662	0.07517697
210	0x3da24a92	0.079243794
211	0x3c8f5c42	0.017500047
212	0x3d874dfd	0.06606672
213	0xbdaed406	-0.08536534
214	0x3d74e960	0.059792876
215	0xba3543f9	-0.0006914731
216	0xbd20ee4b	-0.039289754
217	0xbd156686	-0.036474727
218	0xba1f91a2	-0.00060870696
219	0xbbb5c338	-0.0055469535
220	0x3d4039cb	0.046930116
221	0x3d9cc5b2	0.07654895
222	0x3d7c4e48	0.061598092
223	0xbc43f188	-0.011959441
224	0x3da8d543	0.082438014
225	0x3c039548	0.008031197
226	0xbd5130f0	-0.05107206
227	0x3d9adee3	0.075620435
228	0xbd94dee8	-0.072690785
229	0xbd89a04b	-0.067200266
230	0x3d4db89a	0.050224878
231	0xbd7d5a04	-0.061853424
232	0x3d4e941e	0.050434224
233	0x3d0ee592	0.034886904
234	0x3d57a7be	0.052650206
235	0x3d99102b	0.07473787
236	0x3d706ce6	0.058697604
237	0x3d2b23de	0.041782252
238	0x3db51fa7	0.08843928
239	0xbd9bb4fd	-0.0760288
240	0xbda9d810	-0.08293164
241	0x3d70771e	0.05870735
242	0x3d860acb	0.06545027
243	0x3cb21134	0.021736719
244	0x3d9fddc3	0.078059696
245	0x3d84bf59	0.06481809
246	0x3ce9ad8c	0.028525136
247	0x3d9ca2f1	0.07648266
248	0x3d3d5692	0.046225138
249	0xbcb78d10	-0.022406131
250	0xbd5aed39	-0.05344889
251	0xbb1c3e20	-0.002384074
252	0x3c8c1f28	0.0171047
253	0x3bd44960	0.0064784735
254	0xbd873f12	-0.066038266
255	0xbc1ef0e0	-0.009700984

fc_net.fc_net.0.bias f4 [64]
0	0x3d61b5a6	0.055104874
1	0xbcf95e7d	-0.030440563
2	0x3d5b6056	0.05355867
3	0x3d2b23f4	0.041782334
4	0xbc88d3ea	-0.016702611
5	0xbd7d2fcb	-0.061813157
6	0x3d043483	0.03227664
7	0xbd944114	-0.07238975
8	0x3d806c9a	0.06270714
9	0x3d91348e	0.07090102
10	0x3c299836	0.010351231
11	0xbb514eb6	-0.0031937785
12	0xbdab35eb	-0.083598934
13	0xbc7edde2	-0.015555831
14	0xbd854d10	-0.06508839
15	0xbca9d518	-0.020731494
16	0x3d18f700	0.037344933
17	0xbd93c031	-0.07214392
18	0x3cef747d	0.02923035
19	0xbd6220de	-0.055207126
20	0xbcc4e7dc	-0.02403634
21	0xbd1b1112	-0.037858076
22	0x3c42e9e1	0.011896581
23	0x3da39b35	0.07988588
24	0x3d9f8275	0.077885546
25	0xbd043a11	-0.03228194
26	0xbbe18814	-0.006882677
27	0x3d16267d	0.0366578
28	0x3ca248cb	0.019810101
29	0xbd264fae	-0.040603332
30	0xbd883358	-0.06650418
31	0x3ae74338	0.0017643934
32	0x3bf65e84	0.0075185914
33	0x3cd67565	0.026179025
34	0xbcfbc5cb	-0.030733963
35	0x3d421b2b	0.04738919
36	0xbd73ca6a	-0.05951921
37	0xbda877b9	-0.0822596
38	0x3d94ffa1	0.0727532
39	0x3d5e4522	0.05426515
40	0x3db1ee59	0.08688039
41	0xbcede022	-0.029037539
42	0x3d1c5b68	0.03817311
43	0x3d6ade3c	0.057340845
44	0xbceac9d0	-0.028660685
45	0x3d9d86f4	0.07691756
46	0xbc14b304	-0.009075884
47	0x3a61f5e7	0.0008619711
48	0xbc1234bf	-0.008923708
49	0x3d3e60ef	0.04647916
50	0x3b922559	0.0044600186
51	0x3c669470	0.014073476
52	0xbdaba1d9	-0.08380479
53	0x3c91f2f3	0.017816043
54	0x3d8fe124	0.07025364
55	0x3c827f75	0.015929917
56	0xbd9e614a	-0.077334
57	0xbd7ab922	-0.061211713
58	0x3db106c7	0.08643871
59	0x3da97c45	0.08275656
60	0x3c700a85	0.014650946
61	0xbd3f6fc3	-0.046737444
62	0x3c88b486	0.016687643
63	0xbda229f2	-0.07918157

fc_net.fc_net.2.weight f4 [64, 64]
0	0x3d564384	0.05231048
1	0xbdb0a316	-0.08624856
2	0x3d65dd54	0.056119278
3	0xbda22ded	-0.07918916
4	0xbdef497d	-0.11683939
5	0x3b17af32	0.0023145196
6	0xbd289ba5	-0.04116406
7	0x3da4854e	0.08033238
8	0xbd1f5111	-0.03889567
9	0xbc3f642a	-0.011681596
10	0xbd8fab51	-0.07015098
11	0xbd19dcaa	-0.037563957
12	0x3d847368	0.064673245
13	0x3af3f736	0.0018613103
14	0x3e01f105	0.12689598
15	0xbdf54829	-0.11976654
16	0x3d981f45	0.07427839
17	0x3db46dbb	0.08809992
18	0x3c300f29	0.010745802
19	0x3d5acac1	0.053416017
20	0xbc31387c	-0.01081669
21	0x3ddd7afe	0.108144745
22	0xbddc2481	-0.1074915
23	0xbd956de4	-0.072963506
24	0x3d0c904f	0.03431731
25	0xbd8f24b5	-0.06989423
26	0x3d648e42	0.05579973
27	0xbcab71c8	-0.020928279
28	0x3d76cb4b	0.06025247
29	0x3d9235f2	0.071391955
30	0x3d8ea653	0.069653176
31	0x3d0561f5	0.032564122
32	0xbda55b54	-0.0807406
33	0xbdb60470	-0.08887565
34	0x3d8aecdd	0.06783459
35	0x3cbcdee2	0.023055498
36	0xbdc40401	-0.09571076
37	0x3da35d3f	0.0797677
38	0xbd741caa	-0.05959765
39	0x3db2997b	0.0872068
40	0x3d9ac41e	0.07556938
41	0x3dc73239	0.09726376
42	0x3d3c0429	0.045902405
43	0xbd66b7de	-0.056327693
44	0xbc0f4f6d	-0.008746964
45	0xbd9742b7	-0.07385772
46	0xbcf095f0	-0.02936837
47	0x3dc8e3b0	0.09809053
48	0xbc04c5dd	-0.008103815
49	0x3d73993c	0.059472308
50	0xbd0d0449	-0.034427915
51	0x3c6747f4	0.014116276
52	0x3d0b33b2	0.033984847
53	0x3bcc6b30	0.0062383637
54	0xbb6834d2	-0.0035431874
55	0xbd755d66	-0.059903525
56	0x3de5b226	0.1121562
57	0xbde0feeb	-0.10986122
58	0x3c8dd813	0.017314946
59	0x3cde5989	0.027142303
60	0xbdf1be6e	-0.118039
61	0xbcef4cbb	-0.029211393
62	0x3dd36066	0.10321121
63	0x3deb9674	0.11503306
64	0x3c3abaf2	0.01139711
65	0xbc5f6f08	-0.013637312
66	0x3e01a18a	0.12659279
67	0xbdef95c7	-0.1169849
68	0x3d3c4908	0.045968086
69	0xbd6041eb	-0.054750364
70	0xbc77305d	-0.015087214
71	0xbdd757f5	-0.10514823
72	0x3c39a270	0.011330232
73	0x3d496c11	0.049175326
74	0x3dc8c8db	0.09803935
75	0xbcfc6678	-0.03081058
76	0xbdb54339	-0.08850712
77	0xbd9153ba	-0.07096048
78	0x3d3f02d7	0.046633568
79	0xbd6d45b0	-0.057927787
80	0x3cb56d0e	0.022146728
81	0x3d6c8eab	0.057753246
82	0x3dd9983c	0.106247395
83	0x3dc7b6da	0.09751673
84	0xbbac9b53	-0.0052675395
85	0x3cd09cf1	0.02546546
86	0x3daed25d	0.08536217
87	0xbdcdcefd	-0.100492455
88	0xbdff07d8	-0.12452668
89	0xbc2f829c	-0.010712292
90	0xbc864f45	-0.01639522
91	0x3d1dd4ba	0.03853295
92	0xbdb41944	-0.087938815
93	0xbdcf3aa1	-0.101186045
94	0xbd51db03	-0.051234256
95	0xbd0c8778	-0.03430888
96	0xbdac5f1e	-0.0841658
97	0xbdf2e713	-0.1186048
98	0x3ddded9a	0.108363345
99	0xbd0b6f37	-0.03404161
100	0xbddade86	-0.10686974
101	0x3d97fe7c	0.07421586
102	0xbb250542	-0.0025180136
103	0xbc6b92a1	-0.014378221
104	0x3d18eafa	0.037333466
105	0xbde58468	-0.11206895
106	0xbd9039a8	-0.07042247
107	0xbdba6516	-0.09101312
108	0xbd3c0cc2	-0.045910604
109	0x3d0d28c7	0.034462716
110	0xbd8f22ce	-0.0698906
111	0x3d5a161e	0.05324375
112	0xbdd4d5ee	-0.10392366
113	0xbd822caa	-0.06356175
114	0x3d93802e	0.07202183
115	0xbda608fa	-0.08107181
116	0x3d65d8c8	0.05611494
117	0xbcc9299c	-0.024555974
118	0xbd72e5fa	-0.059301354
119	0xbdf2f022	-0.11862208
120	0x3d8fde28	0.07024795
121	0x3d20e661	0.039282206
122	0x3c05bb28	0.008162297
123	0xbd921aa3	-0.07133987
124	0xbdd6cc66	-0.10488205
125	0x3d2ff94e	0.042962365
126	0xbcc0c3e0	-0.0235309
127	0xbd2465de	-0.04013621
128	0x3c1815b1	0.009282515
129	0x3df991ed	0.12186036
130	0x3dbf2970	0.093340755
131	0x3c7384d7	0.014863214
132	0xbdb1f73e	-0.08689736
133	0x3dc5eb49	0.09664018
134	0x3d474175	0.04864641
135	0xbde9220a	-0.113834456
136	0x3da91226	0.08255415
137	0xbd21739f	-0.039416905
138	0xbdb954d8	-0.09049386
139	0x3dab42cf	0.08362352
140	0x3db50423	0.0883868
141	0x3da97021	0.0827334
142	0xbcffbd1e	-0.031218108
143	0xbd272267	-0.040804293
144	0xbb99c3be	-0.0046925237
145	0xbdc58b6b	-0.096457325
146	0xbd66322f	-0.056200203
147	0x3cc1dff0	0.023666352
148	0xbd73fc77	-0.05956694
149	0xbcec5ce8	-0.028852895
150	0xbdb3729d	-0.08762095
151	0x3d90df9e	0.070739016
152	0x3dddccc1	0.10830069
153	0xbdcfd3ed	-0.101478435
154	0xbdc2ef15	-0.095182575
155	0xbc5d1cbb	-0.013495619
156	0xbdba291e	-0.09089874
157	0xbde5aef8	-0.11215013
158	0xbd6bd0a7	-0.057572033
159	0xbdace3ce	-0.08441888
160	0x3d405ef6	0.04696556
161	0x3c088a6f	0.008333786
162	0x3db380fc	0.08764836
163	0x3d543875	0.051811654
164	0xbd8a99cb	-0.06767615
165	0x3de350a2	0.11099364
166	0xbc9ca2e6	-0.019120645
167	0xbd9980f2	-0.074952975
168	0xbd888e84	-0.06667808
169	0x3d3345d2	0.043767758
170	0xbd2f0deb	-0.042737883
171	0x3df46ab2	0.11934413
172	0x3dddbdd2	0.10827221
173	0x3d6d40ca	0.057923116
174	0x3cf7adef	0.030234305
175	0xba9807d8	-0.0011599017
176	0x3df027e2	0.11726357
177	0xbe031cce	-0.12803957
178	0x3dec4b16	0.11537759
179	0xbc208cb1	-0.009799168
180	0x3d99e354	0.075140625
181	0x3d925ca0	0.07146573
182	0xbb8e7367	-0.004347253
183	0x3ddfb979	0.10924048
184	0x3d895cc4	0.06707147
185	0x3dc1dd98	0.09466094
186	0x3d416552	0.047215767
187	0xbd9d22b6	-0.07672636
188	0xbcf0ffcd	-0.02941885
189	0x3da10a7b	0.07863327
190	0x3d4da525	0.050206322
191	0x3d418fdd	0.04725634
192	0xbd509899	-0.05092678
193	0xbdb6c3fb	-0.08924099
194	0xbd11a258	-0.035555214
195	0xbde519d1	-0.11186565
196	0x3d9131dc	0.07089588
197	0x3b00e774	0.0019669207
198	0xbd90bdf4	-0.07067481
199	0x3deb2bba	0.114829496
200	0xbc35f804	-0.011106495
201	0xb9d18d16	-0.00039968704
202	0x3d510a52	0.051035233
203	0xbb9763f2	-0.0046200687
204	0xbdcfae52	-0.10140671
205	0x3ddbba9c	0.10728952
206	0x3dcd8789	0.10035617
207	0xbd80b40d	-0.06284342
208	0x3c320edd	0.0108678015
209	0xbd954521	-0.07288576
210	0xbde1b4e6	-0.11020832
211	0xbd71c7c1	-0.05902839
212	0xbc5d5572	-0.013509141
213	0xbddad1be	-0.106845364
214	0x3cdaffa4	0.026733227
215	0x3d41c5fc	0.047307953
216	0xbdec50a6	-0.1153882
217	0xbdd107a5	-0.10206536
218	0x3d59f35f	0.053210612
219	0xbdcf7b2a	-0.101309136
220	0x3da52a96	0.08064763
221	0xbd819e51	-0.063290246
222	0xbd382977	-0.04496142
223	0xbd7e3d6b	-0.06207029
224	0x3dc1d372	0.09464158
225	0xbd910bd2	-0.07082333
226	0x3d3ffbac	0.046870872
227	0x3d9ef5ed	0.0776175
228	0x3d590b7b	0.052989464
229	0xbb3ee01b	-0.0029125276
230	0xbd56c29e	-0.052431695
231	0x3d8013b5	0.06253759
232	0xbdb8cd35	-0.09023515
233	0x3d14b40e	0.036304526
234	0x3c4f9d37	0.01267176
235	0xbdc7faf9	-0.09764666
236	0xbd4d90d3	-0.050186943
237	0x3dab343c	0.08359572
238	0x3d5e7332	0.054309078
239	0xbdb396b3	-0.08768978
240	0xbd9127af	-0.07087647
241	0xbcacb079	-0.021080242
242	0xbda89ca7	-0.08233004
243	0xbccd2a86	-0.02504469
244	0x3b679eb6	0.0035342402
245	0x3de3da38	0.11125606
246	0xbd746bf2	-0.059673257
247	0x3dcca6ae	0.09992729
248	0xbdc32c26	-0.09529905
249	0xbd58ff0f	-0.052977618
250	0xbde03db2	-0.109492674
251	0x3ddbd266	0.1073349
252	0x3dd1f60c	0.10252008
253	0xbd2b9f7e	-0.04190015
254	0xbdb9fad8	-0.09081048
255	0x3d7164d3	0.058934044

fc_net.fc_net.2.bias f4 [64]
0	0xbd551ae9	-0.052027617
1	0xbdcdb88a	-0.10044964
2	0xbbd1d184	-0.00640315
3	0x3de2004d	0.110352136
4	0xbd2676c4	-0.040640607
5	0x3dca542a	0.09879334
6	0xbd024808	-0.031806976
7	0x3dda5690	0.10661042
8	0xbda4cf82	-0.080473915
9	0x3d7ae86a	0.061256804
10	0x3d91b89d	0.0711529
11	0xbdfa1e18	-0.12212771
12	0xba69405d	-0.00088978355
13	0x3d81e266	0.0634201
14	0x3d3aa322	0.04556573
15	0xbca6bc1b	-0.020353368
16	0x3c9099f9	0.017651545
17	0x3de48ec3	0.11160042
18	0xbd927523	-0.07151248
19	0xbdfddeef	-0.12396037
20	0x3cb449b7	0.022007806
21	0xbcbcee0d	-0.02306273
22	0x3db08b09	0.08620269
23	0xbd81551b	-0.06315061
24	0x3dcbaab5	0.09944669
25	0xbd850345	-0.06494764
26	0x3deaa129	0.1145652
27	0x3d88e989	0.06685168
28	0xbd9472d5	-0.07248465
29	0x3cc3541b	0.023843816
30	0xbd48b017	-0.048996057
31	0xbdb6c795	-0.08924786
32	0x3dcf35d1	0.101176865
33	0xbd2d7594	-0.04234846
34	0x3d20f4aa	0.03929583
35	0x3cce42d6	0.025178354
36	0xbc7f5946	-0.015585249
37	0x3b98497b	0.0046474314
38	0xbdf45088	-0.119294226
39	0x3cd0cd7f	0.025488613
40	0x3deefef0	0.11669719
41	0x3e00678f	0.12539504
42	0x3cade846	0.02122892
43	0x3dd184c2	0.102304
44	0x3c943f51	0.018096598
45	0x3bbb26fc	0.0057114344
46	0x3d480b8f	0.048839148
47	0x3daabd25	0.08336858
48	0xbc9e09f4	-0.019291855
49	0x3d9c3a5e	0.0762832
50	0xbdbd51bf	-0.092441075
51	0xbdf81b2b	-0.12114557
52	0xbd3e62e0	-0.046481013
53	0x3d8ca237	0.068668775
54	0xbdecfce3	-0.11571672
55	0x3db7af0f	0.08968937
56	0x3d39a36d	0.04532187
57	0x3d687f4b	0.05676202
58	0xbd316b2c	-0.043315098
59	0xbd8e1b11	-0.06938756
60	0x3d556931	0.05210227
61	0xbddd7b01	-0.10814477
62	0x3d88993a	0.06669851
63	0xbdd77c1f	-0.10521721

action_head.weight f4 [5, 64]
0	0x3d072ac3	0.032999765
1	0x3d308c2a	0.04310242
2	0xbd761700	-0.06008053
3	0xbdd065e2	-0.101756826
4	0xbdf19353	-0.11795678
5	0xbdd44d90	-0.103663564
6	0xbdf171cd	-0.11789284
7	0x3dde14bf	0.10843801
8	0xbd6839ab	-0.05669562
9	0x3d614884	0.055000797
10	0x3d7a0974	0.06104417
11	0x3da7bd3e	0.08190392
12	0x3e0277ca	0.12741008
13	0x3c8ecb7f	0.017431019
14	0xbcee306d	-0.029075826
15	0xbc6b070f	-0.014344945
16	0xbdb924d1	-0.09040225
17	0x3e0264b1	0.12733723
18	0xbddff622	-0.10935618
19	0xbd021889	-0.03176168
20	0xbdee937e	-0.11649226
21	0xbc7c3d85	-0.015395527
22	0xbd4e91bc	-0.050431952
23	0x3d00ff59	0.03149352
24	0xbd8fce09	-0.0702172
25	0xbde65369	-0.11246378
26	0xbcebf209	-0.028801935
27	0x3dbd9ce2	0.09258439
28	0x3bdc345f	0.0067201103
29	0xbdbe4246	-0.092899844
30	0xbd98f9bf	-0.0746951
31	0xbd1054f3	-0.035237264
32	0xbd0169a3	-0.031594884
33	0x3b9b8ec5	0.004747244
34	0xbdb8716d	-0.09006009
35	0x3d977a86	0.07396416
36	0xbdafdfde	-0.08587621
37	0xbb94f22c	-0.0045454707
38	0x3dbd7585	0.09250931
39	0xbd6c95dc	-0.057760105
40	0x3df21664	0.11820677
41	0x3d34a214	0.044099882
42	0x3da3b2ab	0.079930626
43	0x3c8ce3e0	0.017198503
44	0xbd1f418d	-0.038880873
45	0x3deef68b	0.11668118
46	0xbdc3221c	-0.0952799
47	0xbc5352f3	-0.012898195
48	0xbde366cc	-0.11103591
49	0xbd1d454a	-0.038396157
50	0x3d929fc2	0.07159378
51	0x3d7e90fd	0.06214999
52	0x3d41b71b	0.047293764
53	0x3db739cc	0.08946571
54	0x3d0c82ce	0.034304433
55	0x3d0c32ae	0.03422802
56	0xbcd399e9	-0.025830226
57	0xbd232452	-0.03982956
58	0xbc60f619	-0.013730549
59	0xbc0e7cfa	-0.008696789
60	0x3d251d47	0.040311124
61	0xbcd5a29d	-0.026078517
62	0x3ddaa4c6	0.10675959
63	0x3cc30e07	0.0238104
64	0x3dc34242	0.09534122
65	0xbdc8a947	-0.09797912
66	0xbc2d5263	-0.010578725
67	0xbdb77dd2	-0.08959545
68	0x3d04ebe0	0.03245151
69	0xbd9a714a	-0.075411394
70	0x3d742e3c	0.059614405
71	0xbc953189	-0.018212097
72	0x3dd19393	0.10233226
73	0x3d9b7b38	0.075918615
74	0xbdebd6e0	-0.115155935
75	0xbd65c82c	-0.056099102
76	0xbd4bf4db	-0.04979406
77	0x3df694c5	0.12040094
78	0x3bdd6d47	0.0067574116
79	0xbd9ac05e	-0.075562224
80	0x3da05e24	0.07830456
81	0x3d1d0ccd	0.038342286
82	0xbdce84e2	-0.10083939
83	0xbdd5e482	-0.10443975
84	0x3de75295	0.11295048
85	0xbced6e80	-0.028983355
86	0x3dfa1169	0.12210352
87	0x3def3fc5	0.11682085
88	0xb995e077	-0.00028586734
89	0x3bf97524	0.007612841
90	0xbd011fdb	-0.03152452
91	0x3d9a40c2	0.07531883
92	0xbd88f9dd	-0.06688283
93	0x3aec2ae0	0.0018018149
94	0x3e0388cd	0.12845154
95	0x3dc2b5e0	0.09507346
96	0xbde4eb3a	-0.111776784
97	0xbd346b7f	-0.04404783
98	0xbd707dab	-0.058713596
99	0xbdaf7c19	-0.085685916
100	0x3dc51985	0.09624008
101	0xbb2da995	-0.0026498784
102	0xbd189fb0	-0.037261665
103	0xbdedcbc8	-0.11611134
104	0x3dd6e0d9	0.10492105
105	0xbcfd1a1c	-0.030896239
106	0x3dfb9e97	0.12286108
107	0xbc83366f	-0.016017167
108	0xbd2d543f	-0.04231667
109	0xbd5a29cc	-0.053262517
110	0x3cb98b4f	0.022649435
111	0x3db70242	0.089359775
112	0x3da9c3f5	0.08289329
113	0xbdd7b919	-0.105333515
114	0x3d6d9269	0.058000956
115	0xbdf7df01	-0.121030815
116	0x3d99cd9d	0.07509921
117	0x3d9f4d62	0.077784315
118	0xbd926fb6	-0.071502134
119	0xbd2d4f71	-0.04231209
120	0x3def620f	0.11688625
121	0x3dd819bd	0.10551784
122	0x3cf1a6ce	0.029498484
123	0x3d6bc311	0.057559077
124	0x3d15ac6b	0.036541384
125	0x3cc71eb7	0.024306638
126	0xbdd8255e	-0.10554002
127	0x3d0255e8	0.031820208
128	0xbd8aad43	-0.06771328
129	0xbd64dbdd	-0.05587374
130	0xbd9bcf8e	-0.07607947
131	0xbd143f52	-0.0361932
132	0x3d15faff	0.03661632
133	0xbc3d97fc	-0.01157188
134	0x3bbe543b	0.005808381
135	0xbc5b9788	-0.013402827
136	0xbdd59a9c	-0.1042988
137	0xbdc5b13a	-0.09652944
138	0xbe00cb41	-0.12577535
139	0x3d9c1f21	0.07623125
140	0x3c81bb56	0.015836399
141	0xbdbd8d0c	-0.09255418
142	0x3de90613	0.11378112
143	0xbd8c214e	-0.0684229
144	0xbc576590	-0.013146773
145	0xbd28d69f	-0.041220304
146	0xbc8973a8	-0.016778782
147	0x3c9c41c0	0.01907432
148	0x3dbe6f12	0.09298529
149	0x3c9b1a73	0.01893351
150	0xbb8d6457	-0.00431494
151	0xbbc2295a	-0.0059253396
152	0xbde5180a	-0.11186226
153	0x3ba209e9	0.004945029
154	0x3c5ed63f	0.013600885
155	0xbde02417	-0.109443836
156	0xbb2b765f	-0.0026163084
157	0x3c197fc5	0.009368842
158	0xbc846509	-0.016161459
159	0xbdc44500	-0.09583473
160	0xbdec8a78	-0.11549848
161	0x3ad7c1bf	0.0016460939
162	0x3be18b14	0.0068830345
163	0x3bf49176	0.0074636294
164	0x3d95b832	0.07310523
165	0x3def975f	0.116987936
166	0x3c96e5b3	0.018420076
167	0x3dbdd5cc	0.09269294
168	0xbce4e911	-0.027943166
169	0x3d6e8458	0.05823168
170	0x3cf05f47	0.029342307
171	0x3d056817	0.03256997
172	0x3c37886a	0.011201957
173	0xbced3724	-0.028956957
174	0xbdf26845	-0.11836294
175	0x3dc31f1a	0.095274165
176	0x3df9e8b8	0.12202591
177	0x3db77ec2	0.08959724
178	0xbdf0cd9b	-0.11757966
179	0xbd62d34e	-0.055377297
180	0xbdc2538f	-0.09488594
181	0xbdd7d7ac	-0.10539183
182	0xbda2f445	-0.07956747
183	0xbd081c81	-0.03323031
184	0xbddabfed	-0.10681138
185	0xbb5df8cf	-0.0033870225
186	0xbd6e6d21	-0.058209542
187	0x3df57233	0.119846724
188	0xbcb8ea61	-0.022572698
189	0x3bc72415	0.0060772994
190	0xbd9bdab9	-0.076100774
191	0x3dccd0cb	0.100007616
192	0x3d04f7e9	0.032462988
193	0x3a8ac7c4	0.0010588099
194	0x3d6e84aa	0.058231987
195	0x3c3932ee	0.0113036465
196	0xbdcb6062	-0.09930493
197	0xbdb48a68	-0.088154614
198	0xbd7c1467	-0.061542895
199	0x3de74997	0.11293333
200	0x3dcd51fa	0.100254014
201	0xbdffc8f0	-0.12489498
202	0xbd495c4f	-0.049160298
203	0x3dd3bee9	0.103391476
204	0xbd29a3e1	-0.041416053
205	0xbd17be63	-0.0370468
206	0x3d5be643	0.05368639
207	0x3d2ed15d	0.042680133
208	0x3dae5ea4	0.08514145
209	0xbccf67e3	-0.025318092
210	0x3d0e4f73	0.034743737
211	0xbd905b04	-0.0704861
212	0x3b920535	0.004456187
213	0x3dd1d203	0.10245135
214	0x3cb8006c	0.022461139
215	0x3c8c0726	0.017093252
216	0xbd533340	-0.051562548
217	0xbd8deab0	-0.06929529
218	0xbdaba06b	-0.08380207
219	0xbaf4f619	-0.0018689065
220	0xba2d278e	-0.00066053204
221	0xbddb349b	-0.10703393
222	0x3d2e88c7	0.04261091
223	0x3d7a09de	0.061044566
224	0xbd9d158b	-0.076701246
225	0xbd4da524	-0.05020632
226	0x3d39bd50	0.045346558
227	0xbd9afa81	-0.07567311
228	0x3df6f5b2	0.120585814
229	0xbd430669	-0.047613535
230	0xbb82fa9f	-0.0039971615
231	0xbdb95b91	-0.09050668
232	0xbdce93e1	-0.100867994
233	0x3db88850	0.090103745
234	0x3cc4b708	0.024013057
235	0xbd2c9d24	-0.04214205
236	0x3d477fa6	0.04870572
237	0xbd5819d9	-0.052759025
238	0x3d8d1659	0.06889028
239	0xbd3d4521	-0.046208505
240	0x3d8e12e0	0.06937194
241	0xbd5e2a9f	-0.054239865
242	0x3d9a6a7d	0.07539842
243	0xbd93faba	-0.07225557
244	0x3dba7887	0.0910502
245	0x3dcea574	0.100901514
246	0xbd99e9f6	-0.07515328
247	0x3db6c755	0.08924738
248	0x3caf4e7d	0.02139973
249	0x3d70840a	0.058719672
250	0x3b9f47ea	0.0048608677
251	0xbc2099fd	-0.009802339
252	0x3d17c12d	0.03704946
253	0xbd8c6296	-0.06854741
254	0x3ce11384	0.027475126
255	0xbce86525	-0.028368542

action_head.bias f4 [5]
0	0x3a774155	0.00094320375
1	0x3da95684	0.08268455
2	0xbdb028cf	-0.086015336
3	0xbcf7431b	-0.030183366
4	0x3d86a349	0.06574113

value_head.weight f4 [1, 64]
0	0xbdc1728e	-0.09445678
1	0xbd9a0436	-0.075203344
2	0x3da02493	0.07819476
3	0xbd496807	-0.049171474
4	0x3b3192a9	0.0027095473
5	0xbcdfe34f	-0.027330069
6	0x3b57c776	0.0032925284
7	0x3dc8eb6e	0.0981053
8	0x3c99b94f	0.01876512
9	0xbda1f2a4	-0.07907608
10	0xbc62d2c5	-0.013844197
11	0xbdbe4cbb	-0.09291979
12	0x3d91cfe2	0.071197286
13	0x3dc97bb9	0.09838051
14	0xbdbec90b	-0.0931569
15	0x3c3c3e91	0.011489526
16	0xbbf90370	-0.0075992867
17	0x3d8f4e58	0.06997365
18	0xbda2f51a	-0.07956906
19	0x3d272e65	0.04081573
20	0x3de83d5f	0.113398306
21	0xbcf663fe	-0.030076977
22	0xba048f3e	-0.0005056745
23	0x3d2c4ac3	0.042063486
24	0xbca484e0	-0.020082891
25	0xbc0e8157	-0.008697829
26	0xbd9367e6	-0.071975514
27	0xbd9bfa9f	-0.076161616
28	0x3dc4681a	0.09590168
29	0xbc8a4458	-0.016878292
30	0xbd834fb0	-0.064116836
31	0x3c8d0c66	0.017217826
32	0xbd5c4245	-0.053774137
33	0xbd9d09f8	-0.07667917
34	0x3da3f4d1	0.080056794
35	0x3dd48594	0.103770405
36	0xbdc41fda	-0.09576388
37	0xbde3409f	-0.1109631
38	0x3d3ff54d	0.046864796
39	0xbd4b5c7d	-0.04964875
40	0xbd919882	-0.07109167
41	0xbd370cd9	-0.044689987
42	0x3d9532a2	0.07285048
43	0x3def6737	0.116896085
44	0x3de213d2	0.11038937
45	0xbc8e5334	-0.017373659
46	0x3dedf238	0.11618465
47	0xbb96a6a6	-0.0045975028
48	0x3d6d6156	0.057954155
49	0xbdad27c5	-0.08454851
50	0xbdef3f0b	-0.11681946
51	0xbda425aa	-0.08014996
52	0x3c1aae24	0.009440932
53	0xbd55671d	-0.05210029
54	0x3c57e41d	0.013176945
55	0x3ceb24a2	0.028703991
56	0x3d5036d0	0.050833523
57	0x3c439534	0.011937428
58	0xbd9ddbe6	-0.07707958
59	0x3db37cef	0.087640636
60	0x3deabf54	0.11462274
61	0xbd83cc58	-0.0643546
62	0xbd855ff9	-0.06512446
63	0x3d154141	0.036439184
