2022/20-华立民 指导老师-马里佳/code/output/2-agents_domain-PredatorPrey-2_adversaryratio-0.5_RADAR_X_2022-11-16-08-45-21/protagonist_model.pth (torch, 52943 bytes, 7 tensors)

fc_net.fc_net.0.weight f4 [64, 125]
00000000: 90f8 27bc 7e66 433d 6b39 9bbd b783 03bd
00000010: 1e1f 2a3d 58c3 70bc 33f3 9bbd 004a 36ba
00000020: 39f7 93bd aaaf debc 804c a53c f80a 533c
00000030: 6f3a 6dbd bcf6 82bc 1c13 1bbd 208b 573c
00000040: 6071 073b 8e28 223d 4452 bb3c ab08 2fbd
00000050: 80dd 6d3a 13c0 34bd cadd 1b3d ab9a a33d
00000060: 9871 733c b47e 7fbd d496 1f3d 5eec 373d
00000070: 22b9 493d 65bb 89bd 0a79 32bd 2848 843d
00000080: 318a 5c3d 587b 1f3b f0e6 80bd 5080 44bc
00000090: f3ca 673c ec62 433d e889 a0bd c7cb cdbc
000000a0: 29a8 abbc 349d 873c 250a 72bd 7b4f ae3d
000000b0: c0ba 6b3c 1884 c2bb 11d1 853d cfe3 1bbc
000000c0: 5aaf 41bd f618 6b3d 13be 6cbd 4864 a93d
000000d0: cb8b 96bb 645e d13b b366 973d 6f74 083c
000000e0: fdde cd3b 2ebc 843d 6b61 0e3d 921e aa3b
000000f0: 9e3f 8fbd b093 90bd f487 0c3d 77e6 a3bd
00000100: 3fdd b93b 77bb 02bd e8ae 8d3a 6c44 833b
00000110: 05ac 97bc 1f34 cb3c 92cd 1c3d aa6f 343d
00000120: ef7d 01bd a401 72bd 0170 89bd 1ad4 ba3d
00000130: 0632 b93d 6669 b83d 80e2 cebc 2459 34bd
00000140: b420 1b3c e08b 3e3b 3115 81bd ee6d 34bd
00000150: 2874 6fbd 5bdd 5f3c f105 703c 2c16 c63c
00000160: 80f1 153d 9cb7 7dbd e90f 053d c048 823d
00000170: 6b6d 853d 27cc 883d 5dba d439 f0a0 473b
00000180: 3360 033c 2219 8ebd 505e cc3c 9e9b 8abd
00000190: ba70 7b3d 67f5 7fbd 043e c13c d0eb 42bc
000001a0: a2ab 373d 3826 f7bc 4e2f a0bd 15bd 953d
000001b0: 90ac d73c 4099 8aba 1a39 b4bd 13cc 75bd
000001c0: 4276 73bd 4fb0 83bd f990 a63d 1bcd 18bd
000001d0: 5ae9 9fbd 2a85 5a3d 289f cc3c c0f0 80bb
000001e0: 5f2d a93d fc10 c2bc c0d0 dd3a bc9f 043d
000001f0: 127d 4f3d db16 b53d 49a3 8abd 2ce5 f03c
00000200: 21f5 98bd 6050 0a3c 519d 953d 34e0 8d3c
00000210: 3c45 aebd 2e6c 16bd 6a85 adbd 3e1b 1e3d
00000220: a086 be3b 8851 8dbd 009e 9abd d17f 50bd
00000230: e42d da3c b9d1 873d 1496 a53c fe17 f7bc
00000240: 7a01 f7bc 7125 69bd 9124 a03d 5c12 8dbd
00000250: 1088 9abb 8291 52bd 46c2 a33c 506b 68bd
00000260: ab96 bdbc 4ca9 723d 448b 2a3d d2f9 603c
00000270: 6c33 9d3d 4e22 20bb 173e 9bbc 70c2 cbbc
00000280: 169d 243c 62c7 10bc f9d7 ae3d 9f1c 953d
00000290: e394 2abd 45b9 843d 5ebc 533d dd54 163b
000002a0: 644b 7e3d 3b99 f8bc 184a 2bbd 68e5 b63d
000002b0: 8b93 333d 2918 5e3d 1ffb 633d 84fd aa3d
000002c0: 0cb2 aebd b7f8 aa3d 3a3b 9e3d f155 febb
000002d0: 2638 9cbd e003 88bd 400b a73d 7fc7 12bc
000002e0: 5bf9 65bd b77a a03d 870e 1b3c 8fe1 0cbc
000002f0: e1a6 82bd 98ab 1e3c 3058 6fbc 3e7e c83c
00000300: b1b9 983d 2eb6 923c a013 933d 8a81 00bc
00000310: de35 9a3c cc49 fcbc 6fde 8abc aedf 283d
00000320: f1cc 7dbd 40ac a73d 0d09 97bd 008e 743d
00000330: b9a0 dd3c 5421 8c3c efb2 9f3d abe2 42bc
00000340: 0630 513d a468 5b3c 61a1 963d 3bd7 07bc
00000350: 2a4a 693d 993c 653d 4c32 aebd 6a4d 28bd
00000360: c117 93bd 1ea2 693a 881a 8f3d 2452 303d
00000370: dd3f 51bd 8635 afbc 5b94 e33c c98f a3bd
00000380: f303 633d 20d5 13bc 7c5b 37bd 0090 57b8
00000390: 40e6 f1bc 1208 7d3d 6041 003d de80 333d
000003a0: c499 cbbc 40d4 8c3a f255 6e3d d57e 983d
000003b0: 34a3 b1bd bd12 60bd ce69 253d 90dd d83c
000003c0: 74e0 953c a319 18bd 6e1a 173d f3e9 a63d
000003d0: 8eec 03bd 4a29 123d 0651 83bd 144e 89bd
000003e0: 8aed 03bd d016 a33c 81f1 af3d 4c55 b43c
000003f0: 869c adbd cf6e 3cbd 00db ffbb f609 2dbd
-0.010252133 0.047705166 -0.07579311 -0.032108035 0.041533582 -0.014695011 -0.07614746 -0.0006953776
-0.07224888 -0.027183373 0.02017808 0.012881033 -0.057917055 -0.015986793 -0.03786002 0.013155729
0.0020666942 0.039589457 0.022866376 -0.042732876 0.00090738386 -0.04412849 0.03805331 0.07988485
0.014858626 -0.062376693 0.0389622 0.04490315 0.049248822 -0.06725196 -0.043572463 0.06459075
0.053842727 0.0024334993 -0.06294048 -0.011993483 0.014147508 0.04770176 -0.078388035 -0.025121583
-0.020954208 0.016554452 -0.059091706 0.085112534 0.014387786 -0.005936157 0.06534017 -0.009514763
-0.04728637 0.05739685 -0.057798456 0.0827108 -0.0045943013 0.006389426 0.07392635 0.008328541
0.006282686 0.06481205 0.034760874 0.0051916325 -0.06994556 -0.07059419 0.034309343 -0.08002942
0.0056721265 -0.03191706 0.0010809572 0.0040059593 -0.018514642 0.024805127 0.038281985 0.044051804
-0.03161424 -0.059083596 -0.06710816 0.091224864 0.09042744 0.09004478 -0.025254488 -0.044030324
0.009468246 0.0029075071 -0.0630287 -0.04405015 -0.058460385 0.013663615 0.014649854 0.024180494
0.036607265 -0.06194268 0.032485876 0.06361532 0.065150104 0.06679564 0.00040574642 0.0030460916
0.008018541 -0.069383875 0.024947315 -0.06767963 0.0613868 -0.062489893 0.023589142 -0.011897042
0.044841416 -0.030169591 -0.07821523 0.07311455 0.026327401 -0.0010574237 -0.08799954 -0.060009073
-0.05943895 -0.064301126 0.0813312 -0.03730498 -0.0780818 0.05334965 0.024978235 -0.0039349496
0.08260607 -0.02368974 0.0016923174 0.032378897 0.050656386 0.0884225 -0.067694254 0.029406153
-0.0746863 0.008442014 0.07305396 0.017318822 -0.08509299 -0.036724262 -0.08472712 0.0386002
0.0058143884 -0.069003165 -0.07549667 -0.050903145 0.02663321 0.06631798 0.020213164 -0.030162808
-0.030152071 -0.056920473 0.078194745 -0.068882674 -0.004715927 -0.0514083 0.019990098 -0.056742966
-0.023143133 0.059243485 0.04163672 0.013731437 0.076758236 -0.002443451 -0.018950505 -0.024872988
0.010047218 -0.008836599 0.08537287 0.0728085 -0.041645896 0.0648065 0.051693313 0.0022938766
0.062083617 -0.030346503 -0.04181871 0.089304745 0.04384188 0.05422226 0.05565941 0.083491355
-0.085300535 0.0834822 0.0772614 -0.00776171 -0.07627897 -0.06641364 0.08156443 -0.008958696
-0.056146007 0.07835906 0.009463913 -0.008598699 -0.06379486 0.009684466 -0.014608428 0.02447426
0.07457293 0.017909136 0.071814775 -0.0078433845 0.018824514 -0.030796908 -0.016951768 0.041228943
-0.061963025 0.08187151 -0.07374773 0.059705734 0.027054178 0.017105736 0.07797801 -0.011894862
0.05107119 0.0133916475 0.07354999 -0.008291061 0.056955494 0.055965994 -0.08505687 -0.041089453
-0.07182265 0.0008912402 0.06987482 0.043047085 -0.051086295 -0.021387827 0.027780702 -0.07986409
0.05542369 -0.009022981 -0.04476498 -5.1394105e-05 -0.029528737 0.061775275 0.031312346 0.04382407
-0.024853595 0.0010744408 0.058187433 0.07446066 -0.08673707 -0.05470537 0.040384106 0.026472837
0.018295504 -0.037133824 0.03689044 0.08150091 -0.032208018 0.035683908 -0.06411938 -0.06704345
-0.032208957 0.019908339 0.08590985 0.022013329 -0.0847712 -0.046004113 -0.0078080893 -0.042245828

fc_net.fc_net.0.bias f4 [64]
00000000: bda3 883d 25d0 77bd 9f46 65bd a1cb 943d
00000010: c194 ac3d 7e4d 973d 2781 323c b79e b03d
00000020: abd9 b2bc 6ec6 893d 532c 93bd a0fe 62bd
00000030: 1ab2 ed3c b687 343d 8420 1e3d 948e 873d
00000040: 1e5c a3bd 6ee1 2f3d 6ebb a73d 1228 6f3d
00000050: 5162 ce3c 1052 6a3c f72f 03bd b977 2ebd
00000060: e36e b33d 9a43 a7bc ebca a73d 0b1c abbd
00000070: f27b f03c a0e5 c03c 2336 28bb 8be0 2dbd
00000080: c7f5 79bc 267f 013a d1cc 9c3d 4277 743d
00000090: 44b7 6c3d 9e6b 6e3d cc72 823d 10a1 8bbd
000000a0: eaca ae3d 9b97 5e3d f6ff 183d fb07 b53d
000000b0: efa5 aabd a70e 9cbd fed4 8e3b d5a7 a5bd
000000c0: 7922 0a3d 7aed 1ebd a931 37bb 57d3 26bd
000000d0: b705 a43d 9bfa e6bb b12e c9bc add6 bb3d
000000e0: bd49 7a3b 07fb a0bd feb1 a63d 5e43 86bd
000000f0: 59e5 50bd 3786 753d c2df 80bd 89dd 80bb
0.066718556 -0.060501236 -0.055975553 0.07265402 0.0842681 0.07387827 0.01089505 0.086240225
-0.021832308 0.067273006 -0.071861885 -0.05541861 0.02901559 0.044074737 0.038605228 0.066189915
-0.07976554 0.042939596 0.08190046 0.058387823 0.025193365 0.014301792 -0.032028165 -0.042594645
0.08761384 -0.020417977 0.081930004 -0.08354958 0.029355977 0.023546994 -0.0025667034 -0.04245047
-0.015256352 0.0004939906 0.07656253 0.059684046 0.057791963 0.0582081 0.06369552 -0.068178296
0.085347965 0.0543438 0.03735348 0.08839413 -0.083324306 -0.07619982 0.0043588867 -0.08088652
0.033724282 -0.038800694 -0.0027953184 -0.040728893 0.080089025 -0.0070489175 -0.024558397 0.091718055
0.0038190924 -0.0786038 0.08139418 -0.06555818 -0.050999973 0.05994245 -0.062926784 -0.003932659

fc_net.fc_net.2.weight f4 [64, 64]
00000000: dd4a eb3d 1dbf 53bc f228 c73d a5ea c73c
00000010: be24 473c 261d a63b 3a21 b2bc 4f32 40bd
00000020: 6e84 f8bd d8f3 e03c 0224 443d be6b b1bd
00000030: daf3 f6bd af28 c13d 99d3 a83d d84c f03d
00000040: 276d 1dbd 6432 0bbd 49af 853d a867 1abd
00000050: 843e 083d 92b6 0b3d e312 713d d49a 71bd
00000060: b271 bd3d b04c 40bd 470b 653d 7910 c6bb
00000070: 3740 ddbd 7635 9ebd fcf0 8fbd e109 863d
00000080: 4c8e 123d d96c 82bd f2b4 2abd df3c 3e3d
00000090: ba6e bd3d 1fca 8dbb 1629 99ba f1b9 a93c
000000a0: 9582 62bd 1d1e b83d 38fc 903d 4d87 763d
000000b0: 670b 873d 2363 e8bd b4e3 473d 6de8 cebd
000000c0: c315 f5bd 76e6 2cbd 7cf9 2b3d 3c91 6a3d
000000d0: c40a 8a3c e38b 583c e95c b1bd d304 c3bb
000000e0: 48ef caba d78d fcbd 98cd 013e c456 8bbd
000000f0: 5f9c 08ba c18d 26bc 831f 0fbc 6eb6 813d
00000100: 46c3 70bc 4142 d5bc 781c 963d 0fb0 23bd
00000110: b794 ca3d 3778 69bd ac8e 9ebd 9e7f 943b
00000120: ae88 f13d 5dfe 0ebd 35c1 48bd d83c d1bd
00000130: 2e1e cebd ebe1 eb3d 570a 5ebc e68d 02be
00000140: 0c62 db3c a1bb 8bbd 36e1 e9bd bc09 a4bd
00000150: d2d0 09bd a34b cdbd 2f36 dabd 4562 2abd
00000160: 18eb 063d cc7d 86bd 3d07 263d db42 97bd
00000170: 890b f43d 5943 6d3b d667 e73c 6c61 803c
00000180: 3d8a 5a3d 522b a4bc 7a9e fa3d dedd e8bd
00000190: 8ce8 a53d 0cad fb3d 203e 2dbd 902a 88bd
000001a0: c51c 45bd e046 cdbd 32d7 f3bd 732e 733a
000001b0: 7c35 d23d 747e 333d ec8d e8bd 3db9 8a3d
000001c0: e5d0 ebbd 8a49 42bd b43c 6ebc 2b4c 9c3d
000001d0: b84f 193c 4541 d5bb 008f e2bd 30bb a7bd
000001e0: 653e d73d 6cb9 dd3b 6932 333d c418 c33d
000001f0: 0e58 a53c ee60 923d 4854 7cbd 83b3 32bd
00000200: 541d bd3c b4e7 03be 100f f4bd 5326 823d
00000210: 9fd1 033e 4822 263a 35d9 34bc 39ef 1d3d
00000220: 1a40 47bd debc c03d 53df c7bc f4de 253d
00000230: 6692 00bc b186 183d 9094 113c 636f d13d
00000240: 999a dd3d 6e6d 27ba 0d86 b63d 8423 ccbc
00000250: c771 b53d 8fc1 15bc 3a83 d33d fc91 cebd
00000260: 197f a13d 2f7b 783d 7dbb bbbd b09a de3d
00000270: df67 783c 55dc f1bd 6316 cdbd 45e1 c33b
00000280: 26a5 b8bd bdb6 f6bd a19c 953d bd0b 2fbd
00000290: 4933 b8bd 218f 823c d499 bd3d 1d54 023d
000002a0: 954c ea3d eda8 a33d 8fb3 aaba c2e2 be3d
000002b0: 7f06 813d b876 80bd 7afc 373c 53fd e23d
000002c0: a59b 0a3d 5667 ae3d 337e e3bc 4918 de3d
000002d0: 2367 8dbb 06ab 02bd 75ad 91bc 4d6e a23b
000002e0: a62f a7bd 9507 66bd 4b51 d53d 3e87 52bd
000002f0: 9482 4d3d 3576 ee3d 44cd e43d 31bb 3f3d
00000300: d37e 38bc 8d45 10bd 5627 8c3b b5a1 91bb
00000310: 1cce 10bc 2198 493d d258 cebd ef12 8bbd
00000320: 89d5 b63d 4c91 7abd cc06 cf3d 4b5b ae3d
00000330: b295 57bd 4812 bebb bfe3 e23b fcf3 6abc
00000340: 5a9a bd3d 655f 69bd 52e8 263d ab75 e23d
00000350: c7f3 b53d 3bcc c8bd 11ba d9bd 44ec aebd
00000360: 163e 2abd a9f3 973d f42d cfbb 569a a53d
00000370: 938c 17bd c93f 0bbd 2e49 15bc 1ded c1bd
00000380: 7d7b 38bd fafd 253d 4572 dcbd 3645 dabd
00000390: 6083 bf3d d2b3 e5bd c4a2 743d 545c 3a3c
000003a0: 3117 4e3d 2ac4 c43d 0be4 d73d eac6 a93d
000003b0: fa95 e3bb 0017 3cbd 345c fdbd 349e 7d3b
000003c0: 2078 743c e1af 1fbd acf1 ddbd 8a17 8d3d
000003d0: 593a b7bd 1a57 cebd 822f a83d a108 babd
000003e0: fa52 fd3c a32b af3d 510f 2f3d 5db5 d13d
000003f0: b7e3 16bd 1cc1 a73d 7055 b63d 6fdc c23c
0.114888884 -0.012923983 0.097246066 0.02440388 0.012154756 0.0050693927 -0.02174436 -0.046922978
-0.12134634 0.027460024 0.047885902 -0.08663128 -0.1205823 0.09431588 0.08243484 0.11733407
-0.038434174 -0.033983603 0.065275736 -0.03769651 0.033262745 0.03410966 0.058855902 -0.058985546
0.09250201 -0.046948135 0.055918958 -0.006044444 -0.10803264 -0.077250406 -0.07028386 0.06544853
0.035780236 -0.06368417 -0.04167647 0.04644477 0.09249635 -0.004327073 -0.0011685218 0.020718547
-0.055300314 0.08990119 0.07079357 0.060187627 0.06593972 -0.11347034 0.04880114 -0.101029254
-0.11967041 -0.042211972 0.041985974 0.057267413 0.016850837 0.013216945 -0.08660299 -0.005951503
-0.0015482688 -0.12331741 0.12676084 -0.068036586 -0.00052112894 -0.010165633 -0.00873554 0.06333624
-0.014694994 -0.026032569 0.07329649 -0.039962824 0.09891646 -0.05699941 -0.07742056 0.0045318147
0.11793648 -0.03491055 -0.04901238 -0.10216683 -0.1006435 0.115177 -0.01355227 -0.12749442
0.02678015 -0.06822897 -0.11419909 -0.08009669 -0.033646412 -0.10024192 -0.10654866 -0.041597623
0.032939047 -0.065669626 0.040534247 -0.073857985 0.11916263 0.0036203472 0.028247755 0.015671454
0.05335449 -0.020040188 0.12237258 -0.11370443 0.081009954 0.122888654 -0.042295575 -0.06648743
-0.04812314 -0.10023284 -0.119062796 0.0009276636 0.102641076 0.043821767 -0.113551944 0.06773613
-0.11514453 -0.047433414 -0.01454084 0.076317154 0.009357385 -0.006508025 -0.11062431 -0.0819
0.10509948 0.006766489 0.043749247 0.09526208 0.02018359 0.07147394 -0.061603814 -0.043628227
0.023085274 -0.12881356 -0.119169354 0.06354966 0.12872933 0.0006337506 -0.011038114 0.03855822
-0.048645116 0.094110236 -0.024398481 0.040495828 -0.007847404 0.037237827 0.008885518 0.102263235
0.10820503 -0.0006386851 0.08912287 -0.024919279 0.08859592 -0.009140386 0.10327764 -0.10086438
0.0788557 0.060664352 -0.0916662 0.10869348 0.015161484 -0.11809603 -0.100140356 0.005977782
-0.090158746 -0.12046573 0.07305265 -0.042735804 -0.08994157 0.01593739 0.09257856 0.031818498
0.11440388 0.079912044 -0.0013023483 0.09320594 0.06300067 -0.06272644 0.011229629 0.11083474
0.03383984 0.085158035 -0.027770137 0.10844476 -0.0043152734 -0.031901382 -0.017782906 0.0049569965
-0.08163385 -0.056159575 0.10415896 -0.05139851 0.050173357 0.1164364 0.11171964 0.04680938
-0.011260706 -0.03522258 0.00427715 -0.004444326 -0.008838203 0.049217347 -0.10075535 -0.06790721
0.08927447 -0.061173722 0.10108718 0.085135065 -0.052632995 -0.005800519 0.006924122 -0.014340397
0.09257956 -0.05697574 0.0407489 0.110576 0.088843875 -0.09804579 -0.106311925 -0.08541158
-0.041563116 0.07419521 -0.0063226167 0.08086078 -0.036999296 -0.033996377 -0.009111686 -0.09469054
-0.045039643 0.040525414 -0.10763983 -0.10657732 0.0935123 -0.11215939 0.059725538 0.011374552
0.050315086 0.09607728 0.105415426 0.08289893 -0.006945369 -0.045920372 -0.12371102 0.0038699033
0.014921218 -0.03898609 -0.10837111 0.06889255 -0.08946676 -0.10075207 0.082121864 -0.09083677
0.030923355 0.08553245 0.042739216 0.102396704 -0.03683826 0.081911296 0.08903015 0.023786752

fc_net.fc_net.2.bias f4 [64]
00000000: 5892 91bd eb09 92bc 03a2 dcbd bfee ef3d
00000010: 32ef 85bd 434c 243d 2679 853d 5bd8 a53c
00000020: 8611 d83d b144 373d b007 e7bd d262 fc3d
00000030: 75f2 803d 045e be3d 474b 8b3d 0f56 6cbc
00000040: ed8c a83d 05fe 663d 56db 41bb 845e 89bd
00000050: 45e8 03bd 61b7 8ebd 64e2 c9bc 891c 103d
00000060: 0947 58bd aec4 bfbd 93af f0bd 9895 3b3b
00000070: 7f67 eabd 91fe 8f3d 52d1 56bd 8a61 e2bd
00000080: 16e5 b1bd 5f7f 4bbc 9093 9a3d 9af5 dcbc
00000090: b7ff f6bd d604 56bc a82a ea3c 0327 893d
000000a0: 8128 aebd 4490 dcbd 2876 b8bd 3c79 d1bd
000000b0: 5528 c4bc b260 fc3d 23f8 f6bd d50a a1bb
000000c0: 3167 d0bd c514 263d f1e0 ecbd 8aeb d6bb
000000d0: 93dd 9cbc 5d6e a13d 4146 253c 4899 c53d
000000e0: b8b7 d53c 37a6 ae3d 5fb9 67bc dfb4 2e3d
000000f0: 6ee0 c33d d4a4 f7bc 9810 00bd 0ed4 adbc
-0.07107991 -0.017826995 -0.10773089 0.11715459 -0.065397635 0.04011179 0.06517248 0.020244768
0.10550217 0.044743244 -0.11280763 0.12323536 0.06296245 0.09295276 0.068014674 -0.014424815
0.082300045 0.056394596 -0.0029580197 -0.067074805 -0.03220393 -0.069685705 -0.024644084 0.035183463
-0.05280212 -0.093636855 -0.11752238 0.00286231 -0.114455216 0.070309766 -0.052445717 -0.1105376
-0.08686273 -0.012420504 0.075476766 -0.02697258 -0.120604925 -0.013062676 0.028584793 0.06696894
-0.08503819 -0.10769704 -0.090069115 -0.10228202 -0.023945013 0.12323131 -0.12059047 -0.0049146214
-0.10175932 0.04054715 -0.11566342 -0.00655884 -0.019148624 0.07882378 0.010087551 0.09648377
0.02608858 0.08527797 -0.014143317 0.04265296 0.09564291 -0.030229963 -0.031265825 -0.02121928

action_head.weight f4 [5, 64]
00000000: d3b2 42bd c195 453c d221 3ebd 3dce 0d3c
00000010: 521c ad3d 62d1 4b3d 86e6 dabc 65dd d13d
00000020: edba 833d 4bac b0bd b4eb da3d 88aa a63c
00000030: 8577 e23c d7c7 a2bd 4557 5c3d 3ef6 b33d
00000040: 7269 dcbd 25f1 543d 46f1 fe3d abf9 b33c
00000050: 07a5 9f3b af12 163d a253 5b3d 3306 75bc
00000060: a8ed 6dbd 3126 193d 69c3 c43d 1091 42bd
00000070: 591e 8fbd 08d0 ab3d 52a6 24bd 44b9 df3d
00000080: 6071 95bb 104a aa3c a330 8d3d 04d7 b3bd
00000090: b8d4 743c 997a f3bb 5691 b9bd 5291 6c3b
000000a0: d094 e6bd 515b 6b3c 3a62 aebc a5c2 99bd
000000b0: 6875 31bc b7dc 5cbd 0247 4c3d c6e4 f4bc
000000c0: 1b06 c63c 3eaf fe3c dd09 78bd 5cd2 833d
000000d0: 549c 9f3d 2d28 a6bd 81ee c9bd 44e1 1e3d
000000e0: e414 453c 853e cdbd e61e 993d 9c43 e23d
000000f0: 6f1c a63d 357d b93d b0a4 043e 6a1d dd3d
00000100: 75dc ef3d 2a36 cfbd 79eb c63d 3f83 ac3d
00000110: 2360 2b3d e9f6 b73d 88ae ddbd 0ebe 583d
00000120: 7154 8e3d 952e 003d 20d7 ec3d c51f a73d
00000130: 6fd2 61bc 6436 693d f579 803d 8058 cdbd
00000140: ac0a 8cbd f5f0 803d 11ff a6bc 8061 30bd
00000150: fd03 a8bd adf1 72bd 0017 68bd 69e6 b3bd
00000160: a4b5 19bb 31ae 10bd c627 d23d dc8f 293d
00000170: 0ee0 9bbd 9c8d 8e3d 00ef 843d 7bd3 1dbd
00000180: 8d4f c9bc 8b7a ac3d bef0 213c 2c2f febc
00000190: 39a3 abbd a0c1 4f3d 43c1 ee3d 6e3f 9bbd
000001a0: e5f9 233d babe b5bd 1e20 ba3c d91a 72bb
000001b0: d75f a8bd e56f ef3d 79af 74bd 67bd c43b
000001c0: 116a cfbc f4da de3d 3d58 c43b a2ba 963d
000001d0: c539 e53d 1f99 f9bd d48d 2bbd 0ac6 d13d
000001e0: 36e3 af3d 0e2b b5bd d77e bf3d ad75 693d
000001f0: e4ae 553d 79b8 c1bd 92f8 bdbd 7b20 353d
00000200: 8a80 cb3d 0353 f83b 22ce 6b3d 9cb9 11bb
00000210: 11b8 d2bd 878d e5bd f8f3 09bd e3dc be3d
00000220: 0c79 9c3d 3049 9fbd c771 c13d a2f7 8bbc
00000230: 8e9d 86bd 4065 063c 92fb bbbd d39e 1c3c
00000240: 51d5 be3c 8a1a fabc 13ff a33c fa95 5c3d
00000250: 29d2 383d 8a08 f13d bd13 0cbc ff4d 61bb
00000260: f17f 10bd 538d cbbd 807f 43bd b523 803d
00000270: bd2a 01be e035 d63d 9de3 babd 58b9 8cbd
00000280: 2b3c 963c 1aad 8dbd 085b d33d ba42 ca3d
00000290: a706 6cbd 80cc 303c 0bf6 863c 6e69 78bd
000002a0: 16a0 f63d 11be d5bd caa2 a3bd 68ca 363d
000002b0: 741c d6bd 46d2 10bd 7790 02bd 8d53 49bd
000002c0: edfb f7bd 1578 503d c157 babd 7004 8cbd
000002d0: 850b 93bb 82bc bbbd fd00 5a3d 6245 de3b
000002e0: c552 4c3d efe4 d2bd 7882 a9bc ac3b ae3c
000002f0: 4526 e8bd ccb4 d1bc 2b9b ef3d f363 8a3d
00000300: f4a5 983d 78bf 8bbd 6616 fd3c b83c c8bd
00000310: fc3f d73b 1f06 aebc 4448 c63d 52e9 b7bd
00000320: 9158 69bd 5288 0c3d 3dd3 c1bd 5a20 663d
00000330: d585 12bc 9ee7 a33c 4e4f 40bd 2367 343d
00000340: 3baa da3d a0d2 123d a2eb e4bd b63f d93d
00000350: cc48 f93b 2499 c1bb c1a2 d6bc 24e5 073c
00000360: db32 ff3d 0e3c e9bd 58fe 6ebd bbf9 8e3d
00000370: f1bf 06bd 1dd4 e5bd 7043 233d cf48 fbbd
00000380: 33b1 cfbc 8e8e 3c3d 61ad 9abd ffb6 7c3c
00000390: 2217 babd 0e74 d13d 6377 b5bd 7438 9c3b
000003a0: 38b8 df3d efa5 e6bc f6f2 b5bc a868 93bc
000003b0: 1479 32bd c34f 453d a7e0 a13d 71d8 41bd
000003c0: 918a 9cbc 56ec a4bd d076 f5bd 6365 ebbd
000003d0: e2ea c83d 994d ad3d 87bf b7bd 2b53 e73c
000003e0: 9c01 953d e25a ed3d 93e6 c9bb c024 a93d
000003f0: 73d0 023d 5fc8 f2bb de7e d43d 54d1 cfbd
-0.04753382 0.01205963 -0.046418972 0.008655128 0.08452667 0.04976023 -0.02672125 0.10247306
0.06432138 -0.08626612 0.10689488 0.020344988 0.027644882 -0.07948273 0.053794164 0.08787201
-0.107622996 0.051987786 0.12448363 0.021969637 0.0048719677 0.03663891 0.053546555 -0.014955091
-0.058087975 0.037389938 0.09607584 -0.047501624 -0.0698821 0.08389288 -0.040197678 0.109240085
-0.0045606345 0.020787269 0.06894042 -0.08781245 0.014943294 -0.0074303863 -0.09060924 0.003609736
-0.112588525 0.014365033 -0.021287072 -0.075078286 -0.0108312145 -0.053921428 0.049872406 -0.029894244
0.024172833 0.031089421 -0.06055628 0.06436607 0.07793489 -0.08113132 -0.09859944 0.03878905
0.0120289065 -0.1002169 0.074765965 0.11048052 0.08110892 0.090570845 0.12953448 0.10796626
0.11711971 -0.10117753 0.097128816 0.08423471 0.04183973 0.08982641 -0.10824305 0.052915625
0.069497 0.031294424 0.11564469 0.081603564 -0.013783081 0.056936637 0.062732615 -0.10026646
-0.06837973 0.06295959 -0.020385297 -0.043061733 -0.08203886 -0.05931251 -0.05666256 -0.087841816
-0.0023454214 -0.035322372 0.102614924 0.04139696 -0.076110944 0.069606036 0.06490898 -0.03853176
-0.024574066 0.08421811 0.009884058 -0.031028353 -0.083807416 0.050721765 0.116579555 -0.07580458
0.04003324 -0.08874269 0.022720393 -0.0036942272 -0.08221405 0.11691264 -0.059737656 0.006004024
-0.025319131 0.10881606 0.005991964 0.07359816 0.11192659 -0.12187409 -0.041883305 0.10242851
0.08588259 -0.08846103 0.09350365 0.05699699 0.05216874 -0.094590135 -0.09275927 0.04422043
0.09936626 0.007578255 0.05756963 -0.0022235876 -0.10289014 -0.11208635 -0.033679932 0.093194745
0.07640275 -0.07777631 0.094455294 -0.017085854 -0.0657302 0.008202851 -0.091788426 0.009559351
0.023295077 -0.030530233 0.02001909 0.053853966 0.0451223 0.11769207 -0.008549628 -0.0034378765
-0.035278264 -0.09939065 -0.047729015 0.062568106 -0.1261396 0.104594946 -0.09125445 -0.06871289
0.018339237 -0.06917782 0.10320097 0.09876008 -0.05762353 0.010790944 0.016474744 -0.06064742
0.12042253 -0.10436643 -0.07990034 0.044626623 -0.10454646 -0.035356782 -0.031876054 -0.049151946
-0.12108598 0.05089577 -0.09098769 -0.06836784 -0.004487457 -0.091668144 0.0532236 0.0067831734
0.049883623 -0.10297572 -0.020692095 0.021268688 -0.11335424 -0.025598906 0.11699518 0.06757345
0.07453528 -0.06823629 0.03089447 -0.09777206 0.006568907 -0.021243153 0.09681752 -0.08980049
-0.05696923 0.034309693 -0.09464119 0.056183197 -0.008943041 0.020007905 -0.04695063 0.04404367
0.10677 0.0358454 -0.11177756 0.10607855 0.007607555 -0.0059081484 -0.026200654 0.0082943775
0.12460872 -0.11388408 -0.05834803 0.06981226 -0.032897893 -0.11222098 0.039859235 -0.122697465
-0.02535305 0.04603439 -0.07552601 0.015424489 -0.090864435 0.10227214 -0.08860662 0.004767472
0.10923809 -0.028155295 -0.02221058 -0.01799424 -0.0435725 0.04817177 0.07904177 -0.047325555
-0.019109042 -0.0805289 -0.11985552 -0.11493947 0.09810425 0.08462066 -0.08972078 0.0282379
0.072756976 0.115896 -0.00616152 0.08258963 0.031937074 -0.00740914 0.103757605 -0.10147348

action_head.bias f4 [5]
00000000: 101b 82bc 7541 d7bc dcf8 bebd 8527 b1bd
00000010: 46b1 97bd
-0.015882045 -0.02627633 -0.0932481 -0.08650116 -0.07406859

value_head.weight f4 [1, 64]
00000000: 0743 e5bd 9722 e53d 3ae9 65bb 0fe5 363b
00000010: cb0a cb3d f7e5 413a 9b28 643d cb0f 2abd
00000020: 5695 babd 279c 8d3c 76fd 63bc 5fa6 85bd
00000030: 0a4c c1bd 1b8a 073d 5fdb 98bc 9cb2 e6bc
00000040: cf37 1dbd 0a32 0f3d 0c10 193d e508 9ebd
00000050: 9b43 8bbd 4af5 863d 9950 383d 6458 bbbd
00000060: 6b3a 563d fac4 54bd 683e 933b c907 76bc
00000070: 1e1c 80bd 45c8 823d ad7c 95bd 6af7 c7bb
00000080: 86bc 87bd 0b6e df3c f8c8 4b3d d4c7 e83d
00000090: 1f72 af3c e364 c5bd 5756 be3d b7b1 f23d
000000a0: 1e02 d73d d248 aabd e0e9 c03d e5a5 a4bd
000000b0: 6878 e63d 5c13 57bd 8724 88bd c743 f03d
000000c0: d2c2 a6bd be18 d43d 7cce 6a3d 53a6 03bb
000000d0: bf09 f73c 62ad 063d 2b20 a23c 25d0 363c
000000e0: d3fa e3bd a5d9 e0bd ad6a 99bd 853a 9ebd
000000f0: 48af d9bd 77ba 7ebd 587a d2bb 4f93 78bc
-0.11194425 0.11188238 -0.003508164 0.0027907526 0.09914168 0.0007396633 0.055702787 -0.041518968
-0.09110515 0.017286373 -0.01391541 -0.065258734 -0.094383314 0.033090692 -0.018659292 -0.02816134
-0.0383833 0.03495983 0.03736882 -0.0771654 -0.06800004 0.06589754 0.04499874 -0.091477185
0.052301805 -0.051945664 0.0044935234 -0.015016505 -0.06255363 0.06385855 -0.07299171 -0.006102492
-0.06627755 0.027274152 0.049752206 0.11366239 0.021416722 -0.09638383 0.09293812 0.11850303
0.10498451 -0.083146706 0.09419608 -0.08039454 0.112534344 -0.052508697 -0.06647592 0.117316775
-0.08142628 0.10356282 0.057325825 -0.002008815 0.030156014 0.032880194 0.01979073 0.011158024
-0.11131825 -0.109790124 -0.0749105 -0.077260055 -0.10629135 -0.062189545 -0.006423276 -0.01517184
