2022/20-华立民 指导老师-马里佳/code/output/2-agents_domain-PredatorPrey-2_adversaryratio-0.75_AC-QMIX_2022-11-30-23-15-39/adversary_model.pth (torch, 52943 bytes, 7 tensors)

fc_net.fc_net.0.weight f4 [64, 125]
0	0x3c339ad8	0.010962211
1	0x3d8b759f	0.06809544
2	0xbd2489dd	-0.04017054
3	0x3d2d8c6a	0.042370237
4	0x3db53b7d	0.08849237
5	0x3d499c02	0.049221046
6	0xbd4ad3f6	-0.049518548
7	0xbdad24ec	-0.08454308
8	0x3d33a0ee	0.043854646
9	0x3a6ef680	0.0009115711
10	0xbd7ec120	-0.062195897
11	0xbd780200	-0.060548782
12	0x3bac5f00	0.0052603483
13	0x3d4a28a6	0.04935517
14	0x3c5c9aa8	0.013464607
15	0x3daee2bd	0.08539341
16	0x3d1cdfca	0.03829936
17	0x3db44399	0.08801956
18	0xbd19406e	-0.03741496
19	0x3a3ac400	0.0007124543
20	0xbc92bde8	-0.01791282
21	0x3cd81310	0.026376277
22	0xbcd448b4	-0.025913574
23	0xbbde7a00	-0.006789446
24	0xbc307b00	-0.010771513
25	0xbc3563c0	-0.011071146
26	0xbd59cf02	-0.053175934
27	0x3cf81fbc	0.03028857
28	0xbdb36676	-0.08759777
29	0x3db37e0d	0.08764277
30	0xbdac875d	-0.08424256
31	0x3c9008fc	0.01758241
32	0xbbbe5630	-0.005808614
33	0x3d977523	0.07395389
34	0xbd7aeb2c	-0.061259434
35	0xbc96a950	-0.018391281
36	0x3c353490	0.011059895
37	0xbd84b861	-0.0648048
38	0x3d74aa22	0.059732564
39	0x3d881e71	0.06646431
40	0x3d09253e	0.033482783
41	0xbdb296d4	-0.087201744
42	0xbd56d542	-0.052449472
43	0x3d020a92	0.031748362
44	0x3ce8fa0c	0.028439544
45	0xbba7b870	-0.005118422
46	0x3d6d2f02	0.05790616
47	0xbd735638	-0.059408396
48	0x3cbd83e8	0.023134187
49	0xbaebdfc0	-0.001799576
50	0x3d994101	0.07483102
51	0x3ce584bc	0.028017394
52	0xbd542382	-0.051791675
53	0x3da537e1	0.08067299
54	0x3d5b632e	0.053561382
55	0x3d4f6f36	0.05064317
56	0xbd0a70dd	-0.03379904
57	0xbd249e45	-0.04019
58	0xbd31184b	-0.04323606
59	0x3d8018bd	0.062547185
60	0xbd2191ba	-0.039445616
61	0xbd8d5075	-0.069001116
62	0xbbcc5580	-0.0062357783
63	0x3c573a90	0.013136521
64	0x3c2307d8	0.009950601
65	0xbb768080	-0.0037613213
66	0xbd74af3c	-0.05973743
67	0x3ba7bcc0	0.0051189363
68	0xbd9c4b43	-0.076315425
69	0x3d502f86	0.050826572
70	0x3d1a3486	0.037647747
71	0xbd6b649a	-0.057468988
72	0x3c8cd21c	0.017190032
73	0xbd35b833	-0.04436512
74	0xbd58de8a	-0.052946605
75	0xbd8cd28e	-0.068760976
76	0x3d77988e	0.06044822
77	0x3d4946ee	0.04913991
78	0xbd1983ca	-0.0374792
79	0xbd527781	-0.0513835
80	0xbd8be3ce	-0.0683056
81	0x3da60baf	0.08107697
82	0xbd879cd2	-0.06621708
83	0xbdad84c4	-0.08472589
84	0x3d6155f2	0.055013604
85	0xbce4e114	-0.027939357
86	0xbdac0610	-0.08399594
87	0xbdb3ee66	-0.08785705
88	0x3d42026a	0.047365583
89	0xbd5ffa6c	-0.05468218
90	0xbd256595	-0.04038008
91	0x3d703f5e	0.05865418
92	0x3d5f8daa	0.05457846
93	0x3d0548b6	0.032540046
94	0x3c9c8098	0.019104287
95	0xbbfea9e0	-0.0077717155
96	0x3d843e69	0.06457216
97	0xbd927ba4	-0.07152489
98	0xbd93bf1d	-0.07214186
99	0xbc6c64c8	-0.014428325
100	0xbd09c756	-0.033637367
101	0x3d4e6bde	0.05039584
102	0xbba5fb20	-0.005065337
103	0xbd8926e2	-0.066968694
104	0xbd3c4044	-0.045959726
105	0x3daff56d	0.08591733
106	0x3d1d5df2	0.03841967
107	0xbd9fde5d	-0.07806084
108	0xbd1495cc	-0.03627567
109	0xbccaf4bc	-0.024774902
110	0x3d567caa	0.052364983
111	0x3d07ef2a	0.03318707
112	0xbd39a8d3	-0.04532702
113	0xbd40d3b2	-0.04707689
114	0x3d43622a	0.04770104
115	0xbd711fd5	-0.058868248
116	0xbcf4a816	-0.029865306
117	0x3d735c06	0.059413932
118	0xbd9cfa61	-0.076649435
119	0x3d683626	0.056692265
120	0xbd36aea6	-0.04460015
121	0xbd6017e7	-0.054710295
122	0x3bbd4c40	0.005776912
123	0x3d94f6e1	0.07273651
124	0xbd9fab4d	-0.07796345
125	0x3ce7e690	0.028308183
126	0x3d65c9da	0.056100704
127	0x3d951a31	0.07280386
128	0x3db5c7b3	0.0887598
129	0x3c96808c	0.018371843
130	0xbb6bb760	-0.0035967454
131	0xbc8afc10	-0.016965896
132	0xbd9db2fb	-0.077001534
133	0xbae85380	-0.001772508
134	0xbdafe3cb	-0.0858837
135	0x3cf1d248	0.029519215
136	0xbd7ca0f8	-0.06167695
137	0xbc96ddd8	-0.01841633
138	0x3d8458ad	0.06462226
139	0xbd7fa763	-0.06241549
140	0x3d1942da	0.03741727
141	0xbbcffc60	-0.006347224
142	0xbc20ab50	-0.009806469
143	0x3b514080	0.0031929314
144	0x3d3fe8ee	0.046853
145	0x3d922123	0.071352266
146	0xbd8ec477	-0.069710664
147	0xbd3a77df	-0.045524474
148	0xbd0e43ed	-0.034732748
149	0x3db6d451	0.08927215
150	0x3d99c4b9	0.07508225
151	0x3c79b1b0	0.015240118
152	0xbd85b724	-0.06529072
153	0x3cca03c4	0.024659999
154	0x3d1d5c76	0.038418256
155	0xbd017c9d	-0.03161298
156	0xbcb5574c	-0.022136353
157	0xbd9806ab	-0.07423147
158	0xbc39cea0	-0.011340767
159	0x3d9164ed	0.07099328
160	0xbbbdf0c0	-0.005796522
161	0x3d7adbd6	0.06124481
162	0x3db6068f	0.0888797
163	0xbd2eb95b	-0.042657237
164	0x3d13b06a	0.036056913
165	0xbd0012ac	-0.031267807
166	0xbd5524ef	-0.052037176
167	0x3d89e827	0.06733733
168	0xbda51f18	-0.08062571
169	0xbc254b90	-0.010088816
170	0x3d5c1392	0.0537296
171	0xbd5e0625	-0.05420508
172	0xbbc5bfa0	-0.0060348064
173	0xbd2da748	-0.04239586
174	0x3d80b8fd	0.06285284
175	0xbd50575e	-0.05086457
176	0xbdb207fa	-0.08692928
177	0xbd7570fa	-0.059922196
178	0x3d7c9f8e	0.0616756
179	0x3d02b230	0.031908214
180	0x3d6c9f72	0.057769246
181	0xbd80d924	-0.06291416
182	0x3db6a895	0.08918873
183	0x3d1613be	0.03663992
184	0x3d9dd121	0.07705904
185	0xbb116ec0	-0.0022191256
186	0xbc80f5cc	-0.015742205
187	0x3c496de0	0.012294263
188	0xbda392d4	-0.079869896
189	0x3da0e0ef	0.07855403
190	0x3d61e6e6	0.055151843
191	0x3d761292	0.060076304
192	0xbd22e0a5	-0.03976502
193	0xbd7aed0a	-0.061261214
194	0x3c0aa420	0.008461982
195	0xbd06f8e9	-0.032952223
196	0xbda18281	-0.0788622
197	0x3d0e45f6	0.03473469
198	0x3db7062f	0.08936726
199	0xbd93f26a	-0.07223971
200	0xbcecd3f8	-0.028909668
201	0x3d4a6e7e	0.04942178
202	0xbda88dd7	-0.08230179
203	0xbd48f450	-0.04906112
204	0xbd982a14	-0.07429901
205	0xbcc76958	-0.024342224
206	0x3d8048e9	0.062639065
207	0xbd92091a	-0.07130642
208	0x3d3a3f0a	0.045470275
209	0xb9b6ce00	-0.00034867227
210	0xbca303e0	-0.019899309
211	0x3ca6aaf8	0.020345196
212	0x3da48937	0.08033984
213	0xbda16e25	-0.078823365
214	0x3d869e93	0.065732144
215	0x3d8fe02d	0.0702518
216	0xbd8742fa	-0.06604572
217	0xbcd1f79c	-0.025630765
218	0x3ce1bc58	0.02755563
219	0xbd130b3f	-0.035899397
220	0xbd17f595	-0.03709944
221	0x3d941b43	0.07231762
222	0xbcbcbda8	-0.023039654
223	0x3d8f1e97	0.069882564
224	0x3d03b24e	0.032152466
225	0xbd0c2b92	-0.03422124
226	0xbc890a4c	-0.016728543
227	0x3d1ba01a	0.03799448
228	0xbbfb8f20	-0.007676974
229	0xbd29dce2	-0.041470416
230	0xbd7a7b5b	-0.061152797
231	0x3c99fc88	0.018797174
232	0x3ce9092c	0.028446756
233	0xbc44d128	-0.012012757
234	0x3b93e250	0.0045130625
235	0x3d9e1a93	0.077199124
236	0x3d676e2e	0.05650156
237	0xbd5ba3f7	-0.053623166
238	0xbda60ab4	-0.0810751
239	0x3d75988a	0.059959926
240	0xbd9b449f	-0.07581448
241	0x3cce65c0	0.025195003
242	0x3d14c486	0.03632023
243	0x3d41d146	0.04731872
244	0xbdad7654	-0.08469835
245	0x3d3177da	0.04332719
246	0xb82da800	-4.1402876e-05
247	0x3db60dd3	0.088893555
248	0xbd1109db	-0.03540979
249	0x3b169d00	0.0022981763
250	0xbd74043a	-0.059574343
251	0xbd7d360c	-0.06181912
252	0xbd50f998	-0.05101928
253	0xbdb64563	-0.08899953
254	0x3d335756	0.043784462
255	0xbd9a7ac5	-0.07542948

fc_net.fc_net.0.bias f4 [64]
0	0x3db69bfd	0.08916471
1	0x3d20fd6e	0.03930419
2	0xbdb49ca3	-0.088189386
3	0xbd0b0576	-0.033940755
4	0x3cb7744c	0.022394322
5	0x3c281028	0.010257758
6	0xbc77dd68	-0.015128471
7	0xbd2248fe	-0.039620392
8	0xbd4534ff	-0.048146244
9	0x3d266ce6	0.040631197
10	0xbc5c1f60	-0.013435215
11	0x3caa1558	0.02076213
12	0xbd46fb38	-0.048579425
13	0x3d6dd32a	0.05806271
14	0xbd09bac5	-0.033625383
15	0xbd33a586	-0.043859027
16	0x3ceedec8	0.029158965
17	0x3cf3dbbc	0.029767863
18	0xbdaf0050	-0.085449815
19	0xbcfe7314	-0.031060733
20	0xbdb19235	-0.08670465
21	0x3da46eab	0.08028921
22	0x3c010498	0.00787463
23	0xbd900b7b	-0.0703344
24	0x3dab98e1	0.08378769
25	0x3d878325	0.06616811
26	0x3d9accff	0.07558631
27	0xbd99637b	-0.074896775
28	0xbd8c580d	-0.06852732
29	0x3cbb3ea8	0.022857025
30	0xbd51204f	-0.051056203
31	0x3db50323	0.08838489
32	0x3b505980	0.0031791627
33	0x3ce5ecfc	0.028067105
34	0x3d4ca8ba	0.049965598
35	0x3c0c84e0	0.008576602
36	0x3dab92ed	0.08377633
37	0x3b9e2810	0.004826553
38	0xbd785fa2	-0.060638078
39	0x3d82ea43	0.06392338
40	0xbd7c3740	-0.061576128
41	0xbc0df008	-0.008663185
42	0xbd9de428	-0.07709533
43	0xbd57f0c7	-0.052719858
44	0xbd37719f	-0.044786092
45	0x3d698362	0.057010062
46	0xbd5f18ef	-0.054467138
47	0x3d49fc32	0.049312778
48	0xbcd86e70	-0.026419848
49	0xbd70a928	-0.05875507
50	0x3d9f690b	0.07783707
51	0x3d6360d6	0.05551227
52	0xbd7283fc	-0.0592079
53	0xbcb15654	-0.02164761
54	0xbd95a560	-0.073069334
55	0xbd86cbfb	-0.06581875
56	0xbd023ef3	-0.031798314
57	0x3d850edf	0.06496977
58	0x3da0f08b	0.0785838
59	0xbd94783c	-0.072494954
60	0xbd1aedc4	-0.037824407
61	0xbbba7280	-0.005689919
62	0x3cd40bf4	0.025884606
63	0x3d15a3b2	0.036533065

fc_net.fc_net.2.weight f4 [64, 64]
0	0xbdf7fa62	-0.121083036
1	0xbd05b8e4	-0.03264703
2	0x3decfcce	0.11571656
3	0xbd98ecc2	-0.07467033
4	0xbd9461d8	-0.07245225
5	0xbdd25f58	-0.102720916
6	0xbdfd8e80	-0.12380695
7	0x3d8acc90	0.067772985
8	0x3df5e0b6	0.12005751
9	0xbdac36e2	-0.084089056
10	0x3dc73c80	0.09728336
11	0x3d479af0	0.048731744
12	0x3df98f46	0.1218553
13	0xbb99a560	-0.0046889037
14	0x3cdc58d0	0.026897818
15	0xbd2a27a8	-0.041541725
16	0x3db9d734	0.0907425
17	0xbdd85e54	-0.10564867
18	0xbc170be0	-0.00921914
19	0xbdfbf306	-0.123022124
20	0xbdeb536e	-0.11490522
21	0x3d0a3ea8	0.03375116
22	0x3d85ae2a	0.0652736
23	0x3db7707a	0.08957
24	0xbd81023a	-0.06299253
25	0x3bedb280	0.007253945
26	0x3d8bf57c	0.06833932
27	0x3daeb62c	0.0853084
28	0x3dccebd4	0.10005918
29	0xbdc60b30	-0.096701026
30	0x3ddcd670	0.10783088
31	0x3b80be80	0.0039289594
32	0x3decda00	0.11565018
33	0x3ac57c00	0.0015066862
34	0x3dd3cd38	0.10341877
35	0xbcc34220	-0.023835242
36	0x3d822e02	0.063564315
37	0x3d8f1bc6	0.06987719
38	0xbbec3960	-0.007208988
39	0x3be94d00	0.007119775
40	0x3de27c36	0.110588476
41	0xbde50802	-0.11183168
42	0xbdd0f03e	-0.102020726
43	0xbdc86c52	-0.097862855
44	0xbde81b2c	-0.113333076
45	0xbd6526f0	-0.055945337
46	0xbdf032a0	-0.11728406
47	0xbc8b7430	-0.017023176
48	0x3d30439c	0.043033227
49	0x3c55dfe0	0.013053864
50	0x3d8eaa7e	0.069661126
51	0xbbd8d7c0	-0.0066175163
52	0x3de7a72c	0.113111824
53	0x3d99898a	0.074969366
54	0xbcfed110	-0.031105548
55	0x3df27686	0.11839013
56	0x3ca8fb60	0.020627677
57	0xbddcadfc	-0.107753724
58	0x3da61972	0.08110322
59	0x3df4eb0e	0.119588956
60	0x3cf65f18	0.030074641
61	0x3d96f704	0.07371333
62	0xbdd2b328	-0.102880776
63	0xbc6271c0	-0.013821065
64	0x3d0ba908	0.034096748
65	0xbd62730c	-0.0552855
66	0x3dcc855e	0.09986375
67	0x3d731010	0.05934149
68	0x3d6521cc	0.055940434
69	0xbdb4a9c0	-0.0882144
70	0xbd9c7ff4	-0.076415926
71	0xbc57b240	-0.013165057
72	0xbd8a1b52	-0.06743492
73	0xbd45b0b0	-0.048264205
74	0x3cbac2a0	0.022797883
75	0xbd32e1f8	-0.04367253
76	0x3dc54a2c	0.09633288
77	0x3da4257c	0.08014962
78	0xbd931968	-0.0718258
79	0x3d10b5a0	0.03532946
80	0x3ddebb64	0.10875586
81	0x3dd20b2e	0.102560386
82	0x3dc2a9a4	0.09505013
83	0x3d0b0f94	0.033950403
84	0x3be30f00	0.0069292784
85	0xbd403d50	-0.046933472
86	0xbde5e4ac	-0.11225256
87	0xbd7b75b4	-0.061391547
88	0x3cc1fc08	0.023679748
89	0x3dd3a484	0.10334113
90	0x3d14f298	0.036364168
91	0xbdbcaa3e	-0.092121586
92	0xbdc9a976	-0.09846775
93	0xbbca93c0	-0.006182164
94	0xbd9f560c	-0.07780084
95	0xbd6d7680	-0.05797434
96	0x3dfdb29c	0.12387583
97	0xbd034a30	-0.032053173
98	0xbd1afe38	-0.0378401
99	0xbd239878	-0.039940327
100	0x3debc80e	0.11512767
101	0x3dffb286	0.124852225
102	0xbd32df98	-0.043670267
103	0xbdcc2cd0	-0.09969485
104	0x3d6dbd48	0.05804184
105	0xbdbcc390	-0.09216988
106	0xbd56d3d4	-0.05244811
107	0xbd846924	-0.064653665
108	0x3dec8b48	0.11550003
109	0xbd736bcc	-0.059428975
110	0x3d6f3f88	0.058410197
111	0x3d877d96	0.066157505
112	0x3d592b90	0.05302006
113	0x3c0c42b0	0.008560821
114	0xbdf9c508	-0.12195784
115	0x39f38a00	0.0004645139
116	0xbdc5e206	-0.09662251
117	0x3c87c548	0.016573563
118	0xbbaa6600	-0.0052001476
119	0xbcd9f850	-0.026607662
120	0xbdf7109c	-0.12063715
121	0xbdf50458	-0.11963719
122	0x3d5a7040	0.053329706
123	0xbaf5cc00	-0.0018752813
124	0xbc800fd0	-0.01563254
125	0xbdea9992	-0.114550725
126	0xba35ad00	-0.0006930381
127	0xbdae7e2e	-0.085201606
128	0xbcc92bd0	-0.024557024
129	0xbde5b642	-0.112164035
130	0xbd5b05f4	-0.053472474
131	0xbd7722d8	-0.060335964
132	0xbd68263c	-0.05667709
133	0x3a1bc200	0.0005941689
134	0x3d8f8f66	0.07009773
135	0xbb3f51c0	-0.0029193014
136	0x3df02e40	0.117275715
137	0xbdb9dd78	-0.09075445
138	0xbde09da6	-0.10967569
139	0x3cd710b8	0.02625309
140	0xbd473698	-0.04863605
141	0xbc317050	-0.01083
142	0xbdc49b12	-0.0959989
143	0x3dc9a80a	0.09846504
144	0xbd10f2e0	-0.035387874
145	0x3cf25d28	0.029585436
146	0x3dcf6c3a	0.101280645
147	0x3cdfdb58	0.027326271
148	0xbdadf6e8	-0.08494359
149	0xbdb437ba	-0.087996915
150	0xbdda861c	-0.106701106
151	0xbdfbac6e	-0.12288748
152	0xbcac2fe8	-0.021018937
153	0xbde1061a	-0.10987492
154	0xbd60b894	-0.054863527
155	0xbd306b84	-0.043071285
156	0xbded3ecc	-0.11584243
157	0xbc82cdf0	-0.01596734
158	0x3d141d94	0.03616102
159	0xbdeeabc0	-0.116538525
160	0x3d692a80	0.056925297
161	0x3d255b04	0.040370002
162	0xbd06be18	-0.03289613
163	0x3c054d80	0.008136153
164	0xbdee05e0	-0.11622214
165	0xbd914e9a	-0.0709507
166	0x3ca90028	0.020629957
167	0xbd45df74	-0.048308805
168	0x3d3c5b78	0.04598567
169	0xbcf81720	-0.030284464
170	0xbdc70764	-0.097182065
171	0x3d065f5c	0.032805786
172	0xbbe01aa0	-0.0068391114
173	0xbde31da2	-0.110896364
174	0x3ddd50f2	0.10806455
175	0x3cf81d68	0.03028746
176	0xbd2d8684	-0.042364612
177	0xbcc6f690	-0.024287492
178	0x3d57d038	0.052688807
179	0xbda693da	-0.08133669
180	0x3c9d4678	0.019198641
181	0x3d9cd0be	0.07657002
182	0xbdfd665a	-0.12373038
183	0xbc7fb2e0	-0.015606612
184	0xbd525690	-0.051352084
185	0x3d0ea110	0.03482157
186	0x3d634774	0.055488065
187	0x3dafec62	0.08590008
188	0x3d1e8758	0.038703293
189	0x3d955236	0.07291071
190	0xbd7de924	-0.06198992
191	0x3d239354	0.039935425
192	0xbdc2b7ee	-0.09507738
193	0xbc338970	-0.010958061
194	0x3d65689c	0.056007966
195	0x3b767080	0.0037603676
196	0xbd820130	-0.06347883
197	0x3df2892e	0.11842571
198	0xbdfc981a	-0.123336986
199	0xbc318850	-0.010835722
200	0xbd3592fc	-0.04432963
201	0xbd98f44e	-0.074684724
202	0xbd91d79e	-0.07121204
203	0xbdb56f0a	-0.0885907
204	0xbd4d296c	-0.05008833
205	0xbd61cd30	-0.055127323
206	0xbdaa822a	-0.08325608
207	0x3d6e25a4	0.058141366
208	0xbc12bf80	-0.00895679
209	0xbd3581bc	-0.044313177
210	0x3d02b98c	0.031915233
211	0xbd2456f4	-0.040121987
212	0x3dd931b4	0.10605183
213	0xbd43e3dc	-0.047824726
214	0x3bfda140	0.0077401698
215	0xbd315920	-0.043297887
216	0x3dc6b9fc	0.097034425
217	0x3d88e716	0.06684701
218	0xbc95d768	-0.01829119
219	0xbd25b8c4	-0.04045941
220	0x3db4c4ea	0.08826621
221	0x3d73bf8c	0.059508845
222	0xbd341434	-0.04396458
223	0xbba03180	-0.0048887134
224	0xbdeceea4	-0.115689546
225	0x3d0570fc	0.032578453
226	0xbd0a9f04	-0.033843055
227	0xbd725610	-0.059164107
228	0xbd563e24	-0.052305356
229	0xbdf2de4c	-0.11858806
230	0x3d6a6e8c	0.057234332
231	0xbd893794	-0.06700054
232	0xbd6d9df4	-0.058011964
233	0x3d5cc774	0.05390115
234	0x3d05a7ac	0.032630607
235	0xbcdf0ce8	-0.027227834
236	0x3dc10088	0.094239295
237	0xbdcff32a	-0.10153802
238	0x3dfe97da	0.12431307
239	0x3d79ccc8	0.06098631
240	0xbd98a8ee	-0.07454096
241	0xbcb5c170	-0.022186965
242	0x3d78bcf0	0.06072706
243	0x3dcb2112	0.09918417
244	0xbdf0bd64	-0.117548734
245	0xbd9b813e	-0.0759301
246	0xbdf88f40	-0.12136698
247	0x3c925520	0.017862856
248	0x3c554e80	0.013019204
249	0xbbfef7e0	-0.007781014
250	0x3c42c900	0.011888742
251	0xbdea842a	-0.114509895
252	0xbde60326	-0.11231069
253	0x3dc7ca30	0.09755361
254	0x3d379de0	0.044828296
255	0xbde33382	-0.11093809

fc_net.fc_net.2.bias f4 [64]
0	0xbdaf5e88	-0.08562952
1	0x3de16d74	0.11007205
2	0x3d76d920	0.06026566
3	0xbcb400a8	-0.02197297
4	0xbdd0418c	-0.10168752
5	0x3d718c14	0.05897148
6	0x3d851568	0.064982235
7	0xbd294270	-0.041323125
8	0x3d80b4ae	0.06284462
9	0x3c8c1510	0.017099887
10	0x3d900f18	0.07034129
11	0x3dd0325c	0.10165855
12	0xbc8bc838	-0.017063245
13	0x3d292a5c	0.041300163
14	0xbd2b69f0	-0.041849077
15	0xbda4cb18	-0.080465496
16	0x3ca46b60	0.020070732
17	0xbc93e3b8	-0.01805292
18	0x3dc8f61e	0.09812568
19	0x3ccbb2f8	0.024865612
20	0x3d641c10	0.055690825
21	0x3de902ee	0.11377512
22	0x3de84896	0.1134197
23	0x39c91200	0.0003835112
24	0xbd3ffad8	-0.046870083
25	0xbd7cb744	-0.061698213
26	0xbd577d50	-0.05260974
27	0x3dfeeb1e	0.12447189
28	0xbdd77bd0	-0.10521662
29	0x3d1eb48c	0.0387464
30	0xbc02d240	-0.007984698
31	0x3dcadeee	0.09905802
32	0xbbe3d380	-0.006952703
33	0x3dd21a00	0.10258865
34	0xbd9be926	-0.07612829
35	0x3d5ed65c	0.054403648
36	0xbd70c33c	-0.05877994
37	0xbde87484	-0.113503486
38	0x3d30a750	0.04312831
39	0xbdd10742	-0.102064624
40	0x3d77b444	0.06047465
41	0x3d1c115c	0.038102493
42	0x3cde4860	0.02713412
43	0xbd03f6cc	-0.032217786
44	0xbd3ef49c	-0.046619996
45	0xbceba610	-0.028765708
46	0xbce5d2f0	-0.028054684
47	0x3d524d9c	0.051343545
48	0x3dc65f9e	0.09686206
49	0xbc37e570	-0.011224136
50	0xbde6c048	-0.112671435
51	0xbddb5946	-0.10710387
52	0x3d2dced4	0.042433575
53	0xbda62164	-0.081118375
54	0xbd6202cc	-0.05517845
55	0x3de08744	0.109633
56	0xbdf1ca5c	-0.11806175
57	0xbd80caee	-0.06288706
58	0x3dc4f7aa	0.09617551
59	0x3dd36572	0.103220835
60	0x3d7c6864	0.061622992
61	0x3da32e5a	0.07967825
62	0x3d2dfff8	0.04248044
63	0x3d014a9c	0.031565294

action_head.weight f4 [5, 64]
0	0xbd29d960	-0.04146707
1	0x3c910f68	0.017707542
2	0xbde64d8a	-0.11245258
3	0xbd564230	-0.052309215
4	0xbc6e5620	-0.014546901
5	0x3da5b40a	0.0809098
6	0xbd225a54	-0.039636925
7	0x3df7fd40	0.121088505
8	0xbb7ef7c0	-0.0038904995
9	0xbdc0fd5c	-0.094233245
10	0x3dddbb50	0.10826743
11	0x3daaf954	0.08348337
12	0x3d83393e	0.064074025
13	0xbde029cc	-0.10945472
14	0x3cf46e90	0.029837877
15	0x3dea2db0	0.114344954
16	0x3d8730b4	0.06601086
17	0x3d6cb458	0.057789177
18	0xbcb30020	-0.021850646
19	0x3da5e126	0.08099584
20	0x3dfec1da	0.12439318
21	0xbc09b8f0	-0.008405909
22	0x3bc5dec0	0.0060385168
23	0xbd2c7864	-0.042107
24	0xbdd3432a	-0.10315545
25	0x3d3b5904	0.04573919
26	0x3cba3040	0.022728086
27	0x3dea9938	0.114550054
28	0xbd7c9fcc	-0.06167583
29	0xbde513ce	-0.11185418
30	0xbdc0204c	-0.0938116
31	0x3d518810	0.05115515
32	0xbda88714	-0.08228889
33	0x3dc9ceb0	0.09853876
34	0xbd24d7e0	-0.040244937
35	0x3d0c8eac	0.03431575
36	0xbda53a6c	-0.08067784
37	0x3d8155de	0.06315206
38	0x3c14ada0	0.009074599
39	0x3df02284	0.11725333
40	0x3d728bbc	0.059215292
41	0x3dce66de	0.10078214
42	0xbda2f666	-0.07957153
43	0x3d3aabfc	0.045574173
44	0xbd6c2e80	-0.057661533
45	0x3ddaa950	0.10676825
46	0x3dd09c5e	0.10186075
47	0x3c01c780	0.0079211
48	0x3d541774	0.05178018
49	0x3de349b4	0.11098042
50	0xbafca580	-0.0019275397
51	0xbdedb64c	-0.11607036
52	0xbdd2041a	-0.102546886
53	0x3d647ffc	0.055786118
54	0xbd3f2944	-0.046670213
55	0x3dde05fa	0.10840984
56	0x3deffd22	0.11718203
57	0x3d1efa6c	0.03881304
58	0xbc8ca6e0	-0.017169416
59	0x3d985d28	0.07439643
60	0xbdb63314	-0.08896461
61	0xbd141230	-0.036150157
62	0x3d4bd3ac	0.049762413
63	0x3c2acb20	0.010424405
64	0x3d6857a4	0.056724206
65	0x3dca629e	0.09882091
66	0xbdafa88e	-0.08577071
67	0xbd0a17dc	-0.03371416
68	0xbd6c18fc	-0.057641014
69	0x3bcf5d80	0.0063282847
70	0xbde294fa	-0.11063571
71	0x3c1774e0	0.009244174
72	0x3d34e478	0.044163197
73	0x3d60ae20	0.05485356
74	0xbda81f8a	-0.082091406
75	0x3ce43f00	0.027862072
76	0x3dde3482	0.10849859
77	0x3dc99124	0.098421365
78	0xbba50ea0	-0.005037144
79	0xbdcc649e	-0.09980129
80	0x3d205ffc	0.039154038
81	0x3dd6e018	0.10491961
82	0x3d97b70a	0.07407959
83	0x3df51d32	0.11968459
84	0x3d8a093e	0.06740044
85	0xbd36b8d4	-0.04460986
86	0x3d86a6c2	0.06574775
87	0xbd5d92d8	-0.05409512
88	0xbd82681c	-0.063675135
89	0xbdef2f2c	-0.11678919
90	0x3db783f2	0.089607134
91	0xbdf77fe2	-0.120849386
92	0x3c4caf90	0.012493029
93	0xbc6d7020	-0.014492065
94	0xbcf4e178	-0.029892668
95	0xbdf83b26	-0.12120657
96	0xbddc0588	-0.107432425
97	0xbcd1a670	-0.025592059
98	0xbdb8345c	-0.08994362
99	0xbd884de2	-0.0665548
100	0x3de974e2	0.11399247
101	0x3dc428c2	0.095780864
102	0x3ba58780	0.0050515532
103	0x3d6faec8	0.058516294
104	0xbd5b6158	-0.05355963
105	0xbd9203de	-0.07129644
106	0xbdb631ce	-0.08896218
107	0xbd9b5d7e	-0.075861916
108	0x3cff2298	0.031144425
109	0xbc89df88	-0.01683022
110	0xbda5013a	-0.080568746
111	0x3de93b74	0.11388293
112	0x3b13a940	0.00225313
113	0x3dfee9ac	0.12446913
114	0x3dff4708	0.1246472
115	0xbdc76fb8	-0.097381055
116	0x3cf49a78	0.029858813
117	0xbd0f1be4	-0.034938708
118	0x3d2af170	0.04173416
119	0xbd6c7984	-0.057733074
120	0xbdfbf3e6	-0.12302379
121	0x3d2fb94c	0.042901322
122	0x3ca5e200	0.020249367
123	0xbcafdb70	-0.02146694
124	0x3b3f9d80	0.0029238164
125	0x3dfa849e	0.12232326
126	0x3d999d0c	0.075006574
127	0xbcda7f48	-0.02667202
128	0xbd9a0d10	-0.07522023
129	0xbd24f9f0	-0.04027742
130	0x3d8bdd86	0.068293616
131	0x3da7d386	0.08194642
132	0xbd1d1440	-0.03834939
133	0x3dd3149c	0.10306665
134	0xbd229890	-0.039696276
135	0xbba54820	-0.0050439984
136	0x39ca5a00	0.00038595498
137	0xbd9ec8f8	-0.077531755
138	0x3df18e84	0.11794761
139	0xbd74cfd8	-0.059768528
140	0xbccda550	-0.025103241
141	0xbc22ef40	-0.009944737
142	0xbcdc0098	-0.026855752
143	0x3dd07976	0.10179417
144	0x3de7f658	0.11326283
145	0xbd2a3b88	-0.04156068
146	0x3de9cb5a	0.11415739
147	0xbdde89c8	-0.108661234
148	0xbcd87de8	-0.026427224
149	0xbcbb4be0	-0.022863328
150	0xbdd90366	-0.10596351
151	0x3d145ecc	0.036223218
152	0x3dd84318	0.10559672
153	0x3d94bb0e	0.0726224
154	0xbd995f9e	-0.07488941
155	0xbd9b03ca	-0.07569082
156	0xbcc48f58	-0.023994133
157	0x3dc59514	0.09647575
158	0x3d84b8f6	0.06480591
159	0x3cddf520	0.027094424
160	0xbdad01dc	-0.0844762
161	0x3ca373d0	0.019952685
162	0xbcb8b7a8	-0.022548512
163	0x3dcc96d0	0.09989703
164	0x3dc689be	0.09694241
165	0x3dacde52	0.08440842
166	0x3c1f6820	0.009729415
167	0xbcfdbb18	-0.030973002
168	0xbcd8efb8	-0.026481494
169	0xbd233038	-0.039840907
170	0x3dd66dd0	0.10470164
171	0xbdb3fed4	-0.08788839
172	0xbc2c3bd0	-0.010512307
173	0xbd128bec	-0.03577797
174	0x3dfeb04a	0.12435968
175	0xbd9320e0	-0.07184005
176	0x3c409220	0.011753589
177	0x3dd36976	0.103228495
178	0x3b2a4e40	0.0025986582
179	0x3dd6e264	0.10492399
180	0x3c9adfb8	0.018905506
181	0x3d822dbc	0.063563794
182	0x3d831fe8	0.0640257
183	0xbd8604fa	-0.06543918
184	0xbdef8b02	-0.116964355
185	0x3cd74230	0.026276678
186	0x3d215a94	0.039393023
187	0x3bbd5f40	0.005779177
188	0x3dcfe9f4	0.10152045
189	0x3ddd6106	0.108095214
190	0xbde5de14	-0.11223999
191	0x3dc6bcc6	0.097039744
192	0xbdbd841a	-0.09253712
193	0xbd0d550c	-0.034504935
194	0xbd0ffb80	-0.03515196
195	0xbdea5b0c	-0.11443147
196	0x3dfba9b0	0.12288225
197	0xbdb9216a	-0.09039576
198	0xbccf2478	-0.025285944
199	0xbd086a1c	-0.03330432
200	0xbcf56af0	-0.029958218
201	0x3b381840	0.0028090626
202	0x3de7506e	0.112946376
203	0x3da3d86a	0.08000262
204	0xbdf8c1ac	-0.12146315
205	0xbdf3b0c2	-0.11898948
206	0x3d471120	0.048600316
207	0x3dc7d632	0.097576514
208	0x3d605158	0.054765075
209	0xbd17d1c4	-0.037065282
210	0xbd8ef45a	-0.069802
211	0x3de35c92	0.11101641
212	0xbd9b901a	-0.075958446
213	0x3cda2918	0.026630923
214	0x3b7b4240	0.0038339049
215	0xbd14b654	-0.036306694
216	0x3c78c9a0	0.01518479
217	0xbd427e08	-0.047483474
218	0xbdcf440c	-0.10120401
219	0x3cec08d8	0.02881281
220	0x3d5725b8	0.052526206
221	0xbd9a53cc	-0.07535514
222	0xbdb028c8	-0.086015284
223	0xbcda4cd0	-0.026647955
224	0xbd577eec	-0.052611277
225	0x3dc0072e	0.093763694
226	0xbdc32040	-0.095276356
227	0xbda5a19c	-0.08087465
228	0x3df6b59c	0.12046358
229	0x3d90f0ec	0.07077202
230	0xbdbb6eb2	-0.09151973
231	0xbddda19e	-0.10821842
232	0x39255400	0.00015766919
233	0xbae37800	-0.0017354488
234	0x3dc569e4	0.09639338
235	0xbdf380da	-0.11889811
236	0x3d0f75c4	0.03502442
237	0x3dcdba4a	0.100452974
238	0x3dcf1e8e	0.1011325
239	0xbd87ac50	-0.06624663
240	0x3b5a80c0	0.00333409
241	0x3d01f08c	0.031723544
242	0x3d4412b0	0.047869384
243	0x3c7ae680	0.015313745
244	0xbdde1d4e	-0.10845433
245	0xbd0c84e8	-0.034306437
246	0x3d2ea7fc	0.04264067
247	0x3d9f87ba	0.0778956
248	0xbdf54010	-0.119751096
249	0x3d431b9c	0.047633752
250	0x3d3acbc8	0.045604497
251	0xbdca1922	-0.09868075
252	0xbbbf61a0	-0.005840495
253	0xbdad7124	-0.084688455
254	0xbc51b1a0	-0.012798697
255	0x3d7f8bd0	0.062389195

action_head.bias f4 [5]
0	0xbddd1266	-0.10794525
1	0x3ce41508	0.02784206
2	0x3da1e352	0.07904686
3	0xbdc8fc9a	-0.09813805
4	0x3d1dc26c	0.038515493

value_head.weight f4 [1, 64]
0	0x3c31d500	0.010854006
1	0xbc741230	-0.014896914
2	0x3d9cc478	0.07654661
3	0xbdcbfb94	-0.09960094
4	0xbdb28c86	-0.08718209
5	0xbd9700c6	-0.073731944
6	0xbd678cb8	-0.056530684
7	0x3c4c8070	0.012481794
8	0x3ddcb300	0.10776329
9	0xbdc53eac	-0.09631094
10	0xbdd176f2	-0.10227765
11	0xbd8af7ca	-0.06785543
12	0xbdbf48ae	-0.093400344
13	0x3c900f78	0.017585501
14	0xbd1fef5c	-0.03904663
15	0x3cb83b90	0.02248934
16	0xbd07b24c	-0.03312902
17	0x3d7a4cdc	0.061108455
18	0xbd91cdde	-0.07119344
19	0xbd800746	-0.06251387
20	0xbd0967dc	-0.033546314
21	0xbdfcf864	-0.12352064
22	0xbd3eb8b4	-0.046562865
23	0xbdf5bf0a	-0.119993284
24	0x3ce3e990	0.027821332
25	0x3d3ea35c	0.04654251
26	0x3dbcad82	0.092127815
27	0x3da629a0	0.08113408
28	0x3c740330	0.014893338
29	0xbcb4a150	-0.022049576
30	0x3dc84864	0.097794324
31	0x3d968900	0.073503494
32	0xbdfe9e92	-0.12432589
33	0x3d8640ac	0.06555304
34	0xbd1e36f4	-0.038626626
35	0x3d852422	0.065010324
36	0xbdafd70e	-0.0858594
37	0xbdf2af04	-0.11849788
38	0xbc568450	-0.013093069
39	0x3deb2ff6	0.11483757
40	0xbddf71f0	-0.10910404
41	0xbdf19ffc	-0.11798093
42	0xbd79de64	-0.061003104
43	0x3da29d98	0.07940215
44	0xbdf6f85a	-0.12059088
45	0x3acfc580	0.0015851706
46	0xbd532a80	-0.051554203
47	0x3be43460	0.0069642514
48	0x3cd26f88	0.025687948
49	0x3d9e1030	0.07717931
50	0x3de5666c	0.11201176
51	0xbc12a500	-0.008950472
52	0x3d1f343c	0.038868174
53	0xbd863ff6	-0.06555168
54	0x3d38a4e0	0.045079112
55	0x3d775574	0.06038423
56	0x3d816508	0.06318098
57	0xbd41d98c	-0.04732661
58	0x3c952498	0.018205926
59	0x3c98a0f8	0.018631443
60	0x3d8bcacc	0.0682579
61	0xbdf90688	-0.12159449
62	0xbdfcab86	-0.12337403
63	0x3db1191c	0.08647367
