2022/20-华立民 指导老师-马里佳/code/output/2-agents_domain-PredatorPrey-2_adversaryratio-0.75_AC-QMIX_2022-11-30-23-15-39/protagonist_model.pth (torch, 52943 bytes, 7 tensors)

fc_net.fc_net.0.weight f4 [64, 125]
000000 d2 d8 31 3d ca a1 e9 bc 9a a4 76 bd 8c 97 b5 3c
       0.043419667 -0.02851953 -0.06021557 0.02216699
000010 a0 82 13 3c b4 d5 f3 3c 00 3a 05 3c 08 be 64 3c
       0.009003311 0.029764988 0.008131504 0.013961323
000020 f8 0a dd bc 58 1f 6a bc 81 54 85 3d 1a f6 7f 3d
       -0.02698277 -0.0142896995 0.065102585 0.06249056
000030 6b a6 27 bd 68 60 01 3d 7d ca a7 bd 6e 49 5e 3d
       -0.040930193 0.03158608 -0.081929184 0.054269247
000040 75 ed 93 bd 5c 52 a0 bc ca 5b 1e bd 10 a8 0a bc
       -0.07223026 -0.019570522 -0.038661756 -0.008462921
000050 86 27 44 3d fc 03 26 bd dc 8b 09 3d da c3 4f bd
       0.047889255 -0.040531144 0.033580646 -0.050723888
000060 c4 fa ea 3c dd c7 65 bb b2 36 76 3d 4d e3 96 3d
       0.028684027 -0.0035061755 0.060110755 0.07367573
000070 62 22 3b bd 92 40 4d bd b5 0d ac 3d 38 d0 83 bd
       -0.045687087 -0.050110407 0.08401052 -0.06436199
000080 a6 45 8d 3d 02 1b 66 bd fe 26 8d 3d d3 45 7f 3d
       0.0689805 -0.0561781 0.06892203 0.06232245
000090 21 a9 9b bd e2 20 48 3d fd 74 be 3b c3 c6 8e 3d
       -0.07600618 0.048859484 0.005812286 0.069715045
0000a0 46 45 ff 3c 82 33 c9 3d 89 26 50 bd 9e ba 25 bd
       0.031160962 0.098242775 -0.050818 -0.040461175
0000b0 99 7d 49 3d 3a ca 56 bd 60 5c 6e 3b d5 45 8a bd
       0.049192045 -0.052438952 0.0036370978 -0.06751601
0000c0 ab f1 15 bd 00 4f 35 3d 21 ed 4b 3d 0c 82 a1 3d
       -0.036607426 0.044264793 0.04978669 0.078861326
0000d0 ec bd 18 3d c6 48 a9 bc 2d 7a d5 3c e3 6d 56 bd
       0.0372905 -0.020664584 0.026059235 -0.05235089
0000e0 52 30 f7 3b 69 d6 0f 3e c9 e4 51 bd aa a1 af bd
       0.007543602 0.14046635 -0.051243577 -0.08575757
0000f0 29 d9 6f bd 9d ff a4 3d 5d c7 06 bd c3 2d 11 3d
       -0.05855671 0.08056567 -0.03290497 0.035444032
000100 e2 ea 51 bd 54 ea 93 3d fa 22 a6 bd a4 54 05 bd
       -0.051249392 0.07222429 -0.0811214 -0.032551423
000110 be 05 bd bd 03 1d 3e bd 6e 92 72 bc 0e 0a 8c bd
       -0.09229611 -0.046414386 -0.014805419 -0.06837855
000120 f6 f5 5d 3c 26 0a 18 3c 06 7a 35 3d fa 55 a6 bc
       0.013547411 0.009279763 0.044305824 -0.020304669
000130 e5 6b ac bd 58 a6 48 bd 07 b4 9f 3d 7b 99 9c bd
       -0.08419017 -0.048986763 0.07798009 -0.076464616
000140 cf 77 a0 bd 4b c4 81 3d 46 ca bf bd b0 16 19 bd
       -0.07835352 0.06336268 -0.093647525 -0.037375152
000150 20 94 11 3c 6d 81 5f bd 38 41 54 bd d9 23 a2 bd
       0.008885413 -0.05456679 -0.05182001 -0.07916994
000160 cb a4 a2 3d 82 03 05 3d b9 75 23 3d c9 82 3d bd
       0.07941588 0.03247405 0.03990719 -0.046267305
000170 7c af d0 3c 91 be f9 bc cd 69 b4 3b 6e de 91 3d
       0.025474302 -0.030486377 0.0055057765 0.07122503
000180 55 01 39 bd 22 72 12 3d 23 63 f9 3d 38 ce 40 bd
       -0.045167286 0.035753377 0.12177112 -0.047071666
000190 d4 ce c9 bc d9 0c af 3d 10 7f 60 3c 83 29 03 bd
       -0.024634756 0.08547372 0.013702169 -0.03202201
0001a0 31 75 ab 3d a1 aa a9 3d 70 ca 17 bc 1c 1e b4 bd
       0.08371962 0.08284498 -0.009264573 -0.087948054
0001b0 35 cb 92 3d 74 a9 8d bd e1 53 47 bd a5 c7 a5 bd
       0.07167665 -0.06917086 -0.048663978 -0.0809472
0001c0 dc 94 82 bd 98 cb 60 3c 60 65 cb 3c 48 f8 c1 bc
       -0.06376049 0.0137204155 0.024828613 -0.02367796
0001d0 06 71 4a 3d 39 78 27 bd 0d 63 3b bd 22 cd 8c bd
       0.049424194 -0.040886138 -0.04574876 -0.068750635
0001e0 35 2b 8f bd bc 1a dd bc 30 27 b7 3b d7 76 8e 3d
       -0.06990663 -0.026990287 0.0055893883 0.06956261
0001f0 d4 8e a9 bd c6 ab 4b 3d 60 eb 66 3c c2 75 6f 3d
       -0.082791954 0.049724363 0.014094204 0.058461912
000200 f2 19 44 3d dc 8f 02 3d 14 fc a0 bc ce 41 01 3d
       0.047876306 0.031875476 -0.01965145 0.031556897
000210 58 8e 55 bd f6 39 e5 bc 8c 0d dc 3c 3c d6 b2 bc
       -0.052137703 -0.02798174 0.026861928 -0.02183067
000220 c3 2a 19 bd 8d d5 fc bb 20 1a 6d 3b ba 92 6b 3d
       -0.037394296 -0.007715887 0.0036178902 0.057512976
000230 64 50 93 bc c6 45 89 bd b8 98 6b bc e3 cd 8f bd
       -0.01798267 -0.06702761 -0.014379673 -0.07021692
000240 dc 04 8c bc d4 29 a2 bd 1a 31 85 bd 40 8c d1 ba
       -0.01709216 -0.07918134 -0.06503506 -0.0015987232
000250 85 8c b6 bd 91 36 67 bd 26 24 9b 3d 34 2f 24 bd
       -0.08913521 -0.056448523 0.07575254 -0.04008408
000260 c7 01 ad 3d db bb a5 bd f3 6c 48 3d 01 5c 52 bd
       0.084476046 -0.08092471 0.048932027 -0.051357273
000270 11 11 47 bd 7c d7 8d bd d0 a1 89 bc 6a 7d 4c 3d
       -0.04860026 -0.06925866 -0.016800791 0.04992429
000280 74 5f bf 3d 38 1e 58 3d 8a 72 f2 3c 69 bb 69 3d
       0.09344378 0.052763194 0.029595632 0.057063494
000290 29 83 88 bc d3 bb ef 3c a1 09 29 bc 1a d4 10 bd
       -0.016664105 0.029264366 -0.010317237 -0.035358526
0002a0 35 88 65 3d 7e 47 03 bd e7 88 2f 3c 7b 05 31 3d
       0.0560381 -0.032050602 0.010713792 0.043218117
0002b0 e4 d1 00 bd 11 02 9d bc aa 69 7c 3d e1 a6 12 bd
       -0.031450167 -0.019166024 0.061624207 -0.03580368
0002c0 05 15 96 bd 3c bb 4b bc d4 51 35 bd ce ae c7 3c
       -0.07328228 -0.012434777 -0.04426749 0.024375346
0002d0 ff c7 aa 3d 8d da 59 bd e6 d1 82 3d e0 1e 98 bd
       0.083389275 -0.053186942 0.06387691 -0.07427764
0002e0 1d 78 8d bb f3 ca 9f bb d6 ac c0 bb 93 c4 89 3b
       -0.004317297 -0.0048764884 -0.0058799786 0.0042043417
0002f0 5b 78 2d be 4a 08 69 3d 8b 51 a6 3d d2 ae de bc
       -0.16940443 0.05689267 0.08121022 -0.02718297
000300 0c 7a ed bc 13 aa ec bc 02 c6 28 bc 94 1f 5e 3d
       -0.02898886 -0.028889691 -0.010301115 0.054229334
000310 a9 45 ae bd 95 91 30 bd 6c 2b 8d bd 12 e6 19 3d
       -0.0850938 -0.043107588 -0.06893048 0.037572928
000320 cc fe a9 bd a8 0b b1 bd cf af 1c bd bc 99 b0 3c
       -0.08300552 -0.086448014 -0.0382536 0.021557681
000330 f7 bc 1c 3d d0 52 59 bd 74 f2 b3 bd 63 fa 62 3c
       0.03826615 -0.05305749 -0.08786479 0.013853642
000340 33 d0 79 bc 90 09 b6 3b 3e a5 cf 3c 40 36 0b 3d
       -0.0152473925 0.005555339 0.025347348 0.033987284
000350 c0 a1 bd 3b 81 5d a8 3d a0 ed f5 3d e7 5e a7 bd
       0.0057871044 0.082209595 0.12008214 -0.08172398
000360 cf 4a 3a bd 48 33 9b 3d 12 f2 9a 3c e8 9b a7 3d
       -0.0454815 0.075781405 0.018914256 0.08184034
000370 8c 0a 8e 3c e8 39 c7 bd fe 07 0e 3d a7 1f 99 3b
       0.017339014 -0.097278416 0.03467559 0.0046729627
000380 9e 68 80 3d d8 d8 81 bc c5 dc 6b bd e5 4c 8e 3d
       0.06269954 -0.01585047 -0.05758359 0.0694826
000390 c0 99 1f 3b dd 8b 8f 3d 25 df a2 bd 66 0f 46 3d
       0.0024353117 0.07009099 -0.07952718 0.04835453
0003a0 04 7e c9 3c 00 80 86 3c 70 97 13 bc d0 3a 33 3c
       0.024596222 0.016418457 -0.0090082735 0.010939315
0003b0 50 b6 38 3c fe 30 3b 3d 3c 7e dd bc 4a 96 a8 bd
       0.011273935 0.04570102 -0.027037732 -0.0823179
0003c0 85 0e 89 bd 80 71 21 3a cf 7f 92 3d 08 43 13 3c
       -0.066922225 0.00061585754 0.07153284 0.008988149
0003d0 ce 17 4c 3d e9 f0 a2 3d 4a 2f 77 3d ca c2 2b 3d
       0.04982739 0.07956106 0.060347833 0.041933812
0003e0 90 0d 50 bc be cd 54 3d f2 24 f7 bc 92 92 40 bd
       -0.012698546 0.051954024 -0.030168984 -0.04701478
0003f0 00 26 6d bb 38 cc 90 3c ce f4 41 3d 10 2c 19 bc
       -0.003618598 0.017675504 0.047352605 -0.009348884

fc_net.fc_net.0.bias f4 [64]
000000 5b ef 81 bd 40 89 84 3d d4 e5 5d bd 17 91 af 3d
       -0.063444816 0.06471491 -0.05417426 0.085725956
000010 37 dc 2d 3d f1 c3 ef bc f4 08 d2 3c 20 57 70 bd
       0.04244634 -0.029268237 0.025639035 -0.05867684
000020 21 6b e9 3c 38 6e 85 3d 6a e0 db 3c 0f 24 1c bd
       0.028493466 0.06515163 0.026840407 -0.038120326
000030 76 d9 01 bd 4e db d7 3d fd cd 9f bd 8b 2d 4e 3c
       -0.031701528 0.10539876 -0.07802961 0.0125841005
000040 79 aa 83 bd 04 2b 57 bc 05 69 c0 bc d5 fd 90 3d
       -0.064289995 -0.013132814 -0.023487577 0.070796646
000050 3b ca c8 bc c7 0c 1d bd 9d 84 8f bd 35 9f ad 3d
       -0.024510494 -0.038342264 -0.07007716 0.08477632
000060 a2 f8 34 3c 9d 1a b0 3c 3e 90 ab 3c c2 0b 0a 3d
       0.011045607 0.021497065 0.020942803 0.03370262
000070 7b 4d e0 bb 3b 10 a8 3b 7c 41 01 bd 41 aa e3 3c
       -0.006845174 0.005128888 -0.03155659 0.027791144
000080 85 ce ab bc c2 1f 9a bd 7e 39 3b 3d 57 e4 bd 3d
       -0.0209725 -0.075255886 0.045709126 0.09272068
000090 fe 10 67 bd 49 f0 ab bd 89 7a e7 3c 97 e0 87 bd
       -0.05641269 -0.0839544 0.028256672 -0.06634634
0000a0 29 1e d3 ba b8 d1 96 3d 8a 94 90 3d c3 d3 b2 bd
       -0.0016107011 0.073642194 0.070595816 -0.087317966
0000b0 91 8b c0 3d 63 a8 1a bd 3c 20 10 3d cd 94 c4 3c
       0.0940162 -0.037758242 0.03518699 0.023996735
0000c0 53 68 21 3d 2a fc 45 3d 03 de a3 3d eb ed bc 3d
       0.039406132 0.048336186 0.0800133 0.09225067
0000d0 1a 4c 16 3d 5a cd 91 bd 1c 5a 63 3b 93 5c a9 3d
       0.03669367 -0.07119246 0.003469116 0.0826961
0000e0 1c 55 0d 3d c4 e5 c8 bd f9 78 8f bd e7 80 7f bd
       0.034504995 -0.09809449 -0.070054956 -0.06237879
0000f0 6f f6 bd 3d 0f 81 d2 bd ba ad 0b 3d 1b 92 86 3d
       0.09275519 -0.10278522 0.034101225 0.06570836

fc_net.fc_net.2.weight f4 [64, 64]
000000 36 d7 d3 bd 72 25 fc bb 9f 29 7b bd 8f c7 eb 3d
       -0.103437826 -0.0076948935 -0.06131899 0.11512672
000010 05 9a 00 3e 0d 95 61 3d 8f 5b bf 3c cc 81 dc 3d
       0.12558754 0.055073787 0.023359088 0.10766944
000020 43 7a 81 3d ee b2 70 bd b6 1f d4 bc 54 75 26 bd
       0.06322148 -0.05876439 -0.025894027 -0.040639237
000030 d5 6a e9 3d 79 03 a7 bd dc a0 ac 3d f1 67 db 3d
       0.1139733 -0.08154959 0.08429119 0.107131846
000040 f9 00 8b 3d e3 46 bf bd 91 0c 72 bd a4 1a 85 3d
       0.06787295 -0.093396924 -0.059094016 0.06499222
000050 20 93 c0 bd 57 89 9e 3d e5 a7 d5 3d 3a 3b 93 3c
       -0.09403062 0.07741039 0.10432414 0.017972577
000060 3d 57 dd bd fb cc 89 bd ce 53 58 bd 1d 3b dc 3c
       -0.10807655 -0.0672855 -0.052814297 0.026883656
000070 80 d2 8d bd 35 c4 8c 3d ca cd 15 3d 64 4c fc 3b
       -0.06924915 0.06873361 0.03657321 0.007699536
000080 dc 6c 64 3d 9c da 17 bc 54 f6 35 3d f1 08 b7 bd
       0.05576788 -0.009268429 0.04442437 -0.08937252
000090 38 da 9e bd 9a 01 ac 3c aa 1e 15 be 6e 8b 67 3d
       -0.07756466 0.020996857 -0.14562479 0.056529455
0000a0 1f 68 b5 3b 22 9b 94 3d 80 a3 a5 3c f2 89 76 bd
       0.005536094 0.07256152 0.020219564 -0.06019015
0000b0 ae 62 f8 bc e5 cf ad 3d 89 0c 4e 3c fb b6 5a bc
       -0.030320492 0.08486918 0.012576231 -0.01334929
0000c0 a4 a2 04 bd 36 ee ee bd 3d 7c cd 3d ee b1 23 bd
       -0.03238167 -0.11666529 0.10033462 -0.03996461
0000d0 68 cc 0a bd d8 06 ff 3d b2 93 b7 bd f4 5a 64 bd
       -0.033886343 0.12452477 -0.089637175 -0.055750802
0000e0 83 96 7b bd d4 fc 94 bc fb 7b 08 be 10 3d 64 bd
       -0.061422836 -0.018186964 -0.13328545 -0.055722296
0000f0 81 d0 27 bd ee 95 b8 3d f2 28 86 bd 57 eb f5 3d
       -0.04097033 0.09012972 -0.065507784 0.12007778
000100 e5 d3 a9 3d 0b 9c a9 3a be 00 2a bd 03 74 d8 3d
       0.08292369 0.0012940181 -0.041504614 0.105690025
000110 96 8c 46 3d 32 58 b5 3d 39 26 14 be 92 78 6e 3d
       0.048473917 0.088547125 -0.14467706 0.058220454
000120 bc 66 d8 3c 6d 3a fa bd 68 d2 98 bc d7 39 6b 3d
       0.026416175 -0.12218175 -0.018655017 0.057428207
000130 08 7c b5 bd 73 27 31 bd 06 c5 ef bd f6 4c 1d 3c
       -0.08861548 -0.043250512 -0.11707501 0.009600868
000140 04 c9 92 bd 47 34 a1 3c dc e9 3e 3d e0 e4 c8 bd
       -0.07167247 0.019678248 0.046609744 -0.098092794
000150 c1 25 de 3d da 20 92 3d 21 3e 05 3c cc cf 81 3d
       0.10847045 0.07135172 0.0081324885 0.06338462
000160 24 b8 ae bd f3 87 c5 bd f9 ae ee 3d 3b e2 9f bd
       -0.08531216 -0.09645071 0.11654467 -0.07806822
000170 83 f2 f6 bd 97 46 cd 3c a8 8f ba bb e0 d3 eb bd
       -0.12057974 0.025058074 -0.0056933947 -0.11515021
000180 66 eb 6e bd f3 a6 c3 bd 7b f3 c7 bd 35 e2 3a bd
       -0.058329962 -0.095533274 -0.09763237 -0.045625884
000190 54 f3 ae bc 41 db ad bd a1 a6 7a 3d a5 d5 60 bd
       -0.021356262 -0.08489085 0.061194066 -0.054891247
0001a0 74 80 81 3d b4 21 91 3d a4 71 9d 3d 27 a2 a0 3c
       0.063233286 0.070865065 0.07687691 0.01960857
0001b0 20 56 1c 3e f1 01 e7 3d 9f a2 f2 3d 48 49 c6 3d
       0.15267229 0.11279667 0.11847424 0.09681946
0001c0 a3 d1 7a bd e6 af 0a 3e ad f2 af 3d ea b3 dd bc
       -0.06123508 0.13543662 0.085912086 -0.027063329
0001d0 e9 7e e2 bd d3 de a9 bd 68 93 2f bd 66 ed 45 bc
       -0.110593624 -0.082944535 -0.042865187 -0.012080526
0001e0 85 0d 86 3d 02 c2 a7 3c 0b ba 12 3d 14 77 4b bc
       0.065455474 0.020478252 0.035821956 -0.012418527
0001f0 2c 45 9d bd 35 cc bc bc c4 f1 2c 3e 1e 67 cd bd
       -0.07679209 -0.023046592 0.16889101 -0.10029434
000200 71 01 06 bd df 53 df 3d cd 8f 94 bd 84 ca cf bd
       -0.03271622 0.10904669 -0.0725399 -0.10146049
000210 98 77 b3 bb 4f 85 08 3e bf 67 d4 3d 8a a5 f7 3d
       -0.005476903 0.13332103 0.103713505 0.12092121
000220 29 6a 46 3c 40 9e 29 3d b8 cd 97 3d 21 9d 26 3d
       0.0121102715 0.041410685 0.074122846 0.040677194
000230 18 9e a4 bd d9 a9 cd 3d 83 56 71 3d ef 1d 5e 3c
       -0.080379665 0.100421615 0.058920395 0.013556941
000240 53 80 9b 3d da 92 b5 bd 5e 46 89 bd a9 bd 35 bd
       0.07592835 -0.088659 -0.067028746 -0.044370327
000250 a3 38 91 3c 62 88 dd bd ec 68 c3 bd b8 e1 8f bd
       0.017727202 -0.108170286 -0.09541497 -0.07025474
000260 fe 04 d2 3c 1a ba f4 3d 86 35 cf 3d 07 5c 83 3d
       0.025637146 0.119495586 0.10117631 0.06414037
000270 ec 41 c6 3d 6c 94 d4 3d 4c 81 e7 bc 7d 51 05 bd
       0.09680542 0.10379872 -0.028259896 -0.032548416
000280 d5 4d d7 bd 87 25 0e 3e 97 ae d6 3b d2 1c 4c 3d
       -0.10512892 0.13881503 0.0065515744 0.049832173
000290 fd 8c 55 bd 20 4a 42 3d a0 2d ee 3c 11 6b 6f 3d
       -0.05213641 0.047433972 0.02907449 0.058451716
0002a0 f4 21 33 bd dc 8a 05 be 29 86 c1 3d 6a c2 a7 3d
       -0.043733552 -0.13041252 0.09449417 0.081913784
0002b0 77 eb 47 3d 37 c6 11 3d 49 92 22 3e 39 9b 94 bd
       0.04880854 0.035589423 0.15876116 -0.07256169
0002c0 1a 9f 78 3d 1b ea bd 3d 93 f7 18 3e e1 b0 91 bd
       0.060698606 0.09273168 0.14938192 -0.07113815
0002d0 66 fd e0 bc 0f 73 da bd 64 c1 ad 3d cb d1 62 3d
       -0.02746458 -0.10666477 0.08484152 0.055375855
0002e0 5e 25 94 3d 6f 15 a4 bd ad f7 c8 bb 7d f2 61 bd
       0.0723369 -0.08011901 -0.006133041 -0.055162895
0002f0 84 5e 30 bb 55 ba e4 3d bc ea 53 bb 36 8b 61 bc
       -0.0026911804 0.111683525 -0.0032335958 -0.013766101
000300 90 58 02 bd 1f 33 ef bd d8 59 80 3d 55 50 c5 3d
       -0.03182274 -0.116796724 0.06267136 0.09634463
000310 14 40 38 be 4b f9 12 3a af 75 83 bd 8f 3b 88 3c
       -0.17993194 0.00056066056 -0.06418931 0.016629962
000320 4d 07 ea bd 5e e2 00 be 0a 8b f9 bd 4d e7 57 bd
       -0.11427174 -0.12586352 -0.12184723 -0.05271082
000330 88 89 b7 bd 91 b6 14 3d 48 0e 86 bb 79 49 b1 3d
       -0.08961779 0.03630692 -0.004091058 0.08656592
000340 3d a6 1a 3e 60 57 fb bd 62 f1 31 bd d2 11 b6 3d
       0.15102477 -0.12272525 -0.04344309 0.08890118
000350 3f 06 a1 3d c4 66 78 3c 1f a8 cc bd d9 65 6c bd
       0.078625195 0.01516122 -0.09993004 -0.057714317
000360 01 04 a7 3d 62 ed 63 3b a6 91 f2 3d 4b e4 37 bd
       0.081550606 0.0034778942 0.118441865 -0.04489545
000370 cd f8 88 bc 7a d1 8f bd 19 59 27 3c ed 59 08 3e
       -0.0167202 -0.07022376 0.010214114 0.13315554
000380 48 1c c1 3d 0f 1b 99 3d a2 55 9d 3b f7 9f 0f 3e
       0.09429222 0.07475864 0.004801468 0.14025865
000390 d9 a0 11 be 16 4b 38 3d db dd 54 bd 0e 2d 58 3d
       -0.14221515 0.044993483 -0.05196939 0.052777342
0003a0 f3 9c 05 3e 93 5e dc 3d b5 85 9e 3d 63 d3 bc 3b
       0.13048153 0.10760226 0.07740346 0.005762504
0003b0 f8 99 3c bb 04 2f c1 bd 20 97 45 bd 17 aa 5d 3d
       -0.0028778296 -0.09432796 -0.048239827 0.05411729
0003c0 cb ef b9 3d df f9 db 3c 7c 0e 60 3d 68 1c 0d be
       0.0907894 0.026852546 0.054701313 -0.13780367
0003d0 4a 8a b9 bd 01 35 70 3d 9f 7c b6 3d 18 2e 20 bd
       -0.0905958 0.0586443 0.08910488 -0.03910646
0003e0 ad 90 be bd 34 87 11 3e 3f 27 6d bd e1 ca f1 bd
       -0.093049385 0.14211732 -0.057898756 -0.11806274
0003f0 4b cd e7 3d a3 92 09 3d 7d 25 4c 3d 28 0d d5 bd
       0.113184534 0.03358711 0.04984044 -0.104029

fc_net.fc_net.2.bias f4 [64]
000000 9f 3a 79 3d 97 1c 92 3d 6d bf 82 bb ee ba 54 3d
       0.06084692 0.07134359 -0.003990105 0.051936083
000010 a6 88 77 bd 9e 4d 88 bd f3 75 07 3d e6 75 d2 3d
       -0.060433052 -0.06655429 0.03307147 0.102763936
000020 2c 69 82 bd 39 8a a2 3c e3 83 28 3b a6 8b 08 3d
       -0.06367716 0.0198413 0.0025713376 0.033336304
000030 47 99 2d bd de 31 aa 3d 17 e2 db bd 1b 21 94 bd
       -0.042382505 0.08310293 -0.107364826 -0.07232877
000040 02 a3 00 3d c1 f3 0a bd 82 7b e1 bd 7e b7 d5 3a
       0.031405456 -0.033923868 -0.11009885 0.0016305295
000050 23 b0 c1 bd 52 08 5f bd cb 62 b9 3c e6 dd 89 bc
       -0.094574235 -0.054451294 0.022630116 -0.016829442
000060 76 3c 12 3d 3a ea b5 bd 2b 35 d7 bd 27 8c 1a bd
       0.03570219 -0.08882566 -0.10508188 -0.037731316
000070 7a 17 dc 3c c5 48 e9 bd 00 0c b7 3d 46 86 57 bd
       0.026866663 -0.11390833 0.08937836 -0.052618288
000080 20 d0 30 3b c6 02 f4 bc 16 cd e2 bd 31 6f c6 3c
       0.002697952 -0.029786479 -0.11074273 0.024222942
000090 d1 11 14 bd 36 9c 7d 3c 95 7f 05 be 5d f4 8a bb
       -0.036149804 0.015479138 -0.1303695 -0.004240556
0000a0 5b b0 e1 bd b0 f5 d4 3d 9b 59 a0 bd 1d 43 f3 3c
       -0.11019965 0.10398424 -0.07829591 0.029695088
0000b0 ce e9 9c 3d 96 d8 35 3d 7e d3 c2 3d 29 4c a0 3b
       0.07661782 0.044396006 0.09512995 0.0048918915
0000c0 2c 94 7e bb 8a 41 dd bd 7b 89 d0 3c c1 8c 1c 3d
       -0.0038845642 -0.10803516 0.02545618 0.03822017
0000d0 10 ae 35 3d ac 74 bd bd 19 32 49 3c 86 a9 96 3d
       0.044355452 -0.09250769 0.012280011 0.07356553
0000e0 e6 b0 a0 3d 3b 99 4f 3d 11 1c e2 bd 68 b6 8d bd
       0.07846241 0.05068324 -0.110405095 -0.06919557
0000f0 aa 0f 92 bd ce 55 81 3d f6 fc d2 bd 6f 1b 78 bd
       -0.07131894 0.06315194 -0.10302155 -0.060573038

action_head.weight f4 [5, 64]
000000 1b 0f ec 3d b1 08 23 bd 93 70 92 3d 09 8f da 3c
       0.11526319 -0.03980321 0.07150378 0.026679533
000010 6e ca 67 bd b2 f4 66 3d 12 61 db 3d 98 ad dd bd
       -0.056589536 0.056385703 0.10711874 -0.10824126
000020 4b 2b f5 bc 18 ad f5 3d 0a 28 db bc 85 68 91 3c
       -0.02992787 0.11995906 -0.02675249 0.017750034
000030 24 b7 b5 3c 86 ad a5 3b dc 31 42 bb 71 91 92 3c
       0.022182055 0.005056086 -0.002963177 0.017891617
000040 f0 ab e7 bd de e3 0a 3d c7 de bd 3d 17 84 f4 3d
       -0.11312091 0.033908717 0.09271007 0.11939257
000050 e6 ed 10 3e 42 f9 ed bd 41 e4 75 3d 55 8c 5c bc
       0.14153251 -0.11619808 0.060032133 -0.013461192
000060 c6 b6 95 3d 10 73 0e bd 70 d1 8d 3d 28 1b f9 3d
       0.07310252 -0.0347777 0.06924713 0.12163383
000070 77 cf 6c 3d 0f 3e 12 3e f4 36 f3 bc 6b b0 91 3d
       0.05781504 0.14281486 -0.02968929 0.07113727
000080 17 32 fc bd ee 56 00 bd 45 dc 35 3d 4e 36 42 bc
       -0.123142414 -0.031332903 0.04439952 -0.011853768
000090 bf f6 b8 3c c0 2a c0 39 87 fe 7a 3d d9 23 f1 3c
       0.022578595 0.00036652945 0.061277892 0.029436039
0000a0 bc 18 f6 3c dd 71 80 3d 07 27 41 3d 85 00 f7 3b
       0.030041091 0.06271718 0.04715636 0.0075379037
0000b0 6d 4b cf bd da a4 bd 3a 4e 8f 9f bc ac cb d9 bd
       -0.10121808 0.0014468685 -0.019477513 -0.106345505
0000c0 73 84 09 be b4 47 a3 bd ce f0 c6 3d 7c bb bf ba
       -0.13429432 -0.07972661 0.097138986 -0.0014628018
0000d0 47 9b e6 3d c1 24 de 3d f8 42 aa 3d cf cb 6d bc
       0.112600856 0.10846854 0.083135545 -0.014513924
0000e0 5d 96 0e be d7 ca 9f 3d 60 75 93 bd 2c 00 76 bd
       -0.13924547 0.078023605 -0.07200122 -0.060058758
0000f0 aa b5 cf bd 4a 48 05 3c 65 c3 ae 3d ac 0b 4f 3d
       -0.101420715 0.008134911 0.08533362 0.05054824
000100 d7 1f d9 3b 07 f4 f4 3d 9c d8 05 be 45 0b 29 3e
       0.00662611 0.11960607 -0.13070911 0.16508205
000110 3c 4c f4 bd f1 e3 5a bc 2f 22 60 3c 5c 7a 84 3d
       -0.11928603 -0.0133600095 0.013680025 0.06468651
000120 8f c0 1f be b1 50 c7 bc 9e 16 0e 3e 51 23 0c be
       -0.15600799 -0.024330469 0.13875815 -0.13685347
000130 a6 2a 4a 3d 66 54 32 3d 18 ea e9 bd f6 ae 39 3c
       0.04935708 0.04353752 -0.11421603 0.011333218
000140 a5 aa f2 3d 60 d9 d5 bd 1b 11 60 3c 81 ce ea bd
       0.11848954 -0.104418516 0.013675953 -0.11465169
000150 48 ea 0c be d3 6d b2 3c f5 8a 3d 3e cc 1b 05 3e
       -0.13761246 0.021780884 0.18510039 0.12998885
000160 18 81 08 be b1 47 d1 bd d4 31 8d 3d 80 cf 02 be
       -0.13330495 -0.10218752 0.068942696 -0.12774467
000170 65 fb 9b bd a5 f8 30 3e 87 25 85 3b 0c 34 07 3e
       -0.07616309 0.1728235 0.0040633115 0.13203448
000180 d8 1b c0 3d b1 ef 2e 3d ed 47 9f 3d af 36 b6 3d
       0.09380311 0.042709056 0.07777391 0.08897149
000190 b1 40 c8 bd f8 79 38 3e b2 72 0d be a2 3c c8 3d
       -0.09777964 0.18015277 -0.13813284 0.0977719
0001a0 86 19 77 3b f3 bc 2f 3e d4 1d b1 3c 4b 95 34 3d
       0.0037704422 0.17161922 0.021620668 0.04408769
0001b0 23 99 22 3d 6e 1e a7 bd a3 83 85 bd 44 7a 08 3e
       0.039696824 -0.08160101 -0.06519248 0.1332789
0001c0 24 e0 36 be 26 0e 9d bb 0c c6 28 3e a8 70 76 bd
       -0.1785894 -0.0047929464 0.16481799 -0.06016603
0001d0 6a ea a7 bc 08 14 fd bd e2 73 85 3d 5e 21 0e 3c
       -0.02049752 -0.12357336 0.065162435 0.008674948
0001e0 16 9e dd 3d 04 1f 5a bd da b5 2b be f0 c2 56 bd
       0.10821168 -0.053252235 -0.1676859 -0.052432
0001f0 68 5d d8 bd 85 08 55 3c f5 9a a8 bd 9c e7 23 3d
       -0.10564691 0.0130025195 -0.08232681 0.0400158
000200 8a 09 be 3c ba 17 f7 bd 42 6b bb bc f0 d1 14 be
       0.023197908 -0.12065072 -0.022878293 -0.1453321
000210 e5 bc c5 3c 48 84 fc bd 4f 39 e8 bd 0a b1 36 bd
       0.024137923 -0.12329918 -0.11339056 -0.04460243
000220 8a bf 6b 3c 1f c5 99 3d cf c2 8f 3d cc 5c 03 3e
       0.014388928 0.07508301 0.07019579 0.12828368
000230 5f 70 e7 bd af 77 ed bd 27 ee e0 3d e5 95 07 3e
       -0.1130073 -0.115950935 0.10982924 0.13240774
000240 37 40 bd 3d 86 bb 2d 3e 25 7f 7c 3d 10 33 0e bc
       0.09240764 0.16966066 0.061644692 -0.008679166
000250 93 e8 ba bd 2f 17 dd 3d df 14 0d be ff b6 33 bd
       -0.09126391 0.107954375 -0.13777493 -0.04387569
000260 6e 0f 1f 3e d9 44 ea bd 6d aa 87 bd 7f 67 e1 bd
       0.1553323 -0.11438913 -0.06624303 -0.110060684
000270 1e 41 aa bc 65 fb 65 bd 29 5c 3e 3d e8 a4 04 3d
       -0.020783003 -0.05614795 0.04647461 0.03238383
000280 e5 ea fe bd 26 24 0a 3e 85 4a 0c 3e e4 80 77 3b
       -0.12447146 0.13490352 0.13700302 0.0037766034
000290 6c 75 64 3c b5 73 c0 bd 78 2f c2 bd 2b 35 8f bd
       0.013944011 -0.09397069 -0.0948171 -0.06992563
0002a0 ea dc 93 bd 9e 02 f5 bd 66 e6 f5 3d 00 9e 86 bd
       -0.072198704 -0.1196339 0.12006836 -0.06573105
0002b0 93 1e f2 3d e5 e4 02 3e b7 7b 5f 3d 03 90 ae 3d
       0.11822238 0.12782629 0.054561343 0.08523562
0002c0 7c 96 07 3e 7a 15 86 bd 7d 0a f3 bd ac ec 70 3c
       0.13240999 -0.06547065 -0.11867235 0.0147048645
0002d0 64 45 15 3e a6 ed f6 3d ae 69 e2 bc 7b 2f 9b bd
       0.14577252 0.120570466 -0.027638283 -0.075774156
0002e0 16 10 ca 3d 45 57 0e 3e c5 dd d2 3d b0 5c c3 bd
       0.098663494 0.13900478 0.102962054 -0.09539163
0002f0 e5 4f 06 3e 96 68 79 bc 48 32 6e 3d 98 89 15 bb
       0.13116415 -0.015222689 0.05815342 -0.0022817608
000300 02 e9 b8 bd a7 03 25 3e ab 79 00 3e f9 ba 84 3b
       -0.09028818 0.16114675 0.12546413 0.004050609
000310 19 28 3d 3c 79 30 93 3d f3 3c 1b be b2 27 e4 3d
       0.011545205 0.0718698 -0.15159969 0.11140384
000320 ca d0 b8 3d ee d4 ae 3d c8 3a 79 bd 47 48 fa 3d
       0.09024198 0.08536707 -0.060847074 0.12220817
000330 e9 f4 d6 bd b7 06 c3 bd f3 44 d0 bd e9 dd ca 3d
       -0.10495932 -0.09522765 -0.10169401 0.09905607
000340 f3 d8 25 be 50 78 06 be a7 7c 08 3a d5 f3 35 3d
       -0.16196041 -0.13131833 0.0005206563 0.04442199
000350 d9 83 da bd 11 2b 02 3e 92 b8 ee 3a 3d 0f 56 3d
       -0.10669679 0.12711741 0.0018212965 0.052260626
000360 c4 50 a8 bd 8f b6 ac bd 23 27 4a 3d 57 6e 17 3d
       -0.0821853 -0.08433258 0.04935373 0.036970463
000370 0f e5 55 3c a5 be af 3d d9 42 dd 3d c1 b0 39 3d
       0.0130551 0.085812844 0.10803766 0.04533458
000380 77 76 bf bd 0d 2e 21 3c b0 89 16 bd cf 42 44 bd
       -0.09348767 0.0098376395 -0.036752403 -0.047915276
000390 1c bd d6 bd a8 1d 9c 3d 98 e2 9e bc 52 3d 41 3d
       -0.104852885 0.07622844 -0.019395158 0.04717762
0003a0 69 d1 d6 3d f5 cd d1 bd 6a 06 75 3d 6b ae de bd
       0.104891606 -0.10244361 0.05982057 -0.10873111
0003b0 bb a5 59 bd 94 f2 05 bd d0 49 e1 3d 74 9b db bd
       -0.05313657 -0.032702044 0.11000407 -0.1072301
0003c0 86 c5 ee bd d1 d9 0e be e4 e2 85 3d 79 17 7c bc
       -0.11658768 -0.13950278 0.065374166 -0.015386456
0003d0 f6 cc d2 3d ac df b4 3d 9a 4d 05 be a6 94 71 bd
       0.102929994 0.088317245 -0.13017884 -0.058979653
0003e0 d3 e2 ac bd c4 02 1f be 63 3a 15 3e c9 64 0b 3e
       -0.08441701 -0.15528399 0.14573054 0.13612665
0003f0 ad 47 bc 3d 2d 40 0e 3e 0e 38 9a bd c3 c8 af bc
       0.091933586 0.13891669 -0.07530223 -0.021458035

action_head.bias f4 [5]
000000 bf 43 c1 3c 0d 95 a2 bb 39 59 a7 3b 7f e4 f4 3a
       0.023591874 -0.004961616 0.0051070717 0.001868382
000010 bd 5e 86 bb
       -0.004100649

value_head.weight f4 [1, 64]
000000 22 cc 8a bb f0 a0 dc bd 4b eb e5 3d fe 9b 91 3d
       -0.0042357603 -0.10772884 0.11226519 0.07109831
000010 4a 43 93 bc 60 0e f5 bd 5e 2c 28 3d 07 22 be bd
       -0.017976422 -0.119656324 0.041057937 -0.09283834
000020 19 a6 1b bd 76 8e 65 bd d0 a6 44 bd 9e 6b c3 3d
       -0.0380002 -0.056044064 -0.048010647 0.09542011
000030 93 f8 93 bd 20 4e 61 bd a6 b5 b4 3d 06 2b 83 bd
       -0.07225146 -0.055006146 0.08823709 -0.064046904
000040 18 07 ac bd a6 5c aa bc 8f 8d db bd 1b 04 32 bd
       -0.083997905 -0.020796131 -0.107203595 -0.043460947
000050 93 3e e6 3d fe 27 d0 3d c4 8b d9 3d b6 17 8c bb
       0.11242404 0.10163878 0.10622361 -0.0042752875
000060 30 79 69 bd 46 b1 87 3d b0 ac cc 3d c3 58 b5 3d
       -0.05700034 0.06625609 0.09993875 0.088548206
000070 b1 e2 59 bd 3c 47 09 3d 6f a0 36 bd 1d 1d c9 bc
       -0.053194705 0.0335152 -0.044586595 -0.024550015
000080 c7 05 48 bd 6e 27 0a 3c 7c bb 23 3d 21 3c 96 bd
       -0.048833635 0.008432252 0.03997372 -0.073356874
000090 ae 51 7e 3d 19 61 75 3d c4 58 a1 bc 20 8c ee 3d
       0.062089615 0.059907053 -0.019695647 0.116478205
0000a0 b5 92 94 bc e2 ec a4 3d 2b c6 fc 3c 09 73 9c 3d
       -0.018136362 0.08052994 0.030856213 0.07639129
0000b0 65 c0 55 3d b5 ae 66 bd 59 54 72 3d 69 cb e4 3c
       0.052185435 -0.056318957 0.05916247 0.027929025
0000c0 a4 bd e1 3d cb 26 86 bd 3e 12 7d 3c 94 90 7f bd
       0.11022499 -0.06550368 0.015446244 -0.06239374
0000d0 8a d0 a3 bd 09 ef 79 bd e0 c6 67 bc 4c b6 a0 3d
       -0.0799876 -0.061018977 -0.014146537 0.0784727
0000e0 1d ed 9a 3d ff 88 7b 3d 78 4d ce 3d a7 ad 6e bd
       0.07564757 0.061409947 0.1007337 -0.058271077
0000f0 44 59 62 bc f4 f8 e8 3d 82 d0 65 bd 57 1e 4f 3c
       -0.013815228 0.11375609 -0.05610705 0.012641511
