2022/20-华立民 指导老师-马里佳/code/output/2-agents_domain-PredatorPrey-2_adversaryratio-0.25_RADAR_X_2022-11-10-17-57-38/adversary_model.pth (torch, 52943 bytes, 7 tensors)

fc_net.fc_net.0.weight f4 [64, 125]
0	0x3cfbfd04	0.030760296
1	0x3d2fff0e	0.04296785
2	0x3db6a13f	0.08917474
3	0xbda4c1f5	-0.08044807
4	0xbd85e916	-0.06538598
5	0xbc564f30	-0.013080403
6	0xbcb40bd8	-0.021978304
7	0x3d90f017	0.070770435
8	0xbd2ce5e2	-0.04221142
9	0xbcd8c0b8	-0.026459083
10	0xbd8a420d	-0.067508794
11	0x3d8c30c5	0.068452395
12	0x3da9d8fb	0.08293339
13	0xbd4c5880	-0.049889088
14	0xbd823eb3	-0.06359615
15	0x3d00e146	0.031464837
16	0xbdb384e7	-0.087655835
17	0xbc0c3ed0	-0.008559898
18	0x3d6e652a	0.058201946
19	0x3c030060	0.007995695
20	0x3d85eee7	0.06539708
21	0x3d7b549a	0.06135998
22	0x3bd45b20	0.0064805895
23	0xbcbf8ad8	-0.023381636
24	0x3d9b2211	0.07574857
25	0x3d0d4fa0	0.034499764
26	0x3d0bc28c	0.03412108
27	0x3be51d78	0.0069920383
28	0x3bb51f34	0.0055274013
29	0x3d77b63a	0.06047652
30	0xbcb11285	-0.021615276
31	0x3d946f35	0.072477736
32	0xbcd4e60a	-0.025988597
33	0xbd513889	-0.051079307
34	0xbd259036	-0.040420733
35	0xbd8fc159	-0.070193
36	0xbd066560	-0.032811522
37	0xbd43ecba	-0.047833182
38	0x3d88e1f3	0.066837214
39	0xbd28ca96	-0.041208826
40	0xbdb0e9bc	-0.08638331
41	0x3d7867fa	0.060646035
42	0x3d551453	0.052021336
43	0x3d98d56c	0.07462582
44	0xbda4aae6	-0.08040409
45	0xbd9fcd75	-0.0780286
46	0x3cd6d63e	0.026225206
47	0xbd2f934e	-0.04286509
48	0xbd592e05	-0.053022403
49	0xbd96d732	-0.07365264
50	0xbc4a7be0	-0.012358636
51	0xbcae1d25	-0.021254132
52	0xbd5dc7bd	-0.054145563
53	0xbc9da030	-0.019241422
54	0xbd1e1233	-0.038591575
55	0x3d9ffabd	0.078114964
56	0x3cac2d66	0.021017741
57	0x3d2400ee	0.04003995
58	0xbd8b715c	-0.06808731
59	0xbd772c63	-0.060345065
60	0x3b8752c1	0.004129738
61	0xbd79ffde	-0.06103503
62	0xbd5ec6cc	-0.054388806
63	0x3c9d05c8	0.019167796
64	0x3dab2f06	0.083585784
65	0x3d176e61	0.0369705
66	0xbd08fe13	-0.03344543
67	0xbc7ec24a	-0.015549252
68	0xbdb59ba6	-0.08867578
69	0xbc38fb61	-0.011290402
70	0x3d92aeb9	0.07162232
71	0x3cddffbb	0.02709948
72	0x3db40ea5	0.08791856
73	0xbca118a3	-0.019665068
74	0x3b2ccbb6	0.0026366538
75	0xbd425cf3	-0.047451925
76	0xbd87e70d	-0.06635866
77	0x3d9a2b4c	0.075277895
78	0x3d883529	0.066507645
79	0xbd8590c1	-0.0652175
80	0x3dafc3ea	0.085822895
81	0xbc3c8579	-0.011506432
82	0x3dad18d7	0.084520034
83	0x3d643162	0.055711158
84	0xbd5ee193	-0.054414343
85	0x3d3a7755	0.04552396
86	0xbd8b2cb2	-0.06795634
87	0x3d8e27b1	0.06941164
88	0xbd4528bc	-0.04813455
89	0x3d5b1d60	0.05349481
90	0x3d9376b7	0.072003774
91	0x3b82a55a	0.0039869966
92	0x3cba16df	0.022715984
93	0xbc1e808d	-0.009674204
94	0xbd9117de	-0.070846304
95	0xbd490b8e	-0.049083285
96	0xbd9996e9	-0.07499487
97	0xbdb59b74	-0.08867541
98	0x3d8a0dab	0.06740888
99	0xbda6f715	-0.08152596
100	0xbd3265cd	-0.043554116
101	0x3da882b5	0.082280554
102	0xbd896ec1	-0.06710578
103	0xbc4a67a8	-0.012353815
104	0xbd8f4fbd	-0.06997631
105	0xbc1b8d90	-0.0094942
106	0x3be58f40	0.007005602
107	0xbc9b0260	-0.01892203
108	0x3db484c9	0.08814389
109	0xbd0e44f7	-0.03473374
110	0x3aa28240	0.0012398437
111	0x3d7b25ce	0.06131535
112	0xbc4234e0	-0.011853427
113	0x3d60acee	0.05485242
114	0xbd81ae54	-0.063320786
115	0x3b6e13c0	0.003632769
116	0x3d6014ee	0.05470746
117	0x3d2ef7f2	0.042716928
118	0xbb760ae0	-0.0037543103
119	0x3d383ba6	0.04497876
120	0xbd980571	-0.07422913
121	0xb8f8f000	-0.00011870265
122	0xbcef4caa	-0.029211361
123	0x3bda86c0	0.0066688955
124	0xbd356ff7	-0.04429623
125	0xbd1edf54	-0.0387872
126	0xbb6d7720	-0.0036234334
127	0xbcfad418	-0.030618712
128	0xbd644139	-0.055726264
129	0xbd275114	-0.040848807
130	0xbd92012d	-0.071291305
131	0xbc82ee58	-0.015982792
132	0xbd53b759	-0.051688526
133	0x3db2bce7	0.087274365
134	0xbd03ff2e	-0.03222578
135	0xbc342ac0	-0.0109965205
136	0x3d019db2	0.03164453
137	0xbd57f989	-0.05272821
138	0x3d780e2e	0.060560398
139	0xbd7c300c	-0.06156926
140	0xbc092fa0	-0.008373171
141	0xbd47d91a	-0.04879103
142	0x3dae451b	0.085092746
143	0x3d639a92	0.05556733
144	0x3d331f7a	0.04373119
145	0x3d8765cf	0.06611215
146	0x3ca2362c	0.019801222
147	0x3d446b02	0.047953613
148	0x3d50beb6	0.050963126
149	0xbc9350f8	-0.017982945
150	0x3d5eaa51	0.054361645
151	0xbd840f01	-0.06448174
152	0xbd8a72db	-0.06760188
153	0xbda53879	-0.08067412
154	0x3c1667ea	0.0091800485
155	0x3d26d786	0.040732883
156	0xbc592c92	-0.013255255
157	0x3a294e39	0.00064584945
158	0xbdb2079e	-0.08692859
159	0xbda5004a	-0.08056696
160	0xbd89394b	-0.06700381
161	0x3d97a62c	0.07404742
162	0x3db21fb6	0.08697455
163	0x3bde8266	0.006790447
164	0xbd4a7d93	-0.049436163
165	0x3d32ed9a	0.043683626
166	0x3d53f278	0.051744908
167	0xbccf49f2	-0.025303815
168	0x3d576285	0.05258419
169	0x3d698ab9	0.05701706
170	0xbd168eab	-0.036757153
171	0xbd770062	-0.0603031
172	0xbdaee99f	-0.085406534
173	0x3d52f8fe	0.05150699
174	0x3da2acfe	0.07943152
175	0x3cf8b639	0.030360328
176	0x3c864606	0.016390812
177	0x3c88a338	0.016679391
178	0x3c1ba804	0.009500507
179	0xbda8ac82	-0.08236028
180	0xbd4cf70d	-0.050040293
181	0x3cc17731	0.023616405
182	0xb892b940	-6.996328e-05
183	0x3d1ae3e8	0.037815005
184	0xbd227e32	-0.03967113
185	0xbd18068a	-0.03711561
186	0xbda706cd	-0.08155594
187	0xbdb71d49	-0.089411326
188	0xbda5c133	-0.080934905
189	0xbdaa8e34	-0.08327904
190	0xbc15ac94	-0.009135384
191	0xbd984c73	-0.074364565
192	0xbda680f6	-0.08130066
193	0xbcfd47c2	-0.030918006
194	0xbd0f11df	-0.034929153
195	0xbccf6ef5	-0.025321463
196	0x3c822146	0.015885007
197	0x3ba9d9dc	0.0051834416
198	0x3d9a3555	0.075297035
199	0xbd24d22a	-0.04023949
200	0x3cf688af	0.030094473
201	0x3cd36881	0.025806667
202	0xba7de26a	-0.00096849224
203	0xbd93095d	-0.0717952
204	0x3c92c451	0.017915877
205	0xbd8d5401	-0.06900788
206	0x3c96fa38	0.01842986
207	0x3d8225c4	0.063548595
208	0x3d42aaae	0.047526054
209	0x3c89a684	0.016803034
210	0xbb18b93c	-0.0023303768
211	0xbdaa5d96	-0.08318631
212	0x3d926149	0.07147462
213	0xbd8df4bf	-0.06931447
214	0x3d6c75fd	0.05772971
215	0xbc842b27	-0.016133858
216	0x3d9e71fa	0.07736583
217	0xbcb734c1	-0.022364022
218	0xbbff2163	-0.0077859624
219	0xbd99f893	-0.07518115
220	0xbd168795	-0.036750395
221	0xbd7e83be	-0.062137358
222	0x3d145937	0.036217894
223	0x3d5167be	0.051124327
224	0xbc8e738c	-0.017389081
225	0x3c59f818	0.013303779
226	0x3cdd2a30	0.026997656
227	0x3c51abc0	0.012797296
228	0xbd490842	-0.04908014
229	0x3cc646fc	0.02420377
230	0xbda10839	-0.078628965
231	0xbd927ee6	-0.0715311
232	0x3db1291d	0.0865042
233	0xbcac5954	-0.021038689
234	0xbd90cd28	-0.070703804
235	0xbbba9e60	-0.0056951493
236	0xbd9d021d	-0.07666419
237	0x3d2bfd86	0.041989826
238	0xbd5f1a19	-0.054468248
239	0x3b208ce0	0.002449803
240	0x3d64ef6e	0.0558924
241	0x3cc14778	0.02359365
242	0xbcb50c80	-0.022100687
243	0xbbb84b50	-0.0056242123
244	0x3d65183a	0.055931307
245	0x3d6b2f7e	0.05741834
246	0x3d11e046	0.035614274
247	0xbc8966cc	-0.01677265
248	0xbcbf54a4	-0.02335579
249	0xbdac9aae	-0.0842794
250	0x3d9f3b7f	0.0777502
251	0x3c6ccba0	0.014452845
252	0xbc4978f8	-0.012296908
253	0x3c016030	0.007896468
254	0x3d1f5eb6	0.038908683
255	0x3d8a6ca1	0.067590006

fc_net.fc_net.0.bias f4 [64]
0	0x3d2676a4	0.04064049
1	0x3da3281e	0.07966636
2	0xbbdbed2e	-0.0067116236
3	0x3db1ae18	0.08675784
4	0xbc84a68e	-0.0161927
5	0x3d94d4fd	0.07267187
6	0x3c7f1b5e	0.01557049
7	0xbd36684c	-0.04453306
8	0xbd665331	-0.05623168
9	0xbd9f0a60	-0.07765651
10	0xbd18331e	-0.037158124
11	0xbd3c941f	-0.046039697
12	0x3d9a3904	0.07530406
13	0x3d8801d9	0.066409774
14	0xbdb2a26e	-0.08722387
15	0xbc3ff64c	-0.011716437
16	0xbd93e76a	-0.07221873
17	0x3d9fe536	0.078073904
18	0x3da5b010	0.08090222
19	0xbce3ff63	-0.027831739
20	0x3d8df59e	0.069316134
21	0xbd58e99a	-0.052957155
22	0xbcbf4d9e	-0.02335244
23	0x3da8b6d1	0.082379945
24	0x3d464f24	0.048415318
25	0xbc4be050	-0.012443617
26	0x3c1a6438	0.009423308
27	0xbd7b0e1e	-0.06129276
28	0x3d3db19a	0.046311952
29	0xbda61478	-0.08109373
30	0x3d1026fb	0.035193425
31	0x3c923584	0.017847784
32	0x3d4b2acf	0.049601372
33	0xbdb12b29	-0.0865081
34	0xbd4683f7	-0.048465695
35	0x3c8c8e30	0.017157644
36	0x3d9888d6	0.074479744
37	0x3c0bc4e9	0.008530834
38	0x3d6613e7	0.056171324
39	0xbdb4f349	-0.088354655
40	0xbd09871f	-0.033576127
41	0xbda2a930	-0.07942426
42	0x3c8eec7f	0.017446755
43	0x3d1723e9	0.03689948
44	0xbc4766a2	-0.012170466
45	0x3cc08d0f	0.023504762
46	0xbd344719	-0.044013117
47	0xbdaf142b	-0.085487686
48	0xbdaf1089	-0.08548076
49	0x3d40ef2f	0.047103103
50	0xbda6465a	-0.08118887
51	0xbd95f44b	-0.07321986
52	0x3dafb0ef	0.08578669
53	0x3cc8d33d	0.024514789
54	0x3d885c5b	0.066582404
55	0x3d063b81	0.03277159
56	0x3cea5f6f	0.02860996
57	0x3c8fdbdc	0.017560892
58	0xbcfd6509	-0.030931966
59	0xbd1cace7	-0.03825083
60	0xbd4f36cc	-0.050589368
61	0x3d69fced	0.057125974
62	0xbcbe863d	-0.02325737
63	0xbd0479cc	-0.032342717

fc_net.fc_net.2.weight f4 [64, 64]
0	0x3c681a21	0.014166386
1	0xbde6ddb9	-0.11272759
2	0x3d98c6ff	0.074598305
3	0x3da108d9	0.07863016
4	0xbd360412	-0.044437476
5	0xbd681414	-0.056659773
6	0xbce71545	-0.028208384
7	0xbcfac3d4	-0.030610956
8	0xbce30f6e	-0.027717318
9	0xbded4652	-0.11585678
10	0xbdec6e40	-0.11544466
11	0x3dadd469	0.0848778
12	0xbd8e4956	-0.069475815
13	0xbbc08179	-0.0058748093
14	0xbdf51d88	-0.11968523
15	0x3c6329a6	0.01386491
16	0x3ca83b4b	0.020536086
17	0xbd239b3b	-0.03994296
18	0x3d66c406	0.056339286
19	0x3dc533b7	0.096290044
20	0x3d91150e	0.07084094
21	0xbdb0445c	-0.086067885
22	0x3d66c262	0.05633772
23	0x3ceed58a	0.029154558
24	0xbd03903a	-0.032119967
25	0xbd14fa8c	-0.036371753
26	0xbc4503e7	-0.012024856
27	0x3da6a5b4	0.08137074
28	0xbd1e35de	-0.03862559
29	0xbdffc42f	-0.12488591
30	0x3d5aad10	0.0533877
31	0x3d3c5a31	0.04598445
32	0xbcd7278f	-0.02626398
33	0x3d640b71	0.055674974
34	0x3d914b46	0.070944354
35	0x3d271726	0.04079356
36	0x3c1b263f	0.009469568
37	0xbd95b427	-0.07309752
38	0xbc8f9093	-0.017524993
39	0xbd3b0781	-0.045661453
40	0xbdeb5794	-0.114913136
41	0x3cbae546	0.022814404
42	0x3d74168a	0.059591807
43	0x3df7b45f	0.1209495
44	0xbd9f1f3e	-0.07769631
45	0xbc2fe47a	-0.010735625
46	0xbdc1d2fa	-0.09464069
47	0xbca07f80	-0.019592047
48	0xbd2def00	-0.042464256
49	0x3d9fbfef	0.0780028
50	0xbdd3fdb4	-0.103511244
51	0x3d523efa	0.05132959
52	0x3de4ebb7	0.111777715
53	0xbc5165b8	-0.012780599
54	0x3d04cde2	0.032422908
55	0x3d2dad27	0.04240146
56	0xbd50ad65	-0.050946612
57	0xbd5eb76c	-0.054374143
58	0x3ca797c0	0.020458102
59	0x3ceb9bad	0.028760755
60	0x3d0873a7	0.03331342
61	0x3c4b8a50	0.012423113
62	0xbcf6e1ed	-0.030137027
63	0x3de61c61	0.112358816
64	0x3d39f159	0.045396183
65	0x3ccc1d16	0.024916213
66	0x3d7e93d9	0.062152717
67	0x3b0c9f77	0.0021457353
68	0x3de606a2	0.11231734
69	0x3d728c9b	0.059216123
70	0xbdafea90	-0.08589661
71	0x3d2f76ca	0.042837895
72	0xbc9ade97	-0.018904967
73	0x3cda0929	0.026615696
74	0x3c790488	0.015198834
75	0x3ca20ba9	0.01978095
76	0x3d5a0592	0.05322797
77	0x3cc0e5d7	0.023547096
78	0xbdc6318b	-0.09677418
79	0x3d01c1d5	0.031678993
80	0x3dc8ad88	0.097987235
81	0xbde4a7fa	-0.111648515
82	0x3ddef3a7	0.10886317
83	0xbddf6414	-0.1090776
84	0xbdf00054	-0.117188126
85	0xbdb2711b	-0.087129794
86	0xbdf66fd5	-0.12033049
87	0x3cf8a8f1	0.030353995
88	0xbda59a8a	-0.080861166
89	0x3d4bf61a	0.049795248
90	0xbdc0ee68	-0.094204724
91	0xbdfc5001	-0.12319947
92	0x3dcd3c04	0.10021213
93	0x3bac4d69	0.0052582514
94	0x3ded0be5	0.11574534
95	0x3b2cac73	0.0026347905
96	0x3d80a1c6	0.06280856
97	0xbe000a86	-0.12504014
98	0x3c1e4172	0.009659158
99	0x3d4d77a0	0.05016291
100	0xbde3868d	-0.11109648
101	0x3d856397	0.06513136
102	0xbdccd383	-0.1000128
103	0x3d43d384	0.04780914
104	0x3dce7342	0.100805774
105	0x3db81178	0.08987707
106	0xbdab5132	-0.08365096
107	0x3d036415	0.032077868
108	0x3dc20c44	0.09474996
109	0xbd990883	-0.074723266
110	0xbcc70792	-0.024295602
111	0xbd6d18d5	-0.05788501
112	0x3d722898	0.059120744
113	0xbd4d5422	-0.050129063
114	0xbc9f32e7	-0.019433452
115	0x3d917463	0.07102277
116	0xbd0c76a1	-0.03429282
117	0x3d46b0e7	0.04850855
118	0x3df7607a	0.12078948
119	0x3da07e4f	0.078365915
120	0x3d8fe146	0.070253894
121	0xbda3e870	-0.08003318
122	0x3d1150b1	0.035477344
123	0xbbec6a61	-0.00721483
124	0x3d8f6c7e	0.07003115
125	0x3dbb7f8c	0.09155187
126	0x3dc2e261	0.095158346
127	0x3d8709b6	0.06593649
128	0xbdc6f452	-0.09714569
129	0x3df6adee	0.12044893
130	0x3d6484c4	0.055790678
131	0xbc501d95	-0.012702365
132	0xbca8f36b	-0.020623883
133	0xbd7007b6	-0.058601104
134	0x3d37f56c	0.044911787
135	0x3db6d872	0.089280024
136	0xbc7ab77c	-0.015302535
137	0xbd97068b	-0.07374295
138	0xbde81cd7	-0.11333626
139	0x3d2f1f34	0.042754367
140	0xbb929a46	-0.0044739572
141	0xbdf25d96	-0.11834256
142	0xbdabf7cc	-0.08396873
143	0x3df7c2bf	0.12097692
144	0x3d9e3838	0.077255666
145	0x3ce4f9d6	0.027951162
146	0xbd1a972c	-0.037741825
147	0x3d08f124	0.033433095
148	0x3de51633	0.11185875
149	0xbdf6a109	-0.12042434
150	0x3c593d78	0.013259284
151	0xbc364ff6	-0.011127463
152	0xbda96cd6	-0.08272712
153	0xbdf979c5	-0.12181429
154	0xbd479657	-0.04872736
155	0xbd78c601	-0.060735706
156	0xbdb14cea	-0.08657248
157	0xbd8ed28f	-0.069737546
158	0x3e0217c4	0.12704378
159	0x3da1e7da	0.0790555
160	0x3bf83414	0.0075745676
161	0xbdd0f6da	-0.10203333
162	0x3d3fe133	0.046845626
163	0xbc1d25f4	-0.009591568
164	0x3c82a2b8	0.015946731
165	0x3d739324	0.059466496
166	0x3dd7ed62	0.10543324
167	0x3b963420	0.0045838505
168	0x3d2e764c	0.042593285
169	0x3dfb690b	0.12275895
170	0x3dbc79e4	0.09202936
171	0x3e058f9c	0.13043064
172	0xbca9b1db	-0.02071469
173	0x3da90844	0.0825353
174	0xbdef736b	-0.11691936
175	0xbd2cd626	-0.042196415
176	0x3d470d17	0.048596468
177	0x3d08304a	0.033249177
178	0x3dfb1f00	0.12261772
179	0xbd89cdb7	-0.0672869
180	0xbd3b5456	-0.045734726
181	0xbdd1d65c	-0.10245964
182	0xbdbe4e65	-0.09292296
183	0x3d6c3100	0.057663918
184	0xbd51c6c2	-0.05121494
185	0x3dde1259	0.10843343
186	0x3de2bb82	0.110709205
187	0x3d7b6ff0	0.06138605
188	0xbdccd2b5	-0.10001127
189	0xbdf908e2	-0.121598974
190	0xbc49816f	-0.012298926
191	0x3d5f8d92	0.05457837
192	0xbbf1e3b8	-0.0073818825
193	0x3db86b21	0.09004808
194	0xbd8f88a3	-0.07008483
195	0x3d9c4c01	0.07631684
196	0x3c9ee02c	0.019394003
197	0x3debdc97	0.115166835
198	0x3d8d1f6a	0.068907574
199	0xbdea875e	-0.114516005
200	0xbb424c3f	-0.0029647497
201	0x3d177059	0.036972377
202	0x3df011fd	0.11722181
203	0xbd4c3d1b	-0.049862962
204	0x3ca78ea1	0.020453753
205	0xbdacbae5	-0.08434085
206	0xbdafc56a	-0.085825756
207	0xbd51f75e	-0.0512613
208	0xbd940eca	-0.07229383
209	0x3da1c088	0.078980505
210	0xbdc24369	-0.09485514
211	0xbdfeebc4	-0.124473125
212	0xbd89c3e4	-0.06726816
213	0x3d938903	0.07203867
214	0xbdc21b34	-0.09477845
215	0x3df8c0bf	0.121461384
216	0xbd556e5a	-0.052107193
217	0x3bdeb91f	0.0067969705
218	0xbd91b8b7	-0.0711531
219	0xbdec8420	-0.11548638
220	0x3db1c039	0.08679242
221	0xbd854345	-0.06506971
222	0xbb994913	-0.0046779006
223	0x3d5471d7	0.05186638
224	0x3d6951a8	0.05696264
225	0xbc980670	-0.018557757
226	0x3db65c2e	0.08904301
227	0x3dbcd52d	0.092203476
228	0xbd17099d	-0.036874402
229	0xbc9f7bf5	-0.019468287
230	0xbe018339	-0.12647714
231	0x3d20513d	0.039139975
232	0xbcb8f657	-0.022578401
233	0x3c269548	0.010167427
234	0x3da9de43	0.08294346
235	0xbd9e249c	-0.077218264
236	0xbd428a94	-0.04749544
237	0x3d471484	0.04860355
238	0x3de7620b	0.11297997
239	0x3d4cd35a	0.050006248
240	0xbd9da4ee	-0.076974735
241	0xbcac1dce	-0.021010306
242	0xbd8fe3a4	-0.07025841
243	0xbd937509	-0.07200057
244	0xbc1055ca	-0.008809516
245	0xbdcf47bf	-0.10121106
246	0xbaf37ab9	-0.0018576003
247	0x3c4d0bd8	0.012515031
248	0x3df343ab	0.11878141
249	0x3da01d22	0.07818057
250	0x3d1592f4	0.0365171
251	0x3d2d89c9	0.04236773
252	0xbdd289fd	-0.102802254
253	0x3c041c02	0.008063318
254	0x3d96ee8c	0.07369718
255	0xbdf672bb	-0.12033602

fc_net.fc_net.2.bias f4 [64]
0	0x3d83b756	0.06431453
1	0x3dbd3556	0.09238689
2	0xbdbd2c9b	-0.092370234
3	0xbcb80118	-0.022461459
4	0x3df12cba	0.11776109
5	0xbc570dfe	-0.013125895
6	0x3dff63f4	0.124702364
7	0x3dd936c0	0.10606146
8	0x3dea1422	0.11429621
9	0xbd9e6f58	-0.07736081
10	0xbdd99963	-0.10624959
11	0xbddcdd68	-0.107844174
12	0x3ca1667c	0.019702189
13	0xbdafbc68	-0.085808575
14	0xbdc7a073	-0.097474
15	0xbd11f080	-0.03562975
16	0xbdab7872	-0.083725825
17	0xbc6299ad	-0.0138305845
18	0x3ba58417	0.0050511467
19	0x3d2d7ba0	0.042354226
20	0x3d8ab762	0.06773259
21	0xbd9cd9af	-0.07658707
22	0x3deb0c9d	0.11477015
23	0x3d46bdf0	0.048520982
24	0x3dc5e075	0.096619524
25	0x3d4e0180	0.0502944
26	0x3d424baa	0.04743544
27	0x3df31486	0.11869149
28	0x3d7c2a77	0.061563935
29	0xbc6ee6cb	-0.0145813925
30	0xbd491b5e	-0.049098365
31	0xbc635e09	-0.0138774
32	0xbd7e64a2	-0.06210769
33	0x3cbba64b	0.022906443
34	0xbdeb2e16	-0.114833996
35	0xbdbd636b	-0.09247478
36	0x3d8293ce	0.06375848
37	0x3d43db76	0.047816716
38	0xbd8f9156	-0.070101425
39	0xbcd85c16	-0.026411097
40	0x3ccd5893	0.02506665
41	0xbdcbbfec	-0.099487156
42	0xbc747f35	-0.014922907
43	0x3db9d0e6	0.09073047
44	0x3d9ad952	0.07560982
45	0x3dd8cbd1	0.1058575
46	0x3d9dcd89	0.07705218
47	0x3ca95c92	0.020674024
48	0x3dc796e8	0.0974558
49	0x3d9f07b9	0.07765145
50	0xbce52a6d	-0.027974332
51	0x3debe921	0.11519075
52	0x3df49a5d	0.11943505
53	0x3d3be712	0.045874663
54	0x3c5d0b78	0.013491504
55	0xbd8268f9	-0.06367678
56	0x3da2f808	0.079574645
57	0xbbd3bf9f	-0.006462052
58	0x3cbf99a5	0.023388693
59	0x3d921bae	0.07134186
60	0x3d17da09	0.03707317
61	0xbdbee9cf	-0.09321939
62	0xbdce548b	-0.10074719
63	0xbda722e9	-0.081609555

action_head.weight f4 [5, 64]
0	0xbd97478c	-0.07386693
1	0x3af0a7cd	0.0018360555
2	0xbdb9676c	-0.09052929
3	0xbda41365	-0.08011512
4	0xbdd24de1	-0.102687605
5	0x3dafcd80	0.08584118
6	0x3d18c8fa	0.03730104
7	0x3d7f0138	0.06225702
8	0xbdaf3a03	-0.08555987
9	0x3dc92ee1	0.098233946
10	0xbd74b859	-0.05974612
11	0x3da54ae3	0.08070924
12	0xbde6657e	-0.11249827
13	0x3dc452ed	0.09586129
14	0xbdd9c6c6	-0.10633616
15	0x3db3c8f9	0.08778567
16	0x3de69259	0.11258382
17	0xbc5bf5b4	-0.013425279
18	0x3de2960b	0.11063775
19	0x3dc47cf4	0.095941454
20	0x3dccccd0	0.100000024
21	0xbd520f57	-0.05128416
22	0xbd575b14	-0.052577093
23	0x3dbb2a58	0.09138936
24	0xbd271e88	-0.0408006
25	0x3da02087	0.07818704
26	0x3c376cdc	0.011195388
27	0x3df68785	0.12037567
28	0xbd5bba32	-0.053644367
29	0xbde1cf7e	-0.11025904
30	0xbce357ea	-0.027751882
31	0x3d978758	0.07398862
32	0x3da1e37c	0.07904717
33	0x3bf3528e	0.007425613
34	0x3d35e83b	0.044410925
35	0xbd7599ef	-0.059961256
36	0x3d5c9d89	0.053861175
37	0x3c127430	0.008938834
38	0xbce78d24	-0.028265543
39	0x3dd8ee5d	0.10592339
40	0x3d4c53d2	0.049884625
41	0x3dc6e889	0.09712321
42	0xbc83c310	-0.016084224
43	0xbde66e8d	-0.11251555
44	0xbd346f3d	-0.044051398
45	0xbcb69fc1	-0.022292973
46	0xbd2e8f4f	-0.04261714
47	0xbc8d84cb	-0.017275235
48	0xbddd5222	-0.10806681
49	0xbdb84b51	-0.089987405
50	0xbd4768dd	-0.04868399
51	0xbdcf3dae	-0.10119186
52	0x3d76a9b7	0.060220446
53	0xbdd25fdb	-0.10272189
54	0xbd380258	-0.04492411
55	0xbb19ac0b	-0.0023448493
56	0xbd9cdb97	-0.07659071
57	0x3b555308	0.0032550711
58	0xbdb1f0bd	-0.08688495
59	0x3d834a67	0.064106755
60	0x3c72d12a	0.014820376
61	0xbd8d68ab	-0.069047295
62	0x3d5f77fb	0.05455778
63	0x3db5d8c7	0.088792376
64	0x3d903074	0.07040492
65	0x3cb03126	0.02150781
66	0xbd4a1253	-0.04933388
67	0xbdc59ad7	-0.09648674
68	0xbd65b0eb	-0.056076925
69	0x3c2e9181	0.010654808
70	0x3db87f0c	0.09008607
71	0x3d953516	0.07285516
72	0x3d62312c	0.055222675
73	0x3cc17ef9	0.023620116
74	0xbdf6a657	-0.120434456
75	0x3da3a6e8	0.07990819
76	0xbdc4e06c	-0.096131176
77	0xbdf5cfe4	-0.120025426
78	0xbda975e4	-0.08274439
79	0xbd69ed16	-0.05711087
80	0xbdc614d7	-0.09671944
81	0xbd218391	-0.039432112
82	0xbc9ae718	-0.018909022
83	0x3c839f01	0.01606703
84	0xbcb31a06	-0.021862995
85	0xbdb661d6	-0.089053795
86	0x3dd45ada	0.10368891
87	0xbda3d50e	-0.07999621
88	0x3d62f68f	0.055410918
89	0xbddbdcaa	-0.10735448
90	0xbba5cf25	-0.005060094
91	0xbdd5eab4	-0.10445157
92	0xbdc4a452	-0.09601654
93	0x3c9f3fb2	0.019439552
94	0x3c237430	0.009976432
95	0x3d7ac8a6	0.06122651
96	0x3d57d781	0.052695755
97	0xbdf26ea3	-0.118375085
98	0x3db4e074	0.088318735
99	0x3db8c4ac	0.09021887
100	0x3c40016a	0.011719087
101	0xbd8eb1ee	-0.06967531
102	0x3d1bcd9e	0.03803789
103	0xbc4b8b5e	-0.012423364
104	0xbc8367dd	-0.016040737
105	0xbdf06e18	-0.11739749
106	0x3d96dfd1	0.07366908
107	0x3d42a075	0.047516305
108	0xbd4f9e9a	-0.050688364
109	0xbcc801f5	-0.024414996
110	0xbdaf9cd2	-0.08574833
111	0xbd2adbed	-0.041713644
112	0x3d0b9cae	0.03408497
113	0xbdca5286	-0.09879021
114	0x3ddcfefd	0.10790823
115	0xbdf01b0e	-0.1172391
116	0xbc863785	-0.016383896
117	0xbdb05787	-0.086104445
118	0xbd55d2ec	-0.052203104
119	0xbdad4142	-0.084597126
120	0x3d87edf7	0.06637185
121	0xbd1cb8b8	-0.0382621
122	0xbcdadc1b	-0.026716283
123	0x3cf334f5	0.029688338
124	0xbdc6a657	-0.096996956
125	0xbe01e9f3	-0.12686901
126	0xbda336f8	-0.07969469
127	0x3d3bced6	0.04585155
128	0xbcf34546	-0.029696118
129	0x3cd7631d	0.026292378
130	0x3d0f89fa	0.035043694
131	0x3d883d0c	0.06652269
132	0x3d851f12	0.06500067
133	0x3d72d988	0.059289485
134	0xbdb9c922	-0.09071566
135	0xbcf39f54	-0.02973906
136	0xbd93cb9c	-0.0721657
137	0xbddc8aa5	-0.10768632
138	0xbca9ab85	-0.02071167
139	0xbd97af1f	-0.074064486
140	0x3d865e8c	0.06561002
141	0xbd8f082c	-0.069839805
142	0x3cee33b3	0.029077386
143	0xbdd8a220	-0.10577798
144	0xbbd221b0	-0.0064127073
145	0x3cce30ef	0.025169818
146	0x3d5f4830	0.054512203
147	0x3c82b9cb	0.015957734
148	0xbdf5a20e	-0.119938
149	0xbd1a63f2	-0.03769297
150	0x3d85b53a	0.06528707
151	0x3dc511ed	0.0962256
152	0xbdf6f41b	-0.12058278
153	0xbd75e2c6	-0.06003072
154	0xbd764edf	-0.06013381
155	0x3ac93c35	0.0015353026
156	0xbc184b78	-0.009295337
157	0xbde47630	-0.11155355
158	0xbd76fa65	-0.06029739
159	0x3c910d4d	0.017706538
160	0xbde17f1a	-0.11010571
161	0xbdabfd87	-0.08397966
162	0xbd864604	-0.06556323
163	0xbdea604a	-0.11444147
164	0xbca386f8	-0.019961819
165	0xbd1c76bc	-0.03819917
166	0x3cceafe2	0.025230352
167	0xbc328b66	-0.010897493
168	0xbdb37eba	-0.087644055
169	0xbde9bfed	-0.1141356
170	0x3dceff54	0.10107294
171	0x3dbd28c6	0.092362925
172	0xbd1d6cc3	-0.0384338
173	0xbdd1db94	-0.10246959
174	0x3da234a3	0.07920196
175	0x3d90693f	0.07051324
176	0xbc144b91	-0.00905122
177	0x3d7a3d59	0.061093662
178	0x3d1c308b	0.03813223
179	0xbd913259	-0.07089681
180	0xbdec59ec	-0.11540589
181	0xbdb1c833	-0.08680763
182	0xbd56f49c	-0.05247937
183	0xbcf3c376	-0.029756289
184	0xbda6a4d6	-0.08136909
185	0xbd988a3b	-0.0744824
186	0x3db12404	0.086494476
187	0xbb0d442c	-0.0021555526
188	0xbd4a24b4	-0.04935141
189	0xbd4d70a4	-0.05015625
190	0x3c25e66d	0.010125739
191	0xbdd637eb	-0.10459884
192	0xbcfea5f4	-0.031084992
193	0xbd9a51b7	-0.07535117
194	0xbdca9280	-0.09891224
195	0x3da44b34	0.08022156
196	0x3b828ff3	0.0039844452
197	0x3cdaa81b	0.026691487
198	0xbda99536	-0.08280413
199	0x3d33ef4d	0.043929387
200	0x3ddac409	0.10681922
201	0x3caf35db	0.021387985
202	0xbdbbb454	-0.09165254
203	0x3ca3b893	0.019985473
204	0x3cbd0fb7	0.023078782
205	0x3b18fc8c	0.002334389
206	0x3d4aae97	0.049482908
207	0x3d976ff7	0.073944025
208	0x3dea619a	0.11444397
209	0xbdd5aacc	-0.104329675
210	0x3d2d75b0	0.042348564
211	0x3d765e32	0.060148425
212	0x3daae6c6	0.08344798
213	0xbdd2693b	-0.10273977
214	0xbdf543d9	-0.119758315
215	0xbdc6e303	-0.09711268
216	0xbc2d3611	-0.0105719725
217	0x3d923f5f	0.07140993
218	0xbba70f47	-0.0050982567
219	0x39822975	0.0002482642
220	0xbdda5be0	-0.10662055
221	0xbe0111c3	-0.12604432
222	0x3d833867	0.06407242
223	0x3d1e23f0	0.03860849
224	0xbdb4490d	-0.08802996
225	0x3dc47b41	0.09593821
226	0xbb2525c7	-0.002519952
227	0xbd76fab3	-0.06029768
228	0x3d86f8dc	0.06590435
229	0x3dac6c32	0.08419074
230	0xbda50d54	-0.08059183
231	0x3e02f6b9	0.1278943
232	0xbdb8cdd2	-0.09023632
233	0x3d5054a8	0.050861984
234	0xbc3ccf92	-0.011524098
235	0x3ce56ac9	0.02800502
236	0x3db6ab76	0.08919422
237	0x3dbcbd71	0.092158206
238	0xbdc10658	-0.09425038
239	0xbd4d99f2	-0.05019564
240	0x3da944b0	0.08265054
241	0x3d12531f	0.0357238
242	0x3d805812	0.06266798
243	0x3dd9c601	0.106334694
244	0x3d1ee01e	0.038787954
245	0xbd9fc7d6	-0.078017876
246	0xbdc81133	-0.097689055
247	0xbc802273	-0.015641427
248	0x3ca04864	0.019565769
249	0x3dafa9d1	0.08577312
250	0x3d4216bb	0.04738496
251	0x3db9b28a	0.09067257
252	0x3d6717b1	0.05641908
253	0x3d202a75	0.03910299
254	0x3de8dc52	0.11370148
255	0xbce0d3dc	-0.027444772

action_head.bias f4 [5]
0	0x39f78704	0.00047212106
1	0x3d80d0fd	0.06289861
2	0x3cfbca56	0.03073613
3	0x3c1e9d09	0.009680995
4	0x3d28167e	0.041037075

value_head.weight f4 [1, 64]
0	0xbc6cc563	-0.014451358
1	0x3df6318f	0.12021171
2	0xbdf3f300	-0.11911583
3	0x3db5d877	0.08879178
4	0xbc0c1941	-0.008550943
5	0xbd269341	-0.040667776
6	0xbcc2da79	-0.023785817
7	0x3ded77db	0.11595126
8	0xbda43ff6	-0.08020012
9	0xbd8cd8cd	-0.06877289
10	0xbd607632	-0.05480022
11	0x3d663d1c	0.056210622
12	0xbdfd4f55	-0.12368647
13	0xbda52d0f	-0.08065235
14	0xbd02e992	-0.03196103
15	0xbdc6f2b3	-0.0971426
16	0x3d42ec1f	0.047588464
17	0x3daac364	0.08338049
18	0xbd2daa5b	-0.04239879
19	0xbdf506f2	-0.11964215
20	0xbd90a196	-0.0706207
21	0x3beda50d	0.0072523416
22	0x3c30ee5c	0.010799017
23	0xbd9d1d85	-0.07671646
24	0x3d138292	0.036013193
25	0x3d08fc43	0.0334437
26	0xbceff841	-0.029293181
27	0xbc6edd1a	-0.014579082
28	0xbdaddabb	-0.08488985
29	0xbdb55e6e	-0.08855902
30	0x3dda7915	0.10667626
31	0xbd1bc36a	-0.03802816
32	0x3dd8dc78	0.10588926
33	0xbd04837e	-0.032351963
34	0xbd8efa39	-0.0698132
35	0xbd21a59e	-0.039464585
36	0xbdad8c50	-0.08474028
37	0xbdbc50f5	-0.09195129
38	0xbd57fa3b	-0.052728873
39	0x3d7f279f	0.062293645
40	0xbdcc90d3	-0.099885605
41	0x3d5c65d4	0.05380805
42	0x3d0d5df8	0.034513444
43	0x3db3d6a1	0.087811716
44	0x3d9ff0d2	0.07809605
45	0xbd25b60f	-0.040456828
46	0xbdde9f69	-0.10870249
47	0x3d704b78	0.058665723
48	0x3d65a9c6	0.05607011
49	0xbdccb427	-0.09995299
50	0x3d3305ea	0.043706812
51	0x3d84c6e9	0.064832516
52	0xbdd5e94e	-0.1044489
53	0xba031e2c	-0.00050017494
54	0xbd41671c	-0.047217473
55	0xbdc7aed9	-0.097501464
56	0x3d636dee	0.05552476
57	0xbd9f786e	-0.07786642
58	0xbd99fba2	-0.07518698
59	0x3cc6e23c	0.024277799
60	0xbd8993dd	-0.06717656
61	0x3dc2fbee	0.09520708
62	0x3c9a9024	0.01886756
63	0xbd8e6814	-0.06953445
