2022/20-华立民 指导老师-马里佳/code/output/2-agents_domain-PredatorPrey-2_adversaryratio-0.25_RADAR_X_2022-11-10-17-57-38/protagonist_model.pth (torch, 52943 bytes, 7 tensors)

fc_net.fc_net.0.weight f4 [64, 125]
000000 84 d5 98 3c a6 ce aa bd e0 0c 35 3b 2a 15 5b 3d
       0.0186565 -0.08340196 0.0027626082 0.05348698
000010 ea 69 58 3d f6 42 71 3d 8d 48 90 bd c0 85 da ba
       0.052835383 0.05890175 -0.07045088 -0.0016671941
000020 68 37 05 3c 06 6e 66 bd c9 92 ae 3d 4d 55 a1 3d
       0.008130886 -0.05625727 0.08524091 0.07877598
000030 14 0e a8 3d c0 05 93 3c ac 46 98 3c e8 70 3a bd
       0.0820581 0.017947078 0.018588386 -0.045517832
000040 bd 3a 92 3d 36 6b 16 3d 50 9a 93 bc dc 59 7d bd
       0.0714011 0.036723338 -0.018017918 -0.061853275
000050 98 3a c8 3c 6c 69 d8 bc b8 7a 6b bd b8 4e ec bc
       0.024442002 -0.026417457 -0.05749008 -0.02884613
000060 78 dd c1 bc ae cf 97 3d a4 ff 9e 3d d3 4d 68 bd
       -0.023665175 0.07412659 0.07763603 -0.056714844
000070 7a 0f 3c bd 3b c0 4c 3d f4 17 86 3d d2 c6 aa bd
       -0.045913197 0.049988013 0.065475374 -0.08338703
000080 2c 8e a0 bd 90 ba 9f bd ad 02 d9 bb 07 80 3e 3d
       -0.07839617 -0.07799256 -0.0066226334 0.046508815
000090 28 5f 0e bd 73 75 3e 3d 17 8e c8 ba 01 6e b3 bd
       -0.034758717 0.046498727 -0.0015301135 -0.08761216
0000a0 b0 b5 80 bc 75 18 6c bd f9 51 e6 bc cb d5 e6 bc
       -0.015711635 -0.05764051 -0.02811526 -0.028178116
0000b0 d6 c6 02 3c 83 19 7e 3d 1e a9 ac 3d 8a cd 9c bd
       0.0079819765 0.06203605 0.08430694 -0.07656391
0000c0 15 23 f9 bb eb 57 96 bd 71 96 39 bd 61 64 76 bd
       -0.007603059 -0.07340988 -0.045309488 -0.060154323
0000d0 a7 f2 af bc 89 78 95 3c 96 51 aa bc 70 02 69 3d
       -0.02147801 0.018245952 -0.020790856 0.05688709
0000e0 21 58 6b bd 32 93 fa 3c 51 2b 7e bd ef 99 65 bc
       -0.057457093 0.030587766 -0.06205303 -0.014013751
0000f0 51 ae 76 bc b9 f0 f4 bc 63 18 27 3d fb 9e 32 3d
       -0.015056209 -0.029899942 0.04079474 0.043608647
000100 f8 86 52 bc 74 ae 7a bd 43 36 8c bd 3b bb 33 3d
       -0.012849562 -0.061201528 -0.06846287 0.04387973
000110 b6 7b 21 bd 53 e2 83 bd 91 87 42 bb 96 e7 3e 3d
       -0.03942462 -0.06439652 -0.0029682855 0.046607576
000120 71 1e 77 3d e4 2b ab 3d 70 ff 10 bc d6 1e 0f bd
       0.060331766 0.08357981 -0.008849964 -0.034941517
000130 ef 5c 25 bd c2 5b 5a 3d a3 db 91 bd 9e e3 a6 3d
       -0.04037183 0.053310163 -0.071219705 0.08148883
000140 78 b8 65 3d b7 24 24 bd 15 ce aa 3d 56 68 5b bc
       0.056084126 -0.040074077 0.08340088 -0.013391575
000150 fa 00 3c bb 20 91 73 3d fe fc e5 bb c6 79 43 3d
       -0.0028687106 0.059464574 -0.0070186844 0.047723554
000160 9a 52 b4 bd 06 86 bd 3d 98 71 83 3d 2e 8b 2b bd
       -0.088048175 0.092540786 0.06418151 -0.04188078
000170 b3 47 2e bd 7a 7f d4 bb 05 9a 13 bd a3 f7 b7 bd
       -0.042548846 -0.006484923 -0.036035556 -0.0898278
000180 a6 b3 52 bd f4 26 74 bc f8 7d 7e bc da a6 95 bb
       -0.051440857 -0.014901865 -0.015532963 -0.0045670094
000190 8c 0b fb bc 88 76 20 bc 40 e7 13 3b 6e 13 b5 bd
       -0.030645154 -0.009793885 0.0022568256 -0.088415965
0001a0 30 5b b8 bc 40 c7 9a 3a 26 0d 68 3d f8 5c c5 bc
       -0.02250442 0.0011808649 0.056653164 -0.024092183
0001b0 c8 fa 5b bc 0f 96 90 bd 73 0c 76 bd ee 0b 2b 3d
       -0.01342649 -0.070598714 -0.060070466 0.041759424
0001c0 b0 29 82 3c 48 60 2d bc 77 e6 61 bd 04 41 2d bd
       0.015889019 -0.010582037 -0.05515143 -0.04229833
0001d0 54 43 03 3d c7 97 92 3d 5e 72 a8 bd 47 c5 ab 3d
       0.03204663 0.071578555 -0.08224939 0.08387237
0001e0 28 80 31 3c 7c e5 8a bc cc 60 81 3c 8d f7 55 bd
       0.0108337775 -0.01695513 0.015793227 -0.052238036
0001f0 cd b0 b5 3d 8b 20 8e 3d 00 71 67 ba e9 1d 87 bd
       0.08871613 0.06939801 -0.0008828789 -0.06597502
000200 34 b9 48 bd f1 92 16 bd df 04 04 bd 41 2a 97 bd
       -0.04900475 -0.036761228 -0.032231208 -0.07381106
000210 43 0b 82 3d 00 d9 e4 3c 46 8b 97 bd 9a 54 7b bd
       0.06349804 0.027935505 -0.07399611 -0.06135998
000220 85 e9 91 3d 23 ad 7d 3d e3 da 98 3d 41 75 8c 3d
       0.071246184 0.061932694 0.07463624 0.06858302
000230 e8 41 ad bd f8 e0 a9 bd a2 db 3e 3d 86 87 2b bd
       -0.08459836 -0.082948625 0.046596177 -0.041877292
000240 24 13 a6 3c 6e 92 03 bd 60 bb 80 bc c1 b8 80 3d
       0.020272799 -0.032122068 -0.015714347 0.06285239
000250 a2 95 02 3d d0 e8 40 bc eb d3 ad bd 0d fb a0 3d
       0.031880982 -0.011774257 -0.08487686 0.07860384
000260 98 ef 9b bd c8 8d 8e bd e1 3d fc bc ca fd 82 bd
       -0.07614058 -0.069606364 -0.030791225 -0.06396063
000270 de b3 33 bd 37 45 da bc 77 7c e2 3c 57 a6 f2 3c
       -0.043872707 -0.026644332 0.02764724 0.029620333
000280 2e f8 a8 3d a0 70 a5 3d 8a 29 29 3d 74 62 b1 bc
       0.082504615 0.08078122 0.04129938 -0.021653391
000290 ba e5 98 3c b5 dd 54 bd 85 f2 3c 3d 68 49 2f bd
       0.01866423 -0.05196925 0.046129722 -0.042794615
0002a0 a9 79 b1 3d 00 5a 75 3d 47 7f 4b 3c ef 41 cf 3c
       0.08665783 0.059900284 0.012420482 0.025299994
0002b0 49 7e 79 3d 8a 75 9a 3d 3f 88 36 3d d2 70 7f 3d
       0.06091145 0.0754195 0.04456353 0.062363453
0002c0 5a 9b 6f bc 0f 71 8c bc c1 d7 b3 3d 4a f6 95 bd
       -0.014624441 -0.017143754 0.08781386 -0.073223665
0002d0 a1 17 6e 3b 5a 88 2a bd 46 60 85 bd 40 fc b0 3c
       0.0036330002 -0.04163394 -0.06512503 0.021604657
0002e0 76 4c 24 bc d2 50 c6 39 38 06 32 bd f9 43 2e bd
       -0.010027995 0.0003782572 -0.043462962 -0.042545293
0002f0 a0 8e 46 bd e3 76 11 bd 3a b3 c5 bd 91 07 19 bc
       -0.04847586 -0.03551377 -0.096533254 -0.009340183
000300 19 05 1d bd 63 60 01 bd d9 33 cc 3c 1c f8 ac 3d
       -0.03833494 -0.031586062 0.024927067 0.084457606
000310 2d cc 3e bc 3a 8b 89 bc cf 7b 27 3d d5 de 8b bd
       -0.011645359 -0.016790021 0.040889557 -0.06829611
000320 7a e5 2d 3d 83 ca 9f 3d d1 ee 01 bd 8e e7 3e 3d
       0.042455174 0.07802298 -0.031721894 0.046607547
000330 72 ba 9c bb 43 10 22 3d 29 2c a3 bd 45 e4 97 3c
       -0.004782968 0.03956629 -0.07967407 0.018541465
000340 ff 78 ab 3d 7a 82 ac 3d ba b9 bc ba 51 0d a3 bd
       0.083726875 0.08423324 -0.0014398613 -0.07961524
000350 f6 07 13 3d b3 cc 35 3d 8d c9 0d 3d 6c af a7 bd
       0.035896264 0.04438467 0.034616042 -0.08187756
000360 b5 0f 7e 3d 6b a6 17 bd f9 ac ac 3d 3f 6a 06 3d
       0.0620267 -0.037023943 0.084314294 0.032816168
000370 89 52 a4 3d f4 44 a4 bd eb 24 c9 bb 37 46 1e bd
       0.08023555 -0.08020964 -0.006138434 -0.03864118
000380 9a 3d 15 3c 7e 47 77 3d b2 c9 89 bd b8 1d 09 bc
       0.009108925 0.060370915 -0.067279235 -0.008368902
000390 00 31 e0 3a 46 a4 30 3d 10 20 ec bb bd bd a3 3d
       0.0017104447 0.043125413 -0.0072059706 0.07995174
0003a0 a4 09 bd 3c e1 df 89 3d 78 2c a7 3c 73 4d a3 3d
       0.023075886 0.06732155 0.020406947 0.07973757
0003b0 6d 4f 91 3d 80 e3 64 ba 24 41 84 3c 24 9c 0a bd
       0.070952274 -0.000873141 0.016144343 -0.033840314
0003c0 7c 2d df bc 21 95 8a 3d f6 ff 3a 3d 08 50 6d bc
       -0.027243368 0.06766725 0.04565426 -0.014484413
0003d0 c0 dd 3b bb 09 18 90 3d 40 bd 40 bb 83 2d 93 bd
       -0.002866611 0.07035834 -0.0029409677 -0.07186415
0003e0 4e 9a 56 3d 08 66 85 bc a0 95 af bb 40 31 0d bb
       0.05239325 -0.016284004 -0.005358413 -0.0021544248
0003f0 5b 14 b7 bd b6 78 8e bd 24 00 b0 bd 7c 47 69 bd
       -0.089394294 -0.069566175 -0.08593777 -0.05695294

fc_net.fc_net.0.bias f4 [64]
000000 12 d8 8f 3c 90 66 bc bc cc 0e a2 3d 3b 8c 13 3d
       0.017559085 -0.022998124 0.079129785 0.036022406
000010 84 29 81 3d ab a9 b6 bd a3 b4 bf 3a 85 08 fa 3b
       0.063067466 -0.0891908 0.0014625977 0.00763041
000020 cb 4c 9b bc fe c5 81 bd 30 a4 12 3d 7d 9c a0 3d
       -0.018957516 -0.06336592 0.035801113 0.07842348
000030 5b c0 97 bd f0 b6 fb 3c 77 79 d1 3c 8f d2 4d 3d
       -0.07409736 0.03072688 0.025570614 0.050249632
000040 87 53 1f bd 13 70 2f bd 30 ab 18 3d 52 b7 b2 3d
       -0.038898017 -0.04283149 0.037272632 0.08726372
000050 32 ff 96 bc 88 ac 12 bd c0 a2 a4 bd c4 fa 19 bd
       -0.018432233 -0.03580907 -0.080388546 -0.037592664
000060 dd 84 85 3d ef 54 de 3c 25 c3 7e bc f2 f9 9e bd
       0.06519482 0.027140109 -0.015549456 -0.07762517
000070 6b fe a4 3d 28 d2 97 bd d0 b0 b1 3d 6a af a0 3d
       0.08056339 -0.07413131 0.086763024 0.078459576
000080 90 a0 9f 3d f4 8e 54 3d 82 23 05 3c b9 5e 8d 3d
       0.07794297 0.051894143 0.0081261415 0.069028325
000090 e5 09 88 bd d5 37 18 3c aa 66 d4 3c 8f 07 e9 bb
       -0.06642512 0.009290655 0.02592786 -0.0071114968
0000a0 85 e6 82 3d 0b c5 55 bd e8 b3 fb bc 5c 46 99 bb
       0.06391624 -0.052189868 -0.030725434 -0.004677577
0000b0 14 4b 3e 3d 4c fd aa bd 9b 9e d5 bc b5 60 ab ba
       0.04645832 -0.08349094 -0.026076606 -0.0013075086
0000c0 06 a1 b1 3d 33 93 02 3d 43 59 a6 bd 00 0b 95 bd
       0.08673291 0.03187866 -0.08122494 -0.07277489
0000d0 2d 49 a8 bc 0a 84 93 3d 0c 3e 71 3d 2b 0b 1b bd
       -0.020542705 0.07202919 0.058897063 -0.037852447
0000e0 fd 52 e6 3c 2c 53 10 3d 5c fe 89 bd 24 8e 49 3d
       0.028115744 0.03523557 -0.06737968 0.04920782
0000f0 d1 52 1c bc 90 c7 44 3d e7 a3 8d 3d fc 55 b3 3d
       -0.009541229 0.04804188 0.069160275 0.087566346

fc_net.fc_net.2.weight f4 [64, 64]
000000 8b 3b 80 3d eb 86 e3 bd b5 24 ed bd 46 fe be bd
       0.06261357 -0.11109718 -0.11579267 -0.093258426
000010 e6 2a d4 3d dd 55 cd 3d c5 21 ca 3c c8 92 fe 3d
       0.10359745 0.10026143 0.024674306 0.1243034
000020 84 df b8 3d fd 4b 83 bd f4 8c 67 bd 88 4a f1 bd
       0.09027007 -0.06410978 -0.056530908 -0.11781794
000030 96 cb eb 3c 1d 4e 0f bd a4 6c d6 bd f7 f2 97 3d
       0.0287836 -0.034986604 -0.1046994 0.07419389
000040 54 66 d0 3c 2f ca 4e 3d bf a1 eb bd 28 76 d6 3c
       0.025439419 0.050485786 -0.1150546 0.026179388
000050 30 ca a3 3d eb 21 d3 bd 70 00 8e bd e4 b6 97 bc
       0.079975486 -0.10309204 -0.06933677 -0.018519826
000060 52 56 1f 3d 7e 00 3c 3d 79 4c d7 3d b3 ca 9e bd
       0.03890068 0.045898907 0.10512633 -0.077535056
000070 e4 5c 9d 3d c7 72 49 3b d8 f2 e5 bd b4 98 aa bd
       0.07683733 0.0030738579 -0.112279594 -0.08329907
000080 99 90 b5 3d c3 a4 82 3d 63 eb b8 bc 40 8a a4 3d
       0.088654704 0.06379082 -0.022573179 0.080341816
000090 03 d6 64 3d 1e 3a 06 3d 02 96 87 bc b1 31 cd 3d
       0.05586816 0.03277027 -0.016551021 0.100192435
0000a0 c8 35 a0 bc cc 87 b6 bd c3 4c ff 3d b9 c2 33 bd
       -0.019556895 -0.0891262 0.12465813 -0.043886874
0000b0 31 1d db 3c d9 cd 66 bd 58 9d 3f 3c 94 47 b1 bd
       0.026747318 -0.056348655 0.0116952285 -0.086562306
0000c0 d8 c8 65 3d ab 16 ba 3d e3 5e 54 bd 5b 89 83 bd
       0.056099743 0.09086355 -0.051848304 -0.06422683
0000d0 24 8c fc 3d 6c f1 d6 3b 7a e7 9e bd ca 2e a6 3d
       0.12331417 0.0065595414 -0.077589944 0.08114393
0000e0 b5 83 04 bd 37 65 3e bd 5f 45 c5 bd d8 ac 9d bd
       -0.032352168 -0.046483245 -0.09632372 -0.07698983
0000f0 6a fd ca 3d c4 52 99 bd 1b 70 75 3d c9 b0 8c 3d
       0.09911616 -0.074864894 0.059921365 0.068696566
000100 7f 4e ce bd d5 5c ed 3d ce 6b d3 3d c8 21 eb bd
       -0.10073566 0.11589972 0.103232965 -0.11481053
000110 ee a5 9f 3d 45 72 e9 bd 80 7d f3 3a 8e 48 ed 3d
       0.077953205 -0.11398748 0.0018576831 0.11586104
000120 d6 cb bd bd 6a cf 5b bd e1 9f c3 3c cf c4 f5 bc
       -0.09267394 -0.053664602 0.023879947 -0.030001072
000130 6f 5a f9 bd 4e 5d cc 3b 66 d1 cd 3d 6a 93 cb 3d
       -0.12175452 0.0062367087 0.10049705 0.099402264
000140 72 46 9a 3d 24 68 3c bd 5f 2a cb 3c d7 a9 57 3d
       0.075329676 -0.045997754 0.024800478 0.052652206
000150 9d 87 74 bd 0c b1 2d 3d a3 77 5d bd ae f4 e2 3d
       -0.059699643 0.042405173 -0.054069173 0.11081825
000160 37 75 72 bd 30 c0 df 3c c8 93 81 bd 5c e8 02 be
       -0.059193816 0.027313322 -0.06327015 -0.1278395
000170 ae b8 f9 bd 1f 19 56 3d 1d 87 35 bc 79 bc ed bd
       -0.12193428 0.05227005 -0.011079577 -0.11608214
000180 f3 75 db 3d 81 22 41 bd 96 21 de bd c1 b6 cf 3c
       0.107158564 -0.047152046 -0.1084625 0.025355699
000190 2d 4d 2a 3c c1 fd 53 3c 76 c0 d0 3d 54 46 22 bd
       0.010394377 0.012938918 0.10192959 -0.03961785
0001a0 6f 75 ee bd c7 5a 47 bd c3 6b db bd cb 17 c7 bd
       -0.116434924 -0.048670556 -0.10713913 -0.09721335
0001b0 f8 62 d4 bd 1c 48 ee bd 89 89 2a 3d 68 59 8c 3c
       -0.10370439 -0.116348475 0.04163507 0.017132476
0001c0 a6 9e b8 bd 8f c6 00 3e dd 35 63 bd 32 0f 8a bd
       -0.09014635 0.12575744 -0.05547129 -0.067411795
0001d0 21 1c d0 bc 9b 15 f0 3d ba 29 df 3d f0 8b f1 39
       -0.025404038 0.11722871 0.108966306 0.00046071364
0001e0 b6 2e 5e bc 74 be fe bc ac 66 56 bd ad 50 e0 3d
       -0.013560941 -0.031096675 -0.05234401 0.10952888
0001f0 f1 d0 44 3c c6 da a5 3d ff fb 90 bd 03 87 ad 3d
       0.012012706 0.08098368 -0.070793144 0.08473017
000200 29 45 4f bd 85 f0 c4 3d 01 3f 04 bd f8 dc b6 3d
       -0.050603066 0.09616188 -0.032286648 0.08928865
000210 79 e8 3b bc 4d 10 b3 3d 67 6d 27 3d e8 6c 76 3d
       -0.011469 0.087433435 0.04087582 0.060162455
000220 ec a1 59 bd e8 3a d7 3d 8e d4 d4 3c 8c c1 4f bd
       -0.053132936 0.10509282 0.02598026 -0.05072169
000230 c0 b4 2d 3d 23 94 8b 3d 7f 20 81 3d 81 10 0f bd
       0.042408705 0.06815364 0.06305026 -0.03492785
000240 9b 3b 25 3d b1 a7 92 bd 47 ec 79 bd f7 d2 b8 3d
       0.040340047 -0.07160891 -0.061016347 0.09024613
000250 3c f1 ee 3d 8e 7c 02 bb c3 6b 8a bd f5 79 cf 3d
       0.116671056 -0.0019910666 -0.06758835 0.10130683
000260 f6 0f 6c 3d 2b a2 ac 3a 79 48 80 3d 60 66 8a 3c
       0.05763241 0.0013170888 0.06263823 0.01689452
000270 76 76 ef 3d 56 09 36 3c f6 bb b1 3c bc e4 20 3d
       0.116925165 0.011110624 0.021696072 0.039280638
000280 08 aa b5 bc a9 c4 7a 3d ef 0d e7 bd 27 a2 24 3d
       -0.022175804 0.061222706 -0.112819545 0.040193703
000290 cf 54 eb 3c ec a0 97 3d 9a ee b4 39 a0 70 2b 3d
       0.028726963 0.0740374 0.00034510047 0.041855454
0002a0 9c a4 dc ba fd be 1a bd f1 f8 f7 3d f9 7e d8 bd
       -0.0016833725 -0.037779797 0.12108029 -0.10571093
0002b0 3a 5a 77 bc 65 19 de bd 0f aa 81 3d ef 75 06 bd
       -0.015097195 -0.10844687 0.06331264 -0.032827314
0002c0 94 9b e3 3d 82 11 f3 bd 34 ba e5 3c 08 0d 9e 3c
       0.111136585 -0.11868574 0.02804289 0.019293323
0002d0 8c 79 ce 3d 7d 1a a1 bc c9 16 8e bd 5d ee ca bc
       0.10081777 -0.01966595 -0.0693794 -0.024771864
0002e0 a5 ee c0 3d f9 08 ca 3d d9 57 9b bd b4 a0 8a bd
       0.09420518 0.09864993 -0.07585115 -0.06768933
0002f0 80 77 83 3d 17 8e 05 bd 1b d3 24 3d 1e a7 89 bd
       0.06419277 -0.03260621 0.04024039 -0.06721328
000300 50 c9 ed bd f3 9a a1 bc 62 e0 ee 3b df af a9 3d
       -0.11610663 -0.019727206 0.007289932 0.08285498
000310 0e 0a ad 3d dc 9b 98 3d 75 2e 45 3d bb f9 a0 3c
       0.084491834 0.07451603 0.048140008 0.01965033
000320 f4 93 a6 bc 92 94 99 bd 98 0a a0 3d cc 8c 28 3d
       -0.020334221 -0.07499041 0.078145206 0.0411499
000330 4f f4 f2 3d 64 4a aa 3d 7b 64 14 bd de c2 75 3d
       0.118630044 0.0831497 -0.03622864 0.060000293
000340 22 fb 1e 3c 50 cb 39 3d e3 14 87 bc 05 48 9c 3c
       0.009703429 0.04535991 -0.016489452 0.01907731
000350 07 fa 8b 3d b9 d9 ac 3d e1 4e f2 3d 5c 07 fa 3d
       0.06834798 0.08439965 0.11831451 0.12208435
000360 96 11 e0 bd 35 2d 3a bd 6d 00 b0 3d 53 7c af bd
       -0.10940854 -0.04545327 0.08593831 -0.08568635
000370 35 6a df 3d 5d c5 a4 3d b3 e1 3a bd 6c 5d 4a bb
       0.10908929 0.080454566 -0.0456254 -0.0030878438
000380 8b dc bf 3d a8 3f 55 bd 63 17 89 bd 37 46 a1 bd
       0.09368237 -0.05206266 -0.06693914 -0.078747205
000390 88 a0 00 3e f8 bd e3 bd 5c 96 8c bd ab 7b f2 bd
       0.12561238 -0.11120218 -0.06864616 -0.11839994
0003a0 35 90 bb 3d 56 43 af bd 14 54 c4 bc b9 6e a9 bd
       0.09158365 -0.08557765 -0.023965873 -0.08273072
0003b0 cd d4 f3 3d 32 65 7e bc c2 6b a4 3d 29 c7 17 bd
       0.11905823 -0.0155270565 0.08028366 -0.03705517
0003c0 95 c6 e9 bd bc 09 02 be 1e 74 b2 3d b1 6e 3f bc
       -0.1141483 -0.12699026 0.08713554 -0.011684106
0003d0 b9 ef 82 bd 77 50 41 bd 38 f6 c2 bd 01 bc d0 bd
       -0.0639338 -0.047195878 -0.09519619 -0.10192109
0003e0 8f 51 a0 bd f7 9b 43 bd 5b 62 b5 bd 3d 90 67 3d
       -0.07828056 -0.04775616 -0.088566504 0.05653404
0003f0 3a 0a f6 bd f4 c4 f3 bd 2b cc 16 3d 94 49 b6 bc
       -0.12013669 -0.119028 0.036815803 -0.022251882

fc_net.fc_net.2.bias f4 [64]
000000 11 9b e0 3d ea a8 29 3c 2f 21 94 3d 11 e3 e6 bd
       0.109670766 0.010355214 0.07232892 -0.11273778
000010 87 a5 c5 3c 75 b7 5b bd 11 df dd bd be 7b fd bd
       0.024126781 -0.053641755 -0.10833562 -0.123771176
000020 fb 65 83 3c b1 12 a1 bd f3 b0 7a bd ed 00 08 3d
       0.016039839 -0.07864893 -0.06120391 0.033204008
000030 3c a4 b9 3d 7c d7 e0 bd 49 e2 8d bd 89 2f ae bd
       0.09064528 -0.109786004 -0.06927926 -0.0850516
000040 47 f1 f6 bc bb fb ed 3d 6f ba e1 bd 36 1e de bd
       -0.030144347 0.116202794 -0.110218875 -0.10845606
000050 03 0a ec bc 21 41 a1 3d ef 11 d3 3c 99 93 e3 3d
       -0.028813368 0.078737505 0.025765387 0.111121364
000060 7a 35 67 3c d1 a5 ad bd 6e ca 65 bd a5 c4 fa bd
       0.014111871 -0.084788926 -0.056101255 -0.12244538
000070 e0 fe 26 3c 42 76 d1 3a 95 e6 37 3d bf e8 53 bd
       0.010192603 0.0015980678 0.044897635 -0.051735636
000080 59 aa b2 bd bf 70 61 3d 4b 28 91 3d a8 fe 17 3d
       -0.087238975 0.055039164 0.070877634 0.037108094
000090 74 2e a1 3d b7 97 8a bd 35 c6 67 bd 34 3f 67 3d
       0.07870188 -0.067672186 -0.05658551 0.05645676
0000a0 7a 48 f9 3c 4c c9 f4 3d d9 02 9f 3c ca 92 c5 3d
       0.030430067 0.11952457 0.019410538 0.096471384
0000b0 9f f0 fc bc 4f 68 57 bd 13 7e 58 3c 3a e0 1d bb
       -0.030876456 -0.05258971 0.013213652 -0.0024089948
0000c0 f7 99 1d 3d 05 f1 c7 3d 3c b8 8c 3c e8 ce 5c 3d
       0.03847691 0.09762768 0.017177694 0.05390826
0000d0 db a9 cd bd 59 6d 26 3c f9 a9 da 3d 49 fc 41 3d
       -0.10042163 0.010157906 0.10676951 0.04735974
0000e0 90 39 77 bd e6 d1 31 3c c3 c7 47 bd 0a 94 e9 bd
       -0.06035763 0.010853266 -0.048774492 -0.11405189
0000f0 6c 05 8b bd b6 28 74 bc 8d 05 f1 bd 50 6b d6 3c
       -0.067881435 -0.014902284 -0.11768637 0.026174217

action_head.weight f4 [5, 64]
000000 83 8c 60 bd 90 b3 4a 3d fe ca b7 bc 05 d1 e2 bc
       -0.054821502 0.04948765 -0.022435661 -0.027687559
000010 20 4f d5 3d 29 b2 a5 3c 98 d8 d7 3d 08 2a ed 3d
       0.104154825 0.020226555 0.10539359 0.115802824
000020 04 e9 7b bd c7 92 b9 3d a8 29 ca bd cf 47 33 bd
       -0.061501518 0.09061199 -0.098712265 -0.043769654
000030 35 2c b7 3c de 8d 15 bd 64 18 fd bc 65 f2 65 bd
       0.022359947 -0.03651225 -0.03089542 -0.05613937
000040 22 b0 bc bc 6e 29 f0 bd 40 cd 8a 3d 71 33 0d bc
       -0.023033205 -0.11726652 0.067774296 -0.008618222
000050 ba aa 08 3d 1d 35 9c bc 10 95 c4 3d 49 ac 93 3d
       0.033365943 -0.019068295 0.09598744 0.07210595
000060 85 00 85 bd 40 4a ea 3d 43 ee 3b 3d 64 49 d7 bd
       -0.0649424 0.11439943 0.04588152 -0.10512045
000070 ce 8e f7 bd 04 98 1a 3d 08 4b f1 3d d3 22 8b 3c
       -0.12087785 0.03774263 0.11781889 0.016984379
000080 43 ca bb 3d ef 3b 8e 3d 2e b0 56 3d 58 8c c6 bd
       0.09169438 0.06945025 0.05241411 -0.09694737
000090 aa 57 41 bd 07 eb 5c bb 5e ed a6 3d e0 85 f3 3c
       -0.047202744 -0.0033709423 0.08150743 0.029726923
0000a0 c6 7a cf 3d ec 5d 85 3c 32 49 ea bd 2c f7 d4 bd
       0.10130839 0.016280137 -0.11439742 -0.10398707
0000b0 26 33 a1 3d 15 24 a6 3d e4 ea 50 3d b9 c9 90 3d
       0.07871084 0.08112351 0.05100526 0.070697255
0000c0 87 88 05 bc ae 9a 68 bd 8c 91 83 3d b7 c6 c3 bd
       -0.008150226 -0.05678814 0.06424245 -0.09559386
0000d0 2e a6 c7 bd 45 21 d5 3b 95 3d f6 3d b9 17 e6 3d
       -0.09748493 0.00650421 0.120234646 0.112349935
0000e0 74 77 a0 3d c1 15 bc bd dc 5e b1 3d ce 21 f1 bd
       0.07835284 -0.09183837 0.08660671 -0.11774026
0000f0 b5 31 7b 3d e3 bb 92 3d 79 07 74 bb 10 b5 12 3d
       0.0613267 0.07164743 -0.00372359 0.035817206
000100 e3 f8 6e bd f6 54 a8 3d dc f7 fd 3c 38 19 96 3c
       -0.058342826 0.0821933 0.031001978 0.018322572
000110 ba 33 19 bd 4a 02 3a 3d 08 24 65 3d d7 73 65 bd
       -0.037402846 0.04541234 0.055942565 -0.056018677
000120 36 d3 80 bd 2f da b0 bd 5a ed c3 bc 0c 1a b2 bd
       -0.06290285 -0.08635365 -0.023916889 -0.08696374
000130 6a c7 38 3c d7 02 d0 3d b0 44 05 bd 2e 32 be bd
       0.011278013 0.10156792 -0.03253621 -0.09286915
000140 c9 78 b3 3b d8 fa 1f 3b 30 37 d8 bd 58 a4 92 3d
       0.005477045 0.002441099 -0.10557401 0.07160252
000150 3a 3e 91 3d 6c 85 28 bd 65 6b d7 3b 3c 1c 6e bc
       0.07091947 -0.041142866 0.0065740817 -0.014533099
000160 db 83 66 3d 39 bc cf 3d 40 cc 99 bc d6 46 a2 bd
       0.05627809 0.101433225 -0.018774152 -0.07923667
000170 8c bf b5 bd 82 ea 8d 3d d9 53 9e bd 3c 54 6a 3d
       -0.08874425 0.069294944 -0.077308364 0.05720924
000180 36 eb f8 bd 19 94 95 bb 97 be c4 3d 5e 1f 91 bd
       -0.12154238 -0.0045647738 0.09606665 -0.07086061
000190 a1 30 a0 bd 7d f8 d0 bd 04 65 8f bd c7 9f ea bd
       -0.07821775 -0.102036454 -0.07001689 -0.11456256
0001a0 2a 18 a5 3d 21 f9 c8 bd 6b eb f3 bd d0 71 e7 bd
       0.080612496 -0.098131426 -0.11910137 -0.11301005
0001b0 ce aa ca 3d a3 b5 8b bd 83 f9 03 be 73 d4 85 3d
       0.0989586 -0.06821754 -0.1288815 0.06534662
0001c0 30 d9 76 bc a8 81 55 3d 81 d2 45 bd d6 13 3b bd
       -0.01506643 0.052125603 -0.048296455 -0.045673214
0001d0 ac 13 ab bd 11 84 00 be 6a 69 0b bd 2c 28 5b bd
       -0.083533615 -0.1255038 -0.034036078 -0.053505108
0001e0 22 be 89 3d 2b f6 da 3c 17 00 7f bd 43 e8 a3 3d
       0.06725718 0.02672871 -0.062255945 0.08003285
0001f0 e5 f6 a3 3d f8 41 51 3d 51 af 79 bd 99 3c 36 bd
       0.08006076 0.051088303 -0.06095821 -0.044491384
000200 02 55 cc bd 36 6f e1 bd dd f0 bf bd ad 3a 3a 3d
       -0.099771515 -0.1100754 -0.09372113 0.045466114
000210 6b 00 37 3d 07 b0 e5 3d 4e e0 ad bd f7 6e 8e 3c
       0.044678133 0.11215215 -0.08490048 0.017386897
000220 7c 5d 08 3d 8c 65 dc 3d 79 8a 02 3d a4 39 58 bd
       0.03329228 0.10761556 0.03187034 -0.052789345
000230 ec 63 92 bd 92 b0 03 3d e2 b8 ad 3d 95 6c bc 3d
       -0.07147965 0.032150812 0.08482529 0.09200398
000240 c1 87 8b bd ce a1 d4 3d f0 a8 85 bd d8 3c 1c 3d
       -0.068130024 0.10382424 -0.06526363 0.038143963
000250 77 c9 bf 3d 13 a0 a7 bc 68 87 d6 bc ea f4 38 3d
       0.09364598 -0.020462072 -0.026187614 0.045155443
000260 99 62 b0 bd 22 5e 93 3d eb 12 24 bd 9f fd dc bd
       -0.08612556 0.07195689 -0.040057104 -0.10790562
000270 6a 21 e1 3c 68 c3 86 3d ee 1e 66 3d 39 37 72 bc
       0.027481753 0.065802395 0.05618184 -0.014783674
000280 1d 01 a2 bd 17 55 ea 3d c3 a2 e1 3d a1 78 b5 3c
       -0.079103686 0.11442011 0.110173725 0.022152247
000290 36 70 c5 bd 3a b0 9c 3d 01 b9 21 bd 80 22 92 bb
       -0.09640543 0.076508 -0.039483074 -0.004459679
0002a0 f0 97 7a bd 2a 18 bc bd 11 1f e3 bd 9c 2b 8f bd
       -0.061180055 -0.091842964 -0.1108991 -0.0699074
0002b0 6c 13 10 bc 8d 3f 39 bd 6c 60 f5 bd 8f 5b d3 3d
       -0.008793693 -0.045226622 -0.11981282 0.10320198
0002c0 38 73 38 3d fc 1a a6 3d 87 75 9a bd 49 49 8d bd
       0.045031756 0.081106156 -0.07541948 -0.06898744
0002d0 2c 80 62 bd ff 94 ee bd 96 99 e1 3d 14 0e 80 3d
       -0.055298015 -0.116495125 0.11015622 0.06252685
0002e0 21 0b b2 bd f9 90 57 bd 66 4f db 3d f4 5f 91 bd
       -0.08693529 -0.05262849 0.107085034 -0.0709838
0002f0 7e 1c b5 3d a5 88 b0 3d 71 7b f2 3d a1 f8 8a bd
       0.08843325 0.08619813 0.11839951 -0.067857035
000300 b0 ec da 3d b0 38 dc bc 20 70 9e 3d 85 0f e3 3d
       0.10689676 -0.0268825 0.0773623 0.110869445
000310 8b 4a 8b bd bf aa b2 3d a7 34 f5 3d 3f ef 91 3d
       -0.06801327 0.087239735 0.11972933 0.07125711
000320 f5 85 dc 3c d6 07 ba bd e0 49 eb bd 9f ce 2b 3d
       0.026919344 -0.09083526 -0.114887 0.041945096
000330 a7 e6 01 3e 74 a1 ef 3d 43 4e 38 3d 26 a5 15 3c
       0.12685643 0.117007166 0.04499651 0.009133613
000340 44 c3 03 be 27 69 c1 bd d1 cd d2 3d 87 73 f7 bd
       -0.12867457 -0.09443884 0.102931626 -0.12082582
000350 5a bf fe bc 98 58 d5 3c d6 b6 e6 bd 5d fa 8a 3d
       -0.031097103 0.026043221 -0.11265342 0.06786034
000360 69 3e 03 bc 93 39 19 bd 6f 77 1f 3d 44 e7 8f 3d
       -0.008010485 -0.037408423 0.03893226 0.07026532
000370 77 a5 f2 3d ef 3c 74 3d ad 74 95 bd d1 df e2 bd
       0.11847966 0.059628423 -0.07297645 -0.11077846
000380 d0 2d 04 bd 38 11 3b 3d 9f 71 c9 bd b9 3f 7a 3d
       -0.032270253 0.045670718 -0.09836125 0.061095927
000390 89 de cf 3d eb b2 64 bc 9a 1c 50 3d 6f 4b b4 3d
       0.10149867 -0.013958673 0.050808527 0.0880345
0003a0 a5 c1 bc bd df 0a d8 bd 10 9d d3 3d f8 ae 93 bd
       -0.09216622 -0.105489485 0.10332692 -0.07211107
0003b0 2d 3c 6c 3c 78 a6 a1 bd 78 6b 19 bd ed 7c f1 bd
       0.014418644 -0.078930795 -0.037456006 -0.11791406
0003c0 92 3f c4 bd 01 3f 4f 3d 07 bb 9c 3c d0 6d dd 3d
       -0.095824376 0.050597195 0.01913215 0.10811961
0003d0 2d 20 56 bd db 3c 8b bd e7 b9 3b bd 25 9b db bc
       -0.05227678 -0.06798717 -0.045831587 -0.026807377
0003e0 c0 c1 da 3c 20 3a b3 3d 89 a9 77 3d 63 74 ad 3d
       0.026703715 0.08751321 0.060464416 0.08469465
0003f0 cd bf d3 bc c4 94 6f bb 3e 93 44 3c 8e 60 8a bd
       -0.025848294 -0.0036557177 0.011997996 -0.067566976

action_head.bias f4 [5]
000000 25 d4 82 bd f0 85 6a bd 6b 09 25 bd 22 b3 22 bd
       -0.063881196 -0.05725664 -0.040292185 -0.039721616
000010 ec 76 8b bc
       -0.01702448

value_head.weight f4 [1, 64]
000000 85 9e ab 3d 4a 17 1e 3d f5 1f 88 3d f9 88 82 3d
       0.083798446 0.03859643 0.0664672 0.06373782
000010 55 dd 81 3c 94 83 28 3d 09 ce 89 bd 53 c5 da bd
       0.01585261 0.041141108 -0.06728751 -0.10682168
000020 44 6d a2 bd 48 59 a9 3d bf e2 dd 3c a1 ae ac bc
       -0.07930997 0.08268982 0.02708566 -0.021079363
000030 d2 dc fc bc 39 16 27 3d cf d8 a4 bd 19 34 87 3d
       -0.030867014 0.040792678 -0.080491655 0.06601734
000040 7f 68 f2 bc f2 4b b6 bc b5 02 be bd 48 71 b1 bd
       -0.029590843 -0.02225301 -0.0927786 -0.08664185
000050 81 1d f8 bd 75 cf 3d 3d 10 29 aa bd 5c 6d 3c 3c
       -0.121150024 0.046340425 -0.08308613 0.011500683
000060 20 1b 22 bd bc 25 20 bd 2c 63 f0 bd 49 81 ef bc
       -0.03957665 -0.039098486 -0.117376655 -0.029236453
000070 a3 c1 e4 3c 8c c3 43 3d b4 82 d9 bd b0 55 1e 3d
       0.027924364 0.04779391 -0.10620633 0.038655937
000080 11 3c bc 3d f7 96 69 bc 1f de 56 3d c6 22 d6 3d
       0.09191144 -0.014257184 0.052457925 0.10455851
000090 07 19 ea 3d 3c b2 84 bd 33 e8 58 bc 96 01 54 3c
       0.11430555 -0.06479308 -0.013238954 0.012939831
0000a0 2b 90 f7 bd 32 9b 60 bc b5 25 2a 3d 9b d1 ec 3d
       -0.12088045 -0.013708876 0.041539866 0.115634166
0000b0 17 50 93 3d ad 18 68 bd 1e bf 23 bd 62 a3 93 3d
       0.0719301 -0.056664158 -0.039977185 0.07208897
0000c0 8a 87 5a bd 5d c3 94 bd 44 44 ca bd c3 43 b7 bd
       -0.053351916 -0.07263825 -0.09876302 -0.089484714
0000d0 ab d8 aa 3d 25 37 37 3d 7d 6d 87 bd aa bb 1b bd
       0.083421074 0.044730324 -0.0661268 -0.038020767
0000e0 ab a2 eb 3d 3b e9 26 3d fc 29 a2 3d da b1 01 3e
       0.11505636 0.04074977 0.07918164 0.12665501
0000f0 69 4b c0 3d c5 fb 81 3c c0 b2 bb 3a 76 41 a9 3d
       0.09389383 0.015867123 0.001432024 0.08264439
