2022/20-华立民 指导老师-马里佳/code/tests/2-agents_domain-PredatorPrey-2_adversaryratio-0.75_RADAR_X_2022-11-30-23-11-28/adversary_model.pth (torch, 52943 bytes, 7 tensors)

fc_net.fc_net.0.weight f4 [64, 125]
-0.07570214 -0.049226396 0.03814844 -0.088594496 -0.014321759 0.030928522 -0.030825615 0.03086494
0.08290639 0.07227788 -0.017409474 0.06498288 -0.016304877 -0.013418198 0.03950607 -0.056866117
-0.074398085 0.029949509 0.040467046 0.028893225 0.054188453 0.02872651 -0.06991917 -4.4994056e-05
0.07347145 -0.041051302 0.08813382 0.027468067 -0.07830724 0.026813127 -0.023213398 -0.07391651
-0.066303544 0.08054906 -0.0643624 -0.061062254 -0.01830892 -0.051352803 0.051257424 0.018864788
-0.043946475 -0.0066310405 0.03351605 0.04415457 0.06941064 0.0026284966 0.07071763 -0.06214774
0.08257167 -0.02382839 0.043959342 -0.09037512 -0.052491255 0.05704479 -0.0016672821 0.053324364
-0.06429582 0.060824707 -0.046837553 -0.07206735 -0.0059607853 -0.019138798 -0.055686217 0.043470792
-0.054225158 -0.061504204 0.029621843 -0.0156192565 0.012406515 -0.07675521 -0.048281003 -0.08137144
-0.09479526 0.05411058 0.044847026 0.0138018895 -0.047587827 -0.12042529 -0.12177429 -0.05580562
-0.10796566 -0.098110974 -0.008258408 0.04478381 -0.049115617 0.058991805 -0.009619044 0.02419097
0.04281363 -0.10017473 0.00068152987 0.002952425 0.07429451 -0.056878947 -0.092370644 0.05265668
0.059188753 -0.07366663 -9.6439035e-05 -0.027766228 0.031450793 -0.009992354 0.016008042 -0.031715907
0.07440067 0.028684817 0.021777265 0.07317863 0.05245187 -0.011500061 0.052621834 0.08726845
-0.00411316 0.009840675 -0.06964069 0.04264549 0.03841027 0.002733305 -0.043450743 -0.015270077
0.08444967 -0.03881181 0.075959064 0.0684878 -0.052246906 0.043341257 -0.06472781 -0.013781466
-0.08673149 -0.024915874 0.013503134 0.02099169 -0.07443586 0.0016277358 -0.079859056 0.045160763
0.07266223 0.0075866883 -0.059592523 -0.081346035 -0.038039148 -0.049780916 0.07312665 -0.03793843
0.031206928 -0.08411847 -0.05325348 -0.05021218 0.043775447 -0.051058624 -0.066444986 0.08957047
-0.04520519 -0.0074123177 -0.010399311 0.098583736 -0.06572049 -0.03235506 0.07265638 -0.07271296
0.01934943 -0.047357142 -0.062131464 0.01034449 0.062311534 -0.06675186 -0.02725024 0.065817446
0.0023227779 0.07724752 -0.07837488 -0.06467911 0.041887194 -0.056898423 0.024782287 0.08220844
0.018354252 0.019502357 -0.016155368 0.07782127 -0.020620788 -0.025544424 -0.050307654 -0.006392189
0.01436408 0.075168215 -0.001217074 -0.006947682 -0.041942634 -0.017684089 -0.041101288 0.044421624
0.0569853 -0.07527202 0.07418647 -0.016446749 -0.06314765 -0.0014695062 0.03137462 0.06583209
0.073322624 0.069633536 0.023407856 0.10787503 0.07235423 0.100064084 -0.06552554 0.09360192
0.089698076 0.08091131 0.054696962 0.08209743 0.07955483 -0.0097140595 -0.043134537 0.06685768
0.06115176 0.043631133 0.09398719 0.09558118 0.031960014 0.017809203 -0.016341874 0.053638734
0.11343788 0.03548134 -0.015727036 -0.087471604 -0.044719547 0.002417691 0.07509782 0.08150507
0.06182436 -0.07757957 0.04550033 0.06005276 0.07884938 -0.016955666 -0.031574182 -0.045083072
-0.0665452 -0.05329885 -0.00520692 0.00053437054 0.08379846 0.046269722 -0.058842383 0.08850638
-0.04600102 -0.047675848 0.07532743 -0.013174675 0.012137778 -0.008555524 0.029645257 0.030732885
00000000: b909 9bbd 9ea1 49bd 8a41 1c3d 0871 b5bd
00000010: d0a5 6abc d05d fd3c 0086 fcbc 78d8 fc3c
00000020: d3ca a93d 6d06 943d 509e 8ebc bf15 853d
00000030: ce91 85bc 00d8 5bbc 1ed1 213d 72ec 68bd
00000040: 065e 98bd ac58 f53c c6c0 253d 7cb1 ec3c
00000050: b6f4 5d3d dc53 eb3c c831 8fbd 00b8 3cb8
00000060: 3378 963d 6925 28bd 817f b43d b604 e13c
00000070: 8c5f a0bd 34a7 db3c 062a bebc 8a61 97bd
00000080: 27ca 87bd e8f6 a43d 6fd0 83bd 6a1c 7abd
00000090: 97fc 95bc 5157 52bd 4ef3 513d 548a 9a3c
000000a0: 3801 34bd 3349 d9bb 2048 093d 6cdb 343d
000000b0: 2a27 8e3d db42 2c3b 68d4 903d a18e 7ebd
000000c0: 561b a93d c133 c3bc b60e 343d 9716 b9bd
000000d0: 1201 57bd cca7 693d b488 daba a66a 5a3d
000000e0: 87ad 83bd 5423 793d bcd8 3fbd 0c98 93bd
000000f0: b152 c3bb f8c8 9cbc 3b17 64bd 6e0e 323d
00000100: 331b 5ebd d5eb 7bbd 82a9 f23c e9e7 7fbc
00000110: b244 4b3c d631 9dbd 4dc2 45bd 12a6 a6bd
00000120: 0424 c2bd 0ea3 5d3d 84b1 373d 5221 623c
00000130: 74eb 42bd 89a1 f6bd cd64 f9bd 6f94 64bd
00000140: 1a1d ddbd 68ee c8bd 464e 07bc 3a6f 373d
00000150: 752d 49bd 64a1 713d 3299 1dbc 242c c63c
00000160: 585d 2f3d 6928 cdbd b2a8 323a 797d 413b
00000170: b827 983d e6f9 68bd d22c bdbd 88ae 573d
00000180: e86f 723d 88de 96bd 503f cab8 0076 e3bc
00000190: 8cd2 003d f8b6 23bc 4c23 833c 8ae8 01bd
000001a0: 615f 983d 6cfc ea3c 3c66 b23c adde 953d
000001b0: c6d7 563d c06a 3cbc fe89 573d cdb9 b23d
000001c0: b0c7 86bb c83a 213c c79f 8ebd 0aad 2e3d
000001d0: 1654 1d3d 4021 333b 68f9 31bd 582f 7abc
000001e0: f3f3 ac3d 22f9 1ebd 6d90 9b3d 5543 8c3d
000001f0: da00 56bd 9a86 313d 0490 84bd a8cb 61bc
00000200: 48a0 b1bd 601c ccbc 403c 5d3c c4f6 ab3c
00000210: d471 98bd c059 d53a 258d a3bd 7efa 383d
00000220: efcf 943d c199 f83b 4a17 74bd c098 a6bd
00000230: f0ce 1bbd 13e7 4bbd 6dc3 953d 5465 1bbd
00000240: aca5 ff3c 4e46 acbd 5220 5abd 49ab 4dbd
00000250: e24d 333d d922 51bd 4f14 88bd b970 b73d
00000260: 1429 39bd 07e3 f2bb df61 2abc 45e6 c93d
00000270: 7798 86bd bd86 04bd decc 943d 88ea 94bd
00000280: b282 9e3c 90f9 41bd 907d 7ebd f07b 293c
00000290: 613a 7f3d 33b5 88bd e53b dfbc 4ccb 863d
000002a0: bf39 183b f333 9e3d 0283 a0bd 7b76 84bd
000002b0: e891 2b3d 520e 69bd 3904 cb3c e65c a83d
000002c0: a85b 963c 68c3 9f3c 4358 84bc c260 9f3d
000002d0: edec a8bc 8a42 d1bc 660f 4ebd 9175 d1bb
000002e0: 5157 6b3c cbf1 993d 3a86 9fba 61a9 e3bb
000002f0: 0acc 2bbd 39de 90bc d359 28bd 73f3 353d
00000300: 6b69 693d 3828 9abd 13ef 973d 55bb 86bc
00000310: 8e53 81bd 729c c0ba ac82 003d fad2 863d
00000320: 2c2a 963d 079c 8e3d d5c1 bf3c 95ed dc3d
00000330: 742e 943d 66ee cc3d 4132 86bd 5db2 bf3d
00000340: a0b3 b73d d4b4 a53d ec09 603d b322 a83d
00000350: a5ed a23d b827 1fbc d7ad 30bd aeec 883d
00000360: 457a 7a3d 8fb6 323d 5b7c c03d 11c0 c33d
00000370: 81e8 023d 9be4 913c 65df 85bc 4ab4 5b3d
00000380: 1f52 e83d e254 113d fcd5 80bc 5024 b3bd
00000390: d82b 37bd 2072 1e3b e3cc 993d 21ec a63d
000003a0: 8a3b 7d3d 0ae2 9ebd 8e5e 3a3d e2f9 753d
000003b0: c97b a13d 9ce6 8abc ee53 01bd 07a9 38bd
000003c0: da48 88bd e54f 5abd d09e aabb 0015 0c3a
000003d0: 879e ab3d 5285 3d3d b604 71bd d542 b53d
000003e0: 916b 3cbd c047 43bd 4545 9a3d 98da 57bc
000003f0: 88dd 463c 782c 0cbc 9cda f23c 88c3 fb3c

fc_net.fc_net.0.bias f4 [64]
-0.093897685 0.121817715 -0.013325159 -0.07990705 0.019010754 0.031306066 -0.0064631863 -0.06861233
-0.029411132 -0.04452068 -0.10307875 -0.021953728 0.053940702 0.08348122 -0.017305957 0.02917918
0.008659481 -0.021568857 0.07555639 0.0024645033 -0.13014525 0.04994571 0.030521516 -0.032228757
0.027757837 0.006249821 0.0185849 -0.003650523 0.05901749 0.10286825 -0.057401974 -0.07472823
-0.013154718 -0.04173625 -0.108093426 0.034367707 0.03934816 -0.0898657 -0.092972726 0.08907279
-0.05410389 0.04944188 -0.09466749 0.105008855 0.004312137 0.07164375 0.018100543 -0.0365908
0.02698944 0.05365505 -0.007951997 -0.113275 0.07806984 -0.08487239 -0.12375856 0.10847588
-0.0014267073 0.09408946 0.11554718 0.054759577 -0.044256974 -0.09627947 0.052230414 0.059821323
00000000: 6e4d c0bd 917b f93d c551 5abc 4fa6 a3bd
00000010: 71bc 9b3c ca3a 003d 23c9 d3bb 9f84 8cbd
00000020: 9def f0bc 515b 36bd f41a d3bd 4ed8 b3bc
00000030: edf0 5c3d 34f8 aa3d 39c5 8dbc 2d09 ef3c
00000040: 7fe0 0d3c 2cb1 b0bc 4fbd 9a3d 8183 213b
00000050: cc44 05be df93 4c3d 4208 fa3c 4d02 04bd
00000060: 6764 e33c 4ccb cc3b 5c3f 983c 9d3d 6fbb
00000070: 53bc 713d 97ac d23d 551e 6bbd 1d0b 99bd
00000080: e386 57bc a1f3 2abd 1660 ddbd 27c5 0c3d
00000090: 892b 213d 820b b8bd 7c68 bebd cc6b b63d
000000a0: 0a9c 5dbd 9283 4a3d 07e1 c1bd e20e d73d
000000b0: d44c 8d3b f5b9 923d 9747 943c 3ce0 15bd
000000c0: f518 dd3c 66c5 5b3d 1849 02bc b9fc e7bd
000000d0: 15e3 9f3d 93d1 adbd 2175 fdbd 9a28 de3d
000000e0: 5a00 bbba fab1 c03d 00a4 ec3d 944b 603d
000000f0: cd46 35bd 2c2e c5bd 8fef 553d 3407 753d

fc_net.fc_net.2.weight f4 [64, 64]
-0.10840427 -0.003333898 0.051872272 -0.12255992 0.04585306 0.08679562 0.12943685 -0.12749904
-0.05897753 -0.049390893 -0.14010404 -0.01777689 -0.09812468 -0.0302887 -0.052982133 -0.038248
0.042087387 -0.012004827 -0.08927988 -0.10220727 -0.13428806 -0.079074755 -0.043622367 0.100295134
-0.07157478 0.018939076 -0.033011895 -0.08370229 0.036272842 0.09995309 0.110485375 0.02567072
0.017899746 0.04832253 0.023634208 0.027968844 -0.060928933 0.040162224 -0.05489985 0.009774142
0.122191586 0.016015714 -0.07958294 -0.014666835 0.06571025 0.08748762 0.07707986 -0.020503331
0.12561272 -0.006246031 -0.01432557 -0.11861542 -0.094728544 -0.026065957 0.049361676 0.1192931
-0.09721598 0.05752662 -0.00061875617 0.0793785 -0.09619397 0.052188728 -0.06479585 -0.12236454
-0.06256617 0.10875942 0.09993152 -0.1049523 0.00023330191 -0.030323911 0.022303754 -0.091814935
-0.015757333 0.12973608 0.06450736 -0.032092385 -0.11520257 0.022978917 -0.0473471 0.030053852
-0.11095407 0.04542405 0.07604375 0.14219709 -0.046122923 0.06389227 0.055558827 0.028426964
0.06681674 -0.07373777 -0.124450415 0.15004349 -0.0014610469 -0.021770999 -0.046137493 0.0788804
0.004035775 0.08044524 -0.017886119 -0.027509073 0.046080172 0.03245755 -0.09400426 0.0357754
-0.02034274 0.09630986 -0.03324726 -0.04954224 0.057839043 -0.0040810714 -0.016993534 0.061609868
0.13703662 -0.030929444 -0.01658754 -0.017637502 0.046374574 0.06599794 0.0016014241 0.14119527
-0.0065210415 0.0026977048 0.14465488 0.00021776522 -0.030357445 -0.0271173 0.051447157 -0.05911306
0.06227338 -0.013797175 0.110992566 -0.009253392 -0.09872561 -0.10230568 -0.096805386 0.06614373
-0.01670312 0.074140064 -0.120294794 -0.010135249 0.033921868 0.085235596 0.102741934 -0.085824855
-0.116964795 0.01681444 0.04045385 0.114524506 -0.065081365 0.10224056 -0.10425947 0.12624437
0.031708393 -0.014981926 0.09258168 -0.08487096 0.09894661 -0.00056719175 0.109977685 -0.044537663
0.101684995 -0.0025332316 -0.0725422 0.111353055 -0.1111992 -0.026686287 -0.0066892966 -0.024078121
-0.03294206 0.085497536 -0.069639415 0.0871432 0.08426 0.10171651 0.08923058 0.04251335
-0.0022831257 0.020537598 -0.06611655 0.08558133 0.10151446 0.13240544 0.0016432722 -0.0017984252
0.0091853645 -0.10197858 0.096558236 0.060972113 0.076617084 0.12428227 0.0936445 -0.10574201
-0.02966437 0.02549867 -0.11366328 -0.04683424 0.049746215 0.09715837 0.020665558 0.08349522
0.016783226 -0.058768272 0.0060005262 0.06513921 0.042141635 0.029702498 0.021988627 0.11704405
0.11241824 0.071925364 0.05459994 0.07474398 0.009869991 0.00881151 0.09647719 0.045619454
-0.12397796 0.008336063 0.0050592744 0.09286679 -0.08571908 -0.06859865 0.116722986 -0.15291928
-0.057785727 -0.11616208 -0.004417785 -0.02253931 -0.06178745 0.03889004 0.008530886 0.011743902
0.10171721 -0.041578285 -0.06266047 -0.049650893 0.14074801 -0.0584385 0.053691622 0.10800425
0.1627687 -0.041435882 0.11531616 -0.06788692 0.10145661 -0.075963765 0.07306689 0.048864324
-0.13695562 0.11302082 0.025186993 0.12717319 0.09029381 0.082568526 -0.05965389 0.0816209
00000000: 0f03 debd 877d 5abb 0578 543d b200 fbbd
00000010: 6bd0 3b3d e7c1 b13d 188b 043e 1c8f 02be
00000020: 6c92 71bd 1b4e 4abd 6f77 0fbe d7a0 91bc
00000030: 98f5 c8bd 0220 f8bc cb03 59bd efa9 1cbd
00000040: d363 2c3d e5af 44bc 5fd8 b6bd 0c52 d1bd
00000050: cf82 09be f2f1 a1bd 5ead 32bd 8967 cd3d
00000060: cc95 92bd 1f26 9b3c 7b37 07bd 1b6c abbd
00000070: d592 143d 35b4 cc3d 2846 e23d 674b d23c
00000080: 7da2 923c d8ed 453d 879c c13c eb1e e53c
00000090: 9e90 79bd 2581 243d aade 60bd b923 203c
000000a0: 953f fa3d 6333 833c 61fc a2bd 2a4d 70bc
000000b0: 1893 863d b62c b33d 0cdc 9d3d 9af6 a7bc
000000c0: 9fa0 003e 81ab ccbb ccb5 6abc a4ec f2bd
000000d0: 0a01 c2bd 4688 d5bc 782f 4a3d f14f f43d
000000e0: 2c19 c7bd 08a1 6b3d 0634 22ba 3291 a23d
000000f0: 5801 c5bd d9c3 553d b0b3 84bd 439a fabd
00000100: b122 80bd 42bd de3d e6a8 cc3d 3bf1 d6bd
00000110: 81a2 7439 da69 f8bc 5db6 b63c 7809 bcbd
00000120: 8615 81bc 89d9 043e 6f1c 843d 4e73 03bd
00000130: 53ef ebbd 483e bc3c 08ef 41bd 7f33 f63c
00000140: e33b e3bd 920e 3a3d d3bc 9b3d 1d9c 113e
00000150: 64eb 3cbd f3d9 823d a791 633d aadf e83c
00000160: 37d7 883d d403 97bd dcdf febd 00a5 193e
00000170: 9980 bfba 1859 b2bc abfa 3cbd 0c8c a13d
00000180: 893e 843b 79c0 a43d e985 92bc b55a e1bc
00000190: 90be 3c3d 35f2 043d 4e85 c0bd 3a89 123d
000001a0: d1a5 a6bc 1b3e c53d 472e 08bd ceec 4abd
000001b0: a2e8 6c3d 82ba 85bb 0636 8bbc a15a 7c3d
000001c0: 5453 0c3e bf5f fdbc 98e2 87bc 867c 90bc
000001d0: 44f3 3d3d ee29 873d e0e6 d13a 7e95 103e
000001e0: 76ae d5bb facb 303b 6920 143e e857 6439
000001f0: 2db0 f8bc 1a25 debc 41ba 523d 8920 72bd
00000200: 5f12 7f3d 8c0d 62bc 1250 e33d 8a9b 17bc
00000210: a730 cabd a485 d1bd e741 c6bd 5d76 873d
00000220: fbd4 88bc bfd6 973d 1e5d f6bd 510e 26bc
00000230: a8f1 0a3d 0090 ae3d 5d6a d23d f1c4 afbd
00000240: 3d8b efbd 70be 893c f0b2 253d d38b ea3d
00000250: 6149 85bd 8063 d13d fd85 d5bd 3446 013e
00000260: a9e0 013d c176 75bc 779b bd3d d3d0 adbd
00000270: 85a4 ca3d 98af 14ba fb3b e13d 206d 36bd
00000280: 3940 d03d 9304 26bb 0191 94bd 120d e43d
00000290: 68bc e3bd 339d dabc e331 dbbb 7b3f c5bc
000002a0: 41ee 06bd 5519 af3d 1c9f 8ebd 2278 b23d
000002b0: 8290 ac3d bf50 d03d 86be b63d 7a22 2e3d
000002c0: 7ea0 15bb 773e a83c 1d68 87bd 4445 af3d
000002d0: d0e6 cf3d 4b95 073e 1163 d73a 23b9 ebba
000002e0: 367e 163c 25da d0bd 53c0 c53d e5bd 793d
000002f0: 6be9 9c3d b487 fe3d b0c8 bf3d 448f d8bd
00000300: b102 f3bc 96e2 d03c 4bc8 e8bd 43d5 3fbd
00000310: b0c2 4b3d f8fa c63d d14a a93c 8bff aa3d
00000320: fa7c 893c 00b7 70bd 10a0 c43b b567 853d
00000330: b59c 2c3d a752 f33c 7e21 b43c cab4 ef3d
00000340: 893b e63d 9b4d 933d 30a4 5f3d 5f13 993d
00000350: beb5 213c 275e 103c d595 c53d 77db 3a3d
00000360: 28e8 fdbd fb93 083c 45c8 a53b f230 be3d
00000370: 7c8d afbd 737d 8cbd 760c ef3d df96 1cbe
00000380: bab0 6cbd 62e6 edbd 11c3 90bb 5ca4 b8bc
00000390: d614 7dbd 2a4b 1f3d 21c5 0b3c 7f69 403c
000003a0: 1d51 d03d fe4d 2abd 2254 80bd bc5e 4bbd
000003b0: 3f20 103e 355d 6fbd bfeb 5b3d 5531 dd3d
000003c0: d7ac 263e acb8 29bd e12a ec3d 4c08 8bbd
000003d0: 7cc8 cf3d e492 9bbd 18a4 953d f525 483d
000003e0: 183e 0cbe 7677 e73d f454 ce3c b039 023e
000003f0: f6eb b83d b019 a93d a357 74bd dc28 a73d

fc_net.fc_net.2.bias f4 [64]
0.11386611 -0.058547687 -0.13237637 0.10763552 0.07532645 -0.010075433 -0.023507921 -0.10230625
0.009181801 -0.034537047 -0.036632713 0.105056666 -0.09843769 -0.08673609 0.13326545 -0.005782431
0.12893647 -0.07488053 -0.0073571485 -0.09779857 0.1280476 0.004394765 -0.021389982 -0.039919116
0.01118288 0.012081106 0.055481203 0.04736914 0.07112004 0.047723275 0.1087312 -0.07820063
0.060252562 0.1000872 -0.07923826 0.042031016 -0.14930707 -0.057035383 -0.10285133 0.08816492
-0.09529512 -0.08322249 -0.094978884 -0.045005683 -0.00481256 -0.15249199 -0.081841104 0.062808275
0.0102226185 0.041828204 -0.08299929 0.022321373 -0.10249576 0.1256031 0.08168351 -0.081782095
0.057408318 0.12383138 0.081297606 -0.071619 -0.063118696 0.09689644 -0.032689746 0.0038954103
00000000: a332 e93d b3cf 6fbd ac8d 07be 0370 dc3d
00000010: c144 9a3d 6e13 25bc af93 c0bc f085 d1bd
00000020: 446f 163c b876 0dbd 2f0c 16bd f327 d73d
00000030: b399 c9bd b1a2 b1bd bd76 083e 8c7a bdbb
00000040: ec07 043e f75a 99bd 3c14 f1bb 9e4a c8bd
00000050: e91e 033e f601 903b 0b3a afbc 3a82 23bd
00000060: 6638 373c d5ef 453c 4240 633d 2506 423d
00000070: 62a7 913d 7b79 433d 77ae de3d a727 a0bd
00000080: 64cb 763d 85fa cc3d ab47 a2bd b728 2c3d
00000090: f4e3 18be ef9d 69bd b8a3 d2bd cf8f b43d
000000a0: 162a c3bd 8e70 aabd 4a84 c2bd e157 38bd
000000b0: aeb2 9dbb dc26 1cbe 4f9c a7bd a0a1 803d
000000c0: c57c 273c 0d54 2b3d 88fb a9bd 50db b63c
000000d0: 4ce9 d1bd 199e 003e af49 a73d 5f7d a7bd
000000e0: fc24 6b3d 4e9b fd3d 5c7f a63d fbac 92bd
000000f0: 6044 81bd a471 c63d afe5 05bd 244a 7f3b

action_head.weight f4 [5, 64]
-0.08147522 -0.07574628 -0.04490674 0.08144166 -0.104128204 -0.030873619 -0.052366372 0.08088309
0.0982488 0.042078096 0.0008196898 0.122694455 0.12379819 0.11924093 0.054754898 -0.016889755
-0.100920394 -0.016263496 0.12549159 -0.08683153 0.026048275 -0.114092916 0.07074675 0.024591994
0.11945569 0.03827494 -0.08975597 0.04047194 0.01413172 0.03570736 -0.10940112 -0.098833136
-0.016709069 -0.07874607 -0.060075577 0.010274572 -0.038181145 0.04051767 -0.120522425 0.019276649
-0.12709698 -0.043918207 -0.013317283 0.04733294 -0.08446034 -0.06278675 0.10361337 -0.058526114
-0.10079384 -0.109948486 -0.05114407 0.08342797 0.044475466 -0.07123442 0.0045711976 0.09116037
0.101802334 0.059919715 0.07361871 0.11311863 -0.056648917 0.09275597 -0.018972177 0.0098328935
0.058739945 -0.11167657 -0.08948148 -0.011616758 0.15332238 0.061395887 0.014492804 0.072037555
0.0011520556 0.13073553 0.07594823 -0.10694236 -0.0067825913 -0.053733546 -0.08586058 -0.073589
0.057967965 -0.082732685 0.10860621 -0.11810251 -0.00963258 -0.13422033 -0.05249711 -0.10428425
-0.06048231 -0.012695267 0.062234554 -0.04910693 -0.08342306 0.033109736 -0.04076839 0.12228697
-0.03279724 0.09548173 0.08579424 0.0031675117 -0.03554267 -0.10921595 -0.09035322 -0.07715832
0.062647514 -0.10881452 -0.1297311 0.08759873 0.027688436 0.034079485 -0.13249832 -0.07438631
0.034458883 -0.11111517 -0.12782949 0.12338761 -0.058465846 0.06973309 0.051140834 0.1192583
0.10420108 0.059014674 -0.033932753 -0.13070677 -0.11002748 0.04085271 0.040845502 0.09756727
-0.009882437 0.019196736 0.10936837 -0.11940386 -0.06420794 -0.07074743 0.10603163 0.04739145
-0.14829351 -0.056772526 0.007671648 -0.1268906 -0.08810806 -0.14209877 -0.0784066 0.031934794
-0.06650403 -0.04846668 -0.037995018 0.004553534 -0.12346729 0.14865753 0.05816678 0.042056683
-0.124842174 -0.13210942 0.0707861 -0.10351777 -0.11215072 -0.028184464 -0.06834629 -0.063149534
-0.01173555 0.08992032 0.12933388 0.0012540857 -0.08246423 0.091905385 0.0018124377 0.0361024
-0.02827706 -0.07676929 -0.015198482 0.056417476 -0.06948111 0.16050568 -0.044282597 0.12019586
-0.029943358 -0.07903501 -0.0023962874 -0.08851909 0.09907442 0.057895035 0.048866846 -0.06810487
-0.0463179 -0.025146505 -0.05060402 -0.08254071 -0.0998908 0.06951565 0.085646555 -0.1000905
0.072468445 0.13350698 0.013836848 0.08395158 -0.05104623 0.1167355 -0.072014645 -0.107267365
0.15729712 0.018855864 0.045748185 0.034096826 0.062968574 0.120282 0.13651566 -0.036940087
0.08081321 0.11839907 -0.017548455 -0.0031356297 0.09180315 0.07496965 0.0335287 -0.05530031
0.021029783 -0.06681201 0.062092017 0.0035702512 -0.09249836 0.07368899 -0.00852213 0.048436448
0.013499845 0.113514595 -0.103513926 0.08567526 -0.090284795 -0.02519121 -0.14518143 0.09312292
-0.120237745 -0.039505385 -0.1120571 0.06550394 0.01527404 -0.101412535 -0.076270826 0.000960035
0.13884698 -0.021808349 0.021504598 0.0532569 0.02873223 0.044819575 -0.019729046 0.04732973
-0.0012809023 0.09521458 -0.017526716 -0.00632356 -0.007945844 0.031098707 -0.07460476 -0.09041146
00000000: 7bdc a6bd de20 9bbd 21f0 37bd e3ca a63d
00000010: 2b41 d5bd acea fcbc 1f7e 56bd 09a6 a53d
00000020: ab36 c93d 155a 2c3d 74e0 563a 3b47 fb3d
00000030: e889 fd3d 9734 f43d ac46 603d 625c 8abc
00000040: 5aaf cebd 063b 85bc de80 003e bbd4 b1bd
00000050: 3163 d53c 8ca9 e9bd ace3 903d 2675 c93c
00000060: 2fa5 f43d 2fc6 1c3d fad1 b7bd e8c5 253d
00000070: bb88 673c e141 123d b20d e0bd 0769 cabd
00000080: 75e1 88bc 9f45 a1bd cf11 76bd ae56 283c
00000090: d563 1cbd dbf5 253d 76d4 f6bd 10ea 9d3c
000000a0: b625 02be 94e3 33bd bc30 5abc 2fe0 413d
000000b0: 8bf9 acbd 5796 80bd 3f33 d43d 14b9 6fbd
000000c0: 006d cebd ac2c e1bd 727c 51bd 49dc aa3d
000000d0: e82b 363d 5ae3 91bd fcc9 953b 4ab2 ba3d
000000e0: be7d d03d 606e 753d 68c5 963d beaa e73d
000000f0: b208 68bd d8f6 bd3d 8a6b 9bbc 251a 213c
00000100: 4c99 703d afb6 e4bd 1142 b7bd 3754 3ebc
00000110: 8b00 1d3e 417a 7b3d 3a73 6d3c 6d88 933d
00000120: 9200 973a 89df 053e bf8a 9b3d 9904 dbbd
00000130: 8040 debb b517 5cbd acd7 afbd d4b5 96bd
00000140: d16f 6d3d c16f a9bd ef6c de3d bbdf f1bd
00000150: f8d1 1dbc 0e71 09be 3607 57bd fb92 d5bd
00000160: 4cbc 77bd cfff 4fbc a9e9 7e3d 5924 49bd
00000170: b6d9 aabd 139e 073d c1fc 26bd 9771 fa3d
00000180: 6656 06bd ed8b c33d e4b4 af3d 0796 4f3b
00000190: 3195 11bd 9dac dfbd 1c0b b9bd 2e05 9ebd
000001a0: 574d 803d 26da debd 3bd8 04be f766 b33d
000001b0: dcd2 e23c ee96 0b3d a4ad 07be da57 98bd
000001c0: c224 0d3d 5a90 e3bd bce5 02be a5b2 fc3d
000001d0: e279 6fbd 39d0 8e3d 0d79 513d b23d f43d
000001e0: 6067 d53d 5fb9 713d 12fd 0abd ffd7 05be
000001f0: 1656 e1bd 2c55 273d 9d4d 273d 59d1 c73d
00000200: f2e9 21bc 7942 9d3c 86fc df3d 038a f4bd
00000210: 747f 83bd 07e4 90bd 1c27 d93d 891d 423d
00000220: 41da 17be 4f8a 68bd 7362 fb3b 9cef 01be
00000230: 0072 b4bd 5782 11be a493 a0bd 0fce 023d
00000240: 4433 88bd ff84 46bd aaa0 1bbd d035 953b
00000250: 6bdc fcbd ae39 183e 4a40 6e3d a143 2c3d
00000260: 41ad ffbd b147 07be 4ef8 903d 2001 d4bd
00000270: 47af e5bd 1be3 e6bc 24f9 8bbd 8b54 81bd
00000280: 7746 40bc 2528 b83d 1a70 043e 2260 a43a
00000290: 02e3 a8bd e438 bc3d 518f ed3a 1ce0 133d
000002a0: 4ba5 e7bc 3839 9dbd 0e03 79bc 0316 673d
000002b0: 1d4c 8ebd 9a5b 243e ab61 35bd 3f29 f63d
000002c0: c64b f5bc 1bdd a1bd 080b 1dbb 7f49 b5bd
000002d0: 88e7 ca3d 5823 6d3d 9a28 483d 917a 8bbd
000002e0: d7b7 3dbd 0b00 cebc 2946 4fbd 1b0b a9bd
000002f0: 8c93 ccbd 395e 8e3d 7667 af3d 40fc ccbd
00000300: 566a 943d 0eb6 083e f2b3 623c ceee ab3d
00000310: da15 51bd 0613 ef3d 6a7c 93bd feae dbbd
00000320: 7f12 213e 9d77 9a3c 7362 3b3d 1da9 0b3d
00000330: abf5 803d 6956 f63d c3ca 0b3e 7d4e 17bd
00000340: 6581 a53d 367b f23d c7c1 8fbc 237f 4dbb
00000350: 4a03 bc3d b089 993d 6455 093d 9482 62bd
00000360: a746 ac3c bcd4 88bd 3354 7e3d e0fa 693b
00000370: c86f bdbd 41ea 963d 67a0 0bbc 4c65 463d
00000380: 742e 5d3c 577a e83d 1cff d3bd 8376 af3d
00000390: 3ce7 b8bd cc5d cebc 71aa 14be 3bb7 be3d
000003a0: 353f f6bd 66d0 21bd 317e e5bd ee26 863d
000003b0: f83f 7a3c 60b1 cfbd e133 9cbd dcaa 7b3a
000003c0: e72d 0e3e 6ca7 b2bc 692a b03c e823 5a3d
000003d0: db5f eb3c bb94 373d cf9e a1bc d2dc 413d
000003e0: f3e3 a7ba ddff c23d 3094 8fbc de35 cfbb
000003f0: 492f 02bc b7c2 fe3c 61ca 98bd a529 b9bd

action_head.bias f4 [5]
-0.09537333 0.056734424 -0.057221934 0.14012705 -0.0013161361
00000000: 1853 c3bd 5b62 683d 8c61 6abd 777d 0f3e
00000010: 3382 acba

value_head.weight f4 [1, 64]
0.009526774 -0.060135983 0.12939031 0.015480321 0.047208462 0.038099203 0.081780724 -0.094505616
-0.07033265 0.06674613 0.069886856 0.08923275 0.123299316 0.10087111 -0.116706364 -0.020034622
-0.09122135 -0.092295505 -0.10966337 -0.063960314 0.019022672 -0.023980398 -0.111165054 0.10316223
0.040785477 0.10616837 0.020582646 0.06786641 0.033271007 0.07828504 -0.09562744 -0.037043914
-0.1240305 0.044716846 0.12388427 -0.08559032 0.034352195 0.037861675 0.09442722 -0.09054366
-0.081633195 0.04530272 -0.10632371 0.026857296 0.10690352 0.023748748 0.029260807 -0.09439993
-0.05202751 -0.09085286 -0.020627055 -0.11090845 0.09711666 -0.041240737 0.048828077 0.030026445
0.006600904 0.08356069 0.08103086 0.02477556 0.092016086 -0.090986274 0.06569678 0.005322127
00000000: 3016 1c3c 2651 76bd e57e 043e 2ca1 7d3c
00000010: a95d 413d e90d 1c3d a77c a73d 298c c1bd
00000020: 900a 90bd 32b2 883d d720 8f3d a9bf b63d
00000030: 5a84 fc3d 8395 ce3d bf03 efbd a61f a4bc
00000040: 42d2 babd 6d05 bdbd 3097 e0bd a0fd 82bd
00000050: 6fd5 9b3c 8a72 c4bc 81aa e3bd b846 d33d
00000060: ac0e 273d cd6e d93d f09c a83c 8bfd 8a3d
00000070: 2e47 083d e853 a03d 52d8 c3bd 5cbb 17bd
00000080: b403 febd 0329 373d 09b7 fd3d fa49 afbd
00000090: e3b4 0c3d d814 1b3d 0f63 c13d f46e b9bd
000000a0: 4e2f a7bd 588f 393d 3fc0 d9bd d503 dc3c
000000b0: 3cf0 da3d bc8c c23c 5cb4 ef3c c054 c1bd
000000c0: cc1a 55bd 1011 babd 12fa a8bc f823 e3bd
000000d0: 19e5 c63d 0cec 28bd f3ff 473d 05fa f53c
000000e0: 654c d83b de21 ab3d 82f3 a53d 1df6 ca3c
000000f0: ee72 bc3d 0357 babd 098c 863d 3d65 ae3b
