2022/20-华立民 指导老师-马里佳/code/tests/2-agents_domain-PredatorPrey-2_adversaryratio-0.75_RADAR_X_2022-11-30-23-11-28/protagonist_model.pth (torch, 52943 bytes, 7 tensors)

fc_net.fc_net.0.weight f4 [64, 125]
00000000: f31b 63bd b983 abbd da79 69bd 2955 91bd
00000010: 96e6 503d 8afd 273d 810d a93d d098 c23b
00000020: b6d7 113d 8083 98bd 966d 7d3d 188d ca3c
00000030: 9bf1 e7bc f6c0 b5bd 3246 413d 6fbe 15bd
00000040: 3844 8a3c e7d0 9d3d 9ac4 483d f9d0 5dbd
00000050: c086 9cba a07f 2dbd bc9d 59bd 48c1 6cbc
00000060: 36db ecbc 3f20 2b3d fc5e cabc 6a00 95bd
00000070: fefc 983c 63eb d4bc d6c4 7db8 fe99 82bd
00000080: dd81 78bd 5c55 6abd a4e9 063d e3eb 4e3d
00000090: dc6d 32bd 7126 01bc f667 bc3c 3fd5 1c3d
000000a0: 6fe1 a4bb a21e 093c 5b07 ad3c e846 233d
000000b0: 39bc 193c b47e 7a3d dca5 eb3c 3e01 acbc
000000c0: ce5d 01bb 01d2 8c3c d7f1 333c 9917 003d
000000d0: 9be1 b13d 2033 2dbd 57a0 8dbd 86b8 a8bc
000000e0: f822 97bd 50b4 03bd 8809 9bbd 4c27 babd
000000f0: 97ec 443b 6bf2 7fbd c37e c53c 047e 90bb
00000100: aeb9 9cbc cdc3 b53c 7204 043d 91ef 17bc
00000110: 851b 3d3c 6418 983d 348e 503d e196 a33d
00000120: cf6c 393d fe9f 92bd 786e 983d 5278 a13c
00000130: 0ab1 903d faf0 bc3c a732 383d b9d1 cebb
00000140: 8cb6 ecbc 7a06 5fbd 000f d3bc f6ad a3bd
00000150: a278 8b3d 04bd 053d af30 e1bc 5678 583d
00000160: 77c4 283c 315c 5e3d 2aae a1bd 2289 e33c
00000170: 0d83 833d 792f 98bd 9cf6 3fbd 9f82 ecbc
00000180: 79b2 443d 455b c63d 5c73 8abd 6d28 01bd
00000190: f9ed 843d d006 63bc caa8 5d3d c600 523d
000001a0: f669 6ebd dc71 993c a2b7 fbbc 3094 5cbd
000001b0: 29dc 913d 608c e9bb 96e2 663d 0cfa ac3c
000001c0: a6be 03bd 3fdc a63d b8e8 24bd c8c8 833c
000001d0: c05f a23c 7cd0 c83c 3410 a83c 9832 a73c
000001e0: 7902 913d 045b cb3c 2042 89bd b0ca bb3c
000001f0: 0c43 063d 5472 a8bc caa2 653d 6184 a63d
00000200: d89c 58bd a5a2 a7bd a4e5 debc 0875 5f3c
00000210: 70a9 28bc edb4 803d 68a6 9fbc f07d 0abc
00000220: 87df 04bd cb4f 88bd 7adb 8bbd b895 2cbc
00000230: 6819 0a3c 007d 763a 409a b53a 1081 d8bc
00000240: 8642 693d 3663 2a3d d290 313d 009c d5bc
00000250: 61e1 a3bd be7b 99bd e951 adbd a4b8 94bd
00000260: d654 a43b 1b67 14bc 5e6a cc3c 2ea3 a03c
00000270: a44f b33b eb6d 5fbd eec7 77bd d3cd 803d
00000280: 76b1 4b3d fb43 bb3c 695e 0a3d 1fa4 653d
00000290: d51b 35bd ce5e f33c b82a c23d f16d a3bd
000002a0: d7e0 983d d593 88bd f674 2f3b b8eb 9bbd
000002b0: adaa 953d 7900 c1bd b210 493d 3468 623d
000002c0: 5da4 94bc dbff d6bc be6f 90bd fe3a aa3b
000002d0: d6fd 95bd 0c3b 7cbd f6a2 433d bc0f f53c
000002e0: cdb6 d9bc 841d b4bc 98c8 093d 0c9c 223b
000002f0: e9de e4bd 4d99 123d 71a7 8d3d 0481 bdbd
00000300: 74aa db3d cded a4bd 9037 5e3d 6e97 b73d
00000310: a351 b43c d506 2b3d 30ab 243d 59e3 81bd
00000320: 437e 0fbc ce94 953c df9b b3bc 7558 70bd
00000330: 2528 cf3a 4138 84bd 097e 90bd 5349 973d
00000340: 2672 253c b9ef 6e3d 5548 65bd 5e5c 123d
00000350: e060 e5bb 3459 69bd 64d4 cabb 23d0 b5bd
00000360: 69c3 a0bd 9b6b fabc c014 943d 05f8 183d
00000370: a415 b0bb 00e2 65bd 65c1 9d3d f298 92bc
00000380: a40a 93bd 9a08 4e3d 37c9 b33d 08ea 0dbc
00000390: 818f 823d b25c 723d 73d4 8fbd 1f93 8a3d
000003a0: 989e 973c 907c ab3c bcdd a8bd 9628 403d
000003b0: d0b1 c03c 4cdb 8fbd 6aa8 113d 8836 0cbc
000003c0: 90b9 9fbc d0bb 923b 65fe 8f3d 8344 803d
000003d0: fade 70bd aad3 393d 00aa b7b9 cbc1 4abd
000003e0: d046 eabb 72eb b3bd 2051 e23c c0a7 713b
000003f0: 7a84 18bd b3d4 823d a79a b63d 4ccc fb3c
-0.055446576 -0.083747335 -0.057000972 -0.07096321 0.051001154 0.041013278 0.08254529 0.005938627
0.03560611 -0.07446957 0.061872087 0.024725482 -0.028313449 -0.08874695 0.047186084 -0.036558565
0.016878232 0.077058606 0.04901562 -0.05415437 -0.0011942014 -0.04235804 -0.053128943 -0.014450379
-0.028913122 0.0417788 -0.024703495 -0.072754696 0.018675324 -0.025991147 -6.050322e-05 -0.06377028
-0.060670722 -0.05721031 0.03293766 0.050517928 -0.0435618 -0.0078827 0.022998791 0.038289305
-0.0050317566 0.00836912 0.021121671 0.039862543 0.009383255 0.06115599 0.028765611 -0.020996686
-0.001973975 0.017189981 0.010982952 0.031272504 0.08685609 -0.042285085 -0.06915348 -0.0205958
-0.07379717 -0.03215438 -0.07570177 -0.090895265 0.0030048245 -0.062487047 0.024108296 -0.0044095535
-0.019131508 0.022188092 0.032230802 -0.009273426 0.011542206 0.07426527 0.050916865 0.07987762
0.045269784 -0.07159422 0.07442945 0.019710694 0.070650175 0.023064125 0.04497018 -0.006311622
-0.028895639 -0.054449536 -0.025763988 -0.07992165 0.06810118 0.032650962 -0.027489034 0.052849136
0.010300747 0.05428714 -0.07894547 0.027775351 0.0642148 -0.0743093 -0.046866044 -0.028870879
0.048021767 0.09685377 -0.06760284 -0.031532694 0.06490702 -0.013856605 0.054116048 0.05127027
-0.05820652 0.01873105 -0.030727211 -0.05385226 0.0712207 -0.0071273297 0.056368433 0.021115325
-0.03216424 0.08147477 -0.040261 0.01608695 0.019821048 0.024513476 0.020515539 0.020409867
0.0708055 0.024823673 -0.067020655 0.022923797 0.032778785 -0.020562328 0.05606345 0.08130718
-0.052883953 -0.08185319 -0.02720911 0.013638742 -0.010294303 0.06284509 -0.019488528 -0.008452877
-0.032439735 -0.06655844 -0.06828971 -0.010533743 0.008428909 0.0009402782 0.0013855174 -0.02642873
0.056948207 0.04159852 0.043351002 -0.026075363 -0.08001972 -0.07494305 -0.08462889 -0.0726178
0.005014996 -0.009057785 0.024953064 0.01960906 0.0054721404 -0.054548185 -0.060493402 0.06289258
0.049729787 0.022859564 0.033781443 0.05606472 -0.044215996 0.029708292 0.09480804 -0.07979954
0.0746476 -0.06668822 0.0026772595 -0.07613319 0.073079444 -0.09423918 0.049088188 0.055275157
-0.01814478 -0.026245048 -0.07052563 0.0051950207 -0.07323806 -0.06157975 0.047762834 0.02991473
-0.026576424 -0.02198673 0.033638567 0.002481225 -0.11175329 0.03579073 0.069167025 -0.092531234
0.10725871 -0.080531694 0.054252207 0.0896443 0.022011584 0.041754562 0.04020232 -0.06342191
-0.0087581305 0.018259432 -0.021924911 -0.05867811 0.0015804811 -0.06456042 -0.07055289 0.07387032
0.010098016 0.058334086 -0.055977184 0.03573262 -0.007000074 -0.056969836 -0.0061898697 -0.088775896
-0.078497715 -0.030568888 0.0723052 0.037345905 -0.0053736735 -0.056123734 0.07702903 -0.017895196
-0.07179764 0.05030117 0.08778613 -0.008661754 0.063750274 0.059170432 -0.07022943 0.06766342
0.01850824 0.02093342 -0.082454175 0.046913706 0.023522288 -0.070242494 0.035561003 -0.008557923
-0.019497663 0.0044779554 0.07030944 0.062630676 -0.058806397 0.045367874 -0.0003503114 -0.04950122
-0.007149555 -0.08785142 0.027626574 0.0036873668 -0.037235714 0.063882254 0.08916216 0.030737065

fc_net.fc_net.0.bias f4 [64]
00000000: b8f9 9f3d 6401 ae3d 5533 f83c 1d83 2fbd
00000010: 6122 93bd e484 6e3c 9c50 39bd 1178 ab3d
00000020: ed5f 9c3d 6e3a b63b 8efb 89bd ade8 b0bc
00000030: e802 4d3d fbd5 9c3d 1606 d6bc e919 273d
00000040: ff32 9fbc f275 be3c 4f08 b03d 13b2 33bd
00000050: 9d66 3ebd deaf 72bd f061 713d e9b0 89bd
00000060: e6f4 2ebc fa15 dc3b a17d 983d 87ce 0ebd
00000070: 45db 3f3d eae1 86bc a0bb 9a3d 6f96 aebb
00000080: 669c 3e3d 942a a2ba 27bf 893d 1760 8fbc
00000090: 15fb a83b 5b98 b2bd 81f8 6abd eda2 4a3d
000000a0: 5047 adbb ffc7 473d 4c1a 55bd a7c9 b3bd
000000b0: b4b7 0dbc 9402 2f3c b6f1 303c f097 20bd
000000c0: 87be 8f3d bebf 6abd d52c 44bd 6273 0ebc
000000d0: 769c 9d3d 6a36 87bd 5a40 073d 669f 5fbc
000000e0: 6352 393d 5c7f 0bbc 0091 fb3b 224f 203c
000000f0: e01b 86bb 2e0b fabc 0501 723d 528f fdbc
0.07811302 0.08496359 0.030297915 -0.04284965 -0.07184292 0.014558051 -0.04524289 0.0837251
0.07635484 0.0055611646 -0.067374334 -0.021595323 0.0500516 0.07658001 -0.026125949 0.040796194
-0.019433497 0.0232496 0.08595335 -0.043870997 -0.04648458 -0.05924975 0.05893129 -0.06723196
-0.0106785055 0.006716487 0.07445837 -0.03486493 0.04683997 -0.016465146 0.07555318 -0.0053279917
0.046535872 -0.0012372308 0.067259125 -0.017501874 0.0051568844 -0.08720466 -0.057365898 0.049471784
-0.005288042 0.048774716 -0.05202703 -0.087786965 -0.008649755 0.010681767 0.010799816 -0.0392074
0.07018762 -0.057311766 -0.047894318 -0.008694502 0.07695858 -0.066021755 0.033020355 -0.013648843
0.045244586 -0.008514252 0.0076771975 0.009784492 -0.0040926784 -0.030522909 0.059083004 -0.03095213

fc_net.fc_net.2.weight f4 [64, 64]
00000000: 91ea f43d b98e 4fbd c8c8 463d 87d6 7ebd
00000010: 3111 bebb 2179 c03d 198f 2e3d 7dca 973d
00000020: ef6b a13d 1e21 a73d f439 b13d 1b0d 09bd
00000030: c217 c5bd 4dc1 403d 232f 843c 05a1 b8bd
00000040: 2deb a2bc deef c5bc 6596 933d e376 e63d
00000050: 412c 713d e55b cc3d edc6 c5bd c0e3 12bd
00000060: 69a1 c83d 02dd 9b3c 9e65 dbbc de5a 51bd
00000070: b4a0 dc3d a8ed a7bd b358 453d 0d89 e43d
00000080: 964a 543c 4578 b43d 7ec0 1c3d 4214 b33c
00000090: f3c6 9cbd 3a06 3ebb 9671 033d 46f0 583d
000000a0: afad 323d f4cf b93d 7b6d b7bb aabe 89bd
000000b0: f8f6 013e 754c aa3d 3401 aa3d 0426 f3bd
000000c0: 482c d83d f3f9 17bd 7129 e73c 06b3 373d
000000d0: 622e f53d 5c9b a33d 6ec4 c73b 7e34 b13d
000000e0: 5397 b7bd feca 77bb 7d3d be3d 659d e3bd
000000f0: 5252 343c 0ef4 bebd 157c 6a3d bb57 b6bc
00000100: c632 843d 3ce8 97bd 56e6 fc3c 6743 a43d
00000110: a244 393d 55da 013d 3a55 403d 06a3 473d
00000120: 33f8 27bc 9e78 1e3b 2ed6 eb3c c7ea 25be
00000130: cdba 353c 695c 873d cfa9 933d 23cb 1ebd
00000140: f4fa c43d 2413 c23d d1bd 9abd 912a fcbd
00000150: 6c90 c63d 46ad 533d 4c69 073d 8255 a9bd
00000160: 34e5 b63d 6a80 4c3c e721 853d 5124 60bd
00000170: 2284 3c3b 7ab9 bfbd 1b06 e93c 57d6 493d
00000180: f29e afbd 7a5a 9ebd c943 cfbc 8050 d2bc
00000190: 9d14 9a3d 61a9 bfbd b6a8 1abd 9d30 113d
000001a0: 75d1 e3bc 1e9e 9f3c 55af a73d 3b3d 953d
000001b0: 198d f2bd 2720 51bd 270a 103e 3fea fabd
000001c0: 286d 423c c6f9 b7ba 3c01 39bc 26bb e339
000001d0: 0323 ed3d 9908 f53d 1664 efbc 41ce 6cbc
000001e0: eee2 d7bd 5e74 d8bd a7e5 203b f4c2 76bd
000001f0: deb7 b0bd d719 c63c 7997 d33c 8103 063e
00000200: 0c7a ffbd 24fc b1bc d5d1 e23c 0902 fa3d
00000210: c22e c43d a712 813d 2cb9 bf3d 421d e2bd
00000220: 4612 ac3c 1384 cc3d aff0 16bd 4fc1 a53d
00000230: 4673 aebd 0857 443d caba 8dbd ddb0 aa3c
00000240: b41e 6c3d b692 d1bb 3b2b 743d 3481 6dbd
00000250: 50b7 adbd eb9a 75bd 6ffd b83d 8f62 28bd
00000260: 7201 1e3c 81ad e4bd 6d4e 043c 1aea 9d3d
00000270: 8bb0 943c 50c4 10bb 0050 5ebd a5e0 963d
00000280: eb7f a5bd 1052 523d b16e 583c c65f 01bc
00000290: cb3b e6bd 08d7 92bb bdbe 6d3d b29b f0bc
000002a0: c151 bb3b bad6 ba3d c11f a6bc a6b8 163d
000002b0: 1668 15bd e218 bfbd eafa 0ebc 96a9 553d
000002c0: fe97 ef3d 73da 39bd 23dd 64bd 554b 143d
000002d0: 8950 44bd 5936 833d 7914 8b3b 075d 303d
000002e0: 390f 4cbb f1db d1bd 8438 6d3c 7e0a 6abd
000002f0: c6e7 9c3d 542c a2bd 827e ee3b 341c 12bd
00000300: 2932 c6bd 7747 e0bc 469b fbbc 64dd 8cbc
00000310: eb9e 8f3d 34a6 00be 0710 9bbd ec87 92bd
00000320: 79e0 bdba e53e 1a3c 45e8 5bbd f901 e23b
00000330: 0f67 6abd 99aa d6bc fb08 9d3d d404 5ebd
00000340: f262 ce3c 4424 6d3c 456f 173d fb2f ff3c
00000350: 3737 aabd a83d 273d 89a9 63bd 65e9 0cbd
00000360: 30be afbd 5f16 e9bd d641 533c 6e7e bcbd
00000370: 740f f7bd 1e58 983d 72bb 9b3d 426f a03c
00000380: cacf 11be 4e72 f1bc 9e78 66bd 409d cdbd
00000390: dc19 82bd e6a0 dcbd 6747 c93d 72d6 8bbd
000003a0: 66a7 b7bd ee79 203d 8e2b acba 834e ef3d
000003b0: 71bf 433d 1814 c9bc 6275 5ebd 83a6 173d
000003c0: df73 97bd fc2c 85bd bd7d a33d b0b6 2e3d
000003d0: d409 963d 0a42 4bbd 6f0a 4bbd 8af8 c13a
000003e0: 9f93 44bd 961f 3e3d 9c9a b03a 5338 efbb
000003f0: c19e a8bd ac46 a2bc 88b6 ecbd 8bdb 91bc
0.119588025 -0.05067322 0.048531324 -0.062216308 -0.005800389 0.093981035 0.042616937 0.074116684
0.07881915 0.081606135 0.08653632 -0.033459764 -0.09623672 0.047059346 0.016135758 -0.09015087
-0.019887531 -0.02416223 0.0720642 0.112531446 0.058880094 0.09978465 -0.09657083 -0.03586173
0.097964115 0.019026283 -0.026781853 -0.05111205 0.10772839 -0.08199626 0.048180293 0.11158953
0.012957236 0.08812002 0.038269512 0.021860246 -0.07655134 -0.002899541 0.032090746 0.052963518
0.04362267 0.09072867 -0.005597768 -0.067258194 0.12691867 0.08315364 0.08301011 -0.11872485
0.10555321 -0.037103605 0.028218003 0.044848464 0.119717374 0.07988617 0.0060964143 0.0865259
-0.0896441 -0.0037810202 0.09289072 -0.11114005 0.011005955 -0.093238935 0.05724724 -0.02225863
0.06454997 -0.07417342 0.030871551 0.080206685 0.04523147 0.03170236 0.04695628 0.048739456
-0.010252046 0.002418078 0.028788652 -0.16202842 0.0110919 0.06609423 0.07210123 -0.038767945
0.09618178 0.09476307 -0.07555736 -0.123128064 0.09695515 0.05167892 0.033059403 -0.082682624
0.08930436 0.012481788 0.06500607 -0.054722134 0.002876528 -0.09361549 0.028445294 0.049276676
-0.08575238 -0.07732101 -0.025300877 -0.025673151 0.07523463 -0.09358478 -0.03775855 0.035446752
-0.027809838 0.019484576 0.08187739 0.072870694 -0.118433185 -0.051056053 0.14066373 -0.1225171
0.011866845 -0.001403623 -0.011291798 0.0004343625 0.115789436 0.119645305 -0.02922253 -0.014453472
-0.1054133 -0.1056907 0.0024550946 -0.060244516 -0.0862882 0.024182243 0.025829064 0.13087274
-0.124744505 -0.021726675 0.027687946 0.122074194 0.09579231 0.06302386 0.093614906 -0.11040737
0.021004807 0.09986129 -0.036850628 0.08093511 -0.085180804 0.047934562 -0.06920393 0.020836288
0.05764647 -0.006395663 0.05961154 -0.057984546 -0.0848223 -0.059962194 0.090327136 -0.041109618
0.009643899 -0.11165906 0.008075339 0.07710667 0.018150588 -0.0022089668 -0.054275513 0.07367066
-0.08081039 0.051347792 0.013209985 -0.007896369 -0.11241873 -0.0044812 0.05804323 -0.029371116
0.005716533 0.09122987 -0.020278813 0.03679719 -0.036476217 -0.09330918 -0.008726815 0.052163683
0.11698912 -0.045374345 -0.055874955 0.036204655 -0.047928367 0.0640685 0.004244384 0.043057468
-0.0031137003 -0.102470286 0.014478806 -0.057138912 0.07661395 -0.07918611 0.0072782645 -0.035671428
-0.09677536 -0.027377827 -0.030713689 -0.017195411 0.07012733 -0.12563401 -0.07571416 -0.07154831
-0.0014486454 0.009414409 -0.053688306 0.006897208 -0.05722719 -0.026204394 0.076677285 -0.054203823
0.025193665 0.014473978 0.03697135 0.031150809 -0.08311313 0.040830284 -0.055581603 -0.03440227
-0.08581197 -0.1138122 0.0128941145 -0.09203802 -0.12063494 0.07438682 0.07604112 0.019584302
-0.14239421 -0.02947345 -0.056267373 -0.10039759 -0.063525885 -0.107728764 0.09828072 -0.068280116
-0.089674756 0.03917878 -0.0013135539 0.11684897 0.047789995 -0.024545714 -0.054311164 0.037024032
-0.073951475 -0.06502721 0.07982967 0.042654693 0.07326093 -0.049623527 -0.049570497 0.0014798802
-0.047992345 0.04641684 0.0013473812 -0.0073004155 -0.08233405 -0.01980909 -0.115582526 -0.017804882

fc_net.fc_net.2.bias f4 [64]
00000000: eb94 03bc bfe1 18bd 1c71 8ebd 700d d5bd
00000010: 1677 d7bd e581 7f3d eb68 87bd 9798 ee3d
00000020: 46a8 cc3d b1e3 14bd 15a6 383d 006c 313d
00000030: 5351 773d fa8b 6b3d eac6 033e 511a ebbd
00000040: 6246 f03d 7735 903d f8ce 3ebd eb87 a5ba
00000050: 643b c9bc 5642 31bd b1df 7bbd 5766 4b3d
00000060: 104f fbbc f047 0a3e 71d9 1dba 5c79 c63d
00000070: 4103 823d cde0 ee3d 2d9f 713d 989d acbd
00000080: f56d dc3d cc76 a73d a5c2 ccbd e01f 4ebd
00000090: f42f 47bc 9063 b43d abe9 08bd 013f 193d
000000a0: 29c1 d53c 779b be3c 5a3e cdbd a501 913d
000000b0: a830 c43d ea04 8d3d db56 03be 030f 853d
000000c0: 4cd8 893d d9cc f7bd 30c2 9abd c209 053c
000000d0: ee7c dcbd a77a a43c 57c9 b3bd 1a4e ccbd
000000e0: a405 d5bd 687c 9a3d 373a 8f3d e372 ee3d
000000f0: dbe2 5ebd d8e8 37bc c684 cb3d 159a 99bd
-0.00803111 -0.037324663 -0.06955168 -0.104029536 -0.10520761 0.062379736 -0.066118084 0.11650198
0.09993033 -0.036349956 0.045080263 0.043315887 0.06038029 0.05750654 0.12868848 -0.11479629
0.117321745 0.070414476 -0.0465841 -0.0012629008 -0.024564452 -0.043276154 -0.061492626 0.049658146
-0.030677348 0.13504004 -0.0006021476 0.09691116 0.06348277 0.11663971 0.058989692 -0.08428496
0.1076316 0.081769556 -0.09998063 -0.050323367 -0.012157429 0.088080525 -0.03342597 0.0374136
0.026093083 0.02326749 -0.10021658 0.07080392 0.09579593 0.06885703 -0.12826101 0.06497004
0.067307085 -0.120996185 -0.075565696 0.008120002 -0.10766016 0.020078016 -0.08778637 -0.09975834
-0.104014665 0.0754326 0.069935255 0.11643007 -0.054415565 -0.011224948 0.09937434 -0.07500092

action_head.weight f4 [5, 64]
00000000: 4ada f63d 111e 153d d8fa d03d 7596 81bd
00000010: a4a1 5b3c ef67 d9bc 8811 0b3e 71e2 a6bd
00000020: 26ec 873d dd72 92bd bab1 c4bd fbd8 073c
00000030: 7f97 7a3d 1696 543d 9141 2c3d d7db 99bd
00000040: 08b1 83bd 28d4 f63b 4003 5ebd 1f11 d83d
00000050: 6167 6d3d 8d0b c23d bce5 6dbd 3dd9 363c
00000060: 9d68 01be 1d9b 0a3e 1bb4 083e 748f ac3d
00000070: d871 8b3c 8772 54bc f12e b3bd 0db0 70bc
00000080: 1926 653d 2048 e0bd 8f5b bd3d 5e3f 313d
00000090: fb56 953d 9c52 243d 8e6d 2abb 8a6a 8f3d
000000a0: 1dee eabd a80f b6bc 3e85 b439 6db1 cf3d
000000b0: e1c1 51bd eca6 91bd e42d ffbc 5d22 6abb
000000c0: dd65 42bd 6a64 0bbe 060b c83d c0f8 743d
000000d0: 3663 2b3d b997 e23d 044a bfbd e73b 0abc
000000e0: 2532 82bd 5d5e d43d 5577 d83d 797e 27bd
000000f0: a82c a6bd 2811 1b3d 6e34 a0bd 66e0 fcbd
00000100: f7cd e03d c824 1d3e 6251 a9bc c2d5 f9bd
00000110: 9910 adbd 0564 c33d a925 ccbd f645 8f3d
00000120: 71cf d43d df6e a93d 5de0 9a3d ba81 a03d
00000130: 16be 4fbd 9639 9fbd f517 103e 431b 2dbd
00000140: 5b57 cebd 82c7 6e3c 9b25 b4bd 9f3b 7abd
00000150: e6e8 c9bd 8779 383d 4c84 a9bd a08a 16bd
00000160: 8d06 a7bd fa4d f43d 2486 97bd 17ea fdbd
00000170: 4b63 90bc 2864 b3b9 709b b3bd eb73 72bd
00000180: ebbc a9bc 179f f53c 6e5e f6bc 38d2 c0bc
00000190: 7363 94bd 9e78 f33d d465 0b3e a37e de3c
000001a0: 8c75 ee3c 94e6 68bd 3cbc c8bd b22b 2abd
000001b0: 85bd 4ebd cef7 89bd d44e e23c eba5 a53d
000001c0: 19ff 60bb b53b 68bd 8abf 593d 8a4e d4bd
000001d0: 7a5a dabd 1539 d6bc feea 3a3d e02d 66bc
000001e0: dcf6 90bd 1aa2 88bd 41f4 013e e1c6 b2bd
000001f0: afa0 9c3d cdb7 1e3c 9d97 083d 2499 c2bb
00000200: 9ec0 053c ac52 573d 3651 87bd 0c92 593d
00000210: f638 b93d 93ae c5bd e1e5 bfbd 5807 dcbd
00000220: 1d28 0c3d 6386 d4bc 0e9f 60bc 9da7 d5bc
00000230: 7741 ecbd 16ba cabc 540f bb3b cca3 0cbd
00000240: df0c 06be 23a0 83bd fc96 833d 62e9 363a
00000250: 3ed2 bebc 651a 6b3d f139 97bd a73f dcbd
00000260: 2d31 113e decb 8039 eb35 c7bb a970 0e3d
00000270: bb0a d2bd 9db6 9ebd 179a c3bd 3509 34ba
00000280: d38f 9abd 0aa1 26bd 64e1 823c f6fb 0b3e
00000290: 2f50 54bd 4977 71bb f8a6 8b3d 84cc a43d
000002a0: a86a c53d 7c93 7cbc 6a29 db3d 82dc 81bd
000002b0: 451a 0dbd 3e0f 0ebd 52ed e53d 71f6 393d
000002c0: c302 92bd 0f5a f2bc 7d26 023e b78b 343d
000002d0: b4bf 0a3e 5861 c8bd 40d1 313d c0b0 9dbd
000002e0: ef02 87bc 407c e03d 3fe1 02bc f802 8dbd
000002f0: c80d c1bc 48e4 e0bd fd64 a2bd 66eb 463c
00000300: 4f84 0c3d faad 1e3d 6e31 1a3d 4cb2 bd3c
00000310: b225 933c 973b 98bd 6f4f 81bd de50 56bd
00000320: 1368 453d d322 8e3d 3399 fd3c 19a4 babd
00000330: 2c21 f0bd 7776 dd3d d697 043d 9bdd 853c
00000340: 802e d93c 8abe d6bc e557 dbbd 1ec4 6b3d
00000350: 43ad 8abc 3e09 bebd a823 03bd 4686 f23d
00000360: a023 f2bd 9182 0e3d c1bd a53d 0b85 bd3d
00000370: a2bb 0dbc 47ca dc3d 25a1 febd c610 24bd
00000380: b307 edbd 5e27 433d b109 c3bb e8c1 4a3d
00000390: 282a bbbc 3c05 643d 9467 b43d 12fc f3bd
000003a0: c598 9c3d 1f30 b6bd ff09 003e a622 87bc
000003b0: 2860 d73d 9404 3bbc 0f23 9a3d 85aa fb3d
000003c0: a0a4 153d 217c 4d3c 447a c73d 8321 d0bd
000003d0: 2acf b13d dc2c 67bd ad55 c4bc 9ac1 f1bb
000003e0: cbe2 7c3d 61f8 4a3d c80b 92bd 0694 22bd
000003f0: 81fa 313d a340 d63d 73ec 0fbd 91e9 5dbd
0.12053354 0.036405627 0.10204095 -0.063275255 0.013405237 -0.026538817 0.13580906 -0.08148659
0.066368386 -0.07150815 -0.09604211 0.008291478 0.061179634 0.051900946 0.042054716 -0.07512634
-0.064302504 0.007532615 -0.05420232 0.105501406 0.057959918 0.094748594 -0.05808042 0.011160192
-0.12637563 0.13535734 0.13349955 0.08425799 0.017022058 -0.012966759 -0.08749188 -0.014690411
0.055944536 -0.10951257 0.09245979 0.043273322 0.07291981 0.040117845 -0.002600524 0.070027426
-0.11471198 -0.022224262 0.0003443155 0.10141263 -0.051210288 -0.07111916 -0.031149812 -0.0035726049
-0.047460426 -0.13612524 0.097677276 0.05980754 0.04184266 0.11064095 -0.09340289 -0.008437133
-0.063572206 0.10369561 0.10569636 -0.040892098 -0.08113986 0.03785816 -0.078225 -0.12347488
0.10976785 0.15346062 -0.02066869 -0.12198974 -0.084504314 0.095405616 -0.099681206 0.06995766
0.10391129 0.082731 0.07562325 0.078372434 -0.05071839 -0.077746555 0.14071639 -0.042262327
-0.100752555 0.014573934 -0.08796235 -0.061092015 -0.09858875 0.045037773 -0.08277187 -0.036753297
-0.08155546 0.11928935 -0.07398632 -0.12398165 -0.017625472 -0.00034216163 -0.08769882 -0.05919258
-0.020719966 0.029983087 -0.030074324 -0.02353774 -0.07245531 0.1188824 0.13613063 0.027159994
0.029108785 -0.05686052 -0.09801528 -0.041545577 -0.05047371 -0.06736718 0.027625479 0.08088287
-0.0034331738 -0.056697566 0.05316118 -0.10366543 -0.10661788 -0.026150266 0.045634262 -0.014049023
-0.07078335 -0.066715434 0.12690832 -0.087293394 0.076478355 0.009687376 0.033347715 -0.005938666
0.008163599 0.052569076 -0.06607287 0.053117797 0.090440676 -0.09652438 -0.09370018 -0.10743588
0.034217943 -0.025942987 -0.013709797 -0.0260809 -0.11535924 -0.024746936 0.0057086144 -0.034335896
-0.13090847 -0.06427028 0.06425282 0.0006977526 -0.02329361 0.05739822 -0.07384098 -0.10754328
0.14178915 0.00024565955 -0.0060794256 0.03477541 -0.10255953 -0.077496745 -0.09550875 -0.0006867827
-0.075469635 -0.040680923 0.015976615 0.13670334 -0.05183428 -0.003684478 0.06818956 0.08046821
0.09639484 -0.015416022 0.107012585 -0.06340887 -0.03444888 -0.034682505 0.11226906 0.04540104
-0.07129433 -0.029583959 0.12709995 0.044078555 0.13549691 -0.09784192 0.043412447 -0.07699728
-0.016480891 0.10961199 -0.007988273 -0.06885332 -0.023566142 -0.10981041 -0.07929418 0.012141084
0.034305867 0.038740136 0.037644796 0.023156308 0.01796231 -0.07433241 -0.06313979 -0.052323215
0.048194956 0.06940236 0.03095684 -0.091133304 -0.11725077 0.10813611 0.032371365 0.016341021
0.02651143 -0.026213903 -0.10710124 0.05756008 -0.01692832 -0.092791066 -0.032016426 0.11842017
-0.11823201 0.034792487 0.08092833 0.092538916 -0.008650692 0.10780769 -0.1243308 -0.04005506
-0.11573734 0.047644965 -0.005952083 0.04950133 -0.02284725 0.055669054 0.088088185 -0.11913313
0.07646326 -0.08895897 0.12503813 -0.016496014 0.10516387 -0.011414666 0.07526218 0.122883834
0.03653395 0.012541802 0.09740117 -0.10162642 0.086820915 -0.056439266 -0.023966635 -0.0073778154
0.061739724 0.04955328 -0.07131153 -0.039691947 0.04345179 0.10461547 -0.035137605 -0.054177824

action_head.bias f4 [5]
00000000: e65a b93c b32e 95bd ecdf dd3b 1d5a d43b
00000010: 8da1 c9bd
0.022626352 -0.07284298 0.0067710783 0.006480469 -0.098452665

value_head.weight f4 [1, 64]
00000000: 6c9d c33d b6a6 85bc a2cd f1bd 5309 8a3d
00000010: fe17 fabd 2884 bb3d 382c 7c3d 47a9 ac3b
00000020: 8920 a73d 3a3d 94bd 4a16 98bd ef58 b5bd
00000030: 580d d73d 5551 6bbc dc69 ab3c 7e1c b8bd
00000040: b4eb 563d 4699 d4bd e9f5 f8bd 83d6 9cbb
00000050: 1aed 353b fd2f a03b 2457 80bd b61f e8bd
00000060: 2c21 b53d 9b52 723c b6a9 7b3c 3c79 3d3d
00000070: 17a5 8e3a d11b 18bd e2fd 003d 0c71 d03d
00000080: 0c81 8c3c 3018 d73d d093 b1bd f544 9d3d
00000090: 80be cbbc a579 8cbd 7973 a9bd 7113 ca3c
000000a0: cbe2 433d ef4f 8dbd 8354 883d 6295 38bc
000000b0: 182f f73c 6a6a 303d e517 d63c c861 c13d
000000c0: 4eff 3cbd 45a2 ac3b cb32 2e3d 3770 94bd
000000d0: d280 eabd 28a1 b83d be2c 56bd f6c4 883c
000000e0: f7d4 dcbd 8962 273c 1b65 ca3d a555 c4bd
000000f0: bcf2 d2bd 0cf7 45ba 6586 2cba 00e3 8b3c
0.0955151 -0.016314846 -0.118067995 0.0674006 -0.122116074 0.09156066 0.061565608 0.005269203
0.081605025 -0.072382405 -0.07426126 -0.08854853 0.10500592 -0.014362653 0.020924501 -0.089898095
0.052470878 -0.10380797 -0.12156279 -0.004786314 0.0027759732 0.004888533 -0.06266621 -0.113341734
0.08844218 0.0147902025 0.015360286 0.046258196 0.0010882941 -0.037135903 0.03149212 0.10177812
0.017151378 0.1050266 -0.08670771 0.07679168 -0.02487111 -0.06859139 -0.08273978 0.024667474
0.04782371 -0.06900012 0.06656744 -0.011266084 0.030173823 0.043070234 0.02613444 0.094424784
-0.046141915 0.0052683675 0.04252891 -0.07247966 -0.11450352 0.09015113 -0.052288763 0.01669548
-0.10782807 0.010216364 0.098825656 -0.09586648 -0.10300204 -0.00075517665 -0.00065813056 0.017076015
