2022/20-华立民 指导老师-马里佳/code/tests/2-agents_domain-PredatorPrey-2_adversaryratio-0.5_RADAR_X_2022-11-30-23-07-11/adversary_model.pth (torch, 52943 bytes, 7 tensors)

fc_net.fc_net.0.weight f4 [64, 125]
0.079292215 0.023824029 -0.027769674 -0.031435996 0.08229036 -0.020722821 0.08471022 -0.042440757
0.05634316 0.083670445 0.08304503 0.060751863 -0.11881233 0.031212524 0.034294285 0.02709809
-0.005352378 0.055629946 -0.040545292 -0.026323862 0.049189843 0.052778773 -0.07985482 0.057983182
-0.018435337 -0.022525428 0.0009321959 -0.007926395 0.0124932155 0.02888814 -0.036255874 -0.0080054505
-0.031253144 -0.07852435 0.0018050845 0.045524478 -0.0894605 -0.09465366 -0.0357711 0.012374384
-0.067958996 -0.061078407 -0.015411395 0.04762734 -0.04395193 0.03365731 -0.07301645 -0.019311326
0.04522108 -0.053474575 0.04024886 -0.059072923 0.012991465 -0.0005857521 -0.06980036 0.038134784
0.075927675 0.02695459 0.027287088 -0.103433184 -0.04946653 0.028714374 0.06023394 -0.06540784
-0.062453754 -0.013329492 0.003406183 -0.018244244 0.012174936 -0.053358342 0.07372489 0.016201673
0.06362991 0.060424518 -0.039128788 -0.1107537 -0.018403566 0.013506271 0.02640282 -0.04454995
0.020216139 -0.042827476 -0.04360375 -0.032800846 0.00097185466 -0.107080966 -0.06463155 0.0326235
0.0023457443 0.0371155 -0.036587864 0.045421157 -0.029088384 0.010627613 0.034988835 -0.018563103
-0.02645491 -0.020979209 -0.072931856 0.018319845 -0.009145804 0.04206694 0.051251255 0.042272247
0.01637061 -0.06492858 -0.046758562 -0.0006284639 0.03163548 0.071361355 -0.0138343945 0.03806644
0.0073204935 0.026978612 -0.07276125 -0.08112641 0.02763278 -0.062616706 -0.009034798 -0.015205927
0.071950726 -0.068470456 -0.08370283 -0.08390419 0.04908202 0.01886645 -0.053893063 -0.075295314
0.053239994 0.03303829 0.02122058 -0.08906009 0.0026448295 0.0018040687 -0.03915709 -0.07090136
-0.0037363917 -0.07926977 0.014947422 0.023084968 -0.066178754 -0.08369076 -0.0509626 -0.08104273
0.038569324 0.06272174 0.082231395 0.040384375 -0.038742363 -0.021161117 -0.018668063 -0.025160395
0.03754123 0.004876286 0.0046206475 -0.07511256 0.004043243 -0.013154293 -0.017571006 -0.079704136
-0.08167318 0.006067704 -0.0129481945 -0.08013784 0.06894394 0.037647326 -0.006979467 -0.05356184
-0.045349877 0.021586346 0.06298723 -0.013097242 0.016456174 0.0007908326 0.10144604 -0.10280051
-0.06430188 -0.095848456 -0.023715952 0.053957906 0.027209332 -0.06694815 0.046537057 -0.08630322
-0.086937025 0.07118626 0.012844522 -0.05924493 -0.028458215 -0.06836382 -0.00020465461 -0.00014810718
0.05691914 0.007241668 -0.08630946 0.010120187 0.036931414 0.08198632 0.07669473 0.0049310736
-0.030023206 0.0040322077 0.002361769 0.055187497 -0.05130949 -0.12117566 0.011250768 0.003814105
-0.07972522 -0.054844357 -0.0056020487 -0.06037351 0.04217767 -0.0858994 0.08737311 -0.07171127
-0.0883328 -0.034686867 0.07448006 0.07673668 -0.0062637483 0.037317812 -0.095512584 -0.031990066
0.027740901 -0.07280857 0.04591494 0.042859264 0.0889863 0.07859499 -0.085508786 -0.03573773
-0.08345747 0.06884351 -0.0365546 -0.053422555 -0.07520492 -0.048200622 -0.026463933 -0.060036443
0.015325874 -0.060323294 0.03734965 -0.053058304 -0.014742278 0.064413406 0.06749565 -0.02180297
-0.085137695 -0.022975817 -0.07877818 0.07763428 -0.08876776 -0.017701946 -0.05121276 0.08904258
00000000: f563 a23d 9c2a c33c 3a7d e3bc 08c3 00bd
00000010: d987 a83d e8c2 a9bc 8d7c ad3d 5cd6 2dbd
00000020: 16c8 663d 695b ab3d 8313 aa3d f2d6 783d
00000030: e153 f3bd 68b1 ff3c 2a78 0c3d d0fc dd3c
00000040: 0063 afbb 3adc 633d d212 26bd 24a5 d7bc
00000050: 4a7b 493d 8e2e 583d ed8a a3bd c67f 6d3d
00000060: b405 97bc 3f87 b8bc 9c5e 743a b6dd 01bc
00000070: 58b0 4c3c d2a6 ec3c 0a81 14bd 4b29 03bc
00000080: 4c03 00bd 60d1 a0bd 9698 ec3a e077 3a3d
00000090: 1137 b7bd c7d9 c1bd b884 12bd eebd 4a3c
000000a0: 162e 8bbd 5a2d 7abd 1380 7cbc e314 433d
000000b0: f006 34bd 3fdc 093d a689 95bd c932 9ebc
000000c0: bd39 393d 2808 5bbd fddb 243d 73f6 71bd
000000d0: 27da 543c 288d 19ba 7ef3 8ebd 3833 1c3d
000000e0: f87f 9b3d dfcf dc3c 2c89 df3c c7d4 d3bd
000000f0: 6b9d 4abd 683a eb3c ddb7 763d 8cf4 85bd
00000100: 82cf 7fbd f163 5abc 453a 5f3b f474 95bc
00000110: 6279 473c 478e 5abd 13fd 963d 5fb9 843c
00000120: 6650 823d b37f 773d 8245 20bd d6d2 e2bd
00000130: 13c3 96bc 6849 5d3c ba4a d83c 027a 36bd
00000140: 519c a53c dd6b 2fbd d999 32bd 2e5a 06bd
00000150: 10c4 7e3a 444d dbbd 8c5d 84bd 38a0 053d
00000160: 0fbb 193b 6c06 183d 28dd 15bd 890b 3a3d
00000170: c34a eebc 711f 2e3c 7450 0f3d a611 98bc
00000180: f8b7 d8bc 97dc abbc 4c5d 95bd 8013 963c
00000190: 48d8 15bc 624e 2c3d d6ec 513d aa25 2d3d
000001a0: a81b 863c 46f9 84bd e885 3fbd 80bf 24ba
000001b0: 3494 013d e725 923d a8a9 62bc 8eeb 1b3d
000001c0: c0e0 ef3b 4002 dd3c da03 95bd 9a25 a6bd
000001d0: 245e e23c 303d 80bd b006 14bc 4822 79bc
000001e0: e75a 933d 3d3a 8cbd 646c abbd f6d5 abbd
000001f0: 3a0a 493d d08d 9a3c f9be 5cbd 6e34 9abd
00000200: 2e12 5a3d 2853 073d c8d6 ad3c 2365 b6bd
00000210: e054 2d3b 8076 ec3a 2f63 20bd bb34 91bd
00000220: 40de 74bb 3058 a2bd 08e6 743c b01c bd3c
00000230: ba88 87bd 1066 abbd 29be 50bd bbf9 a5bd
00000240: defa 1d3d 4174 803d ef68 a83d 166a 253d
00000250: 50b0 1ebd 145a adbc c4ed 98bc 2c1d cebc
00000260: d5c4 193d 40c9 9f3b cd68 973b 9dd4 99bd
00000270: 2e7d 843b 1b85 57bc 12f1 8fbc ec3b a3bd
00000280: 4544 a7bd 97d3 c63b aa24 54bc 4f1f a4bd
00000290: 7b32 8d3d 1534 1a3d 03b4 e4bb a963 5bbd
000002a0: cbc0 39bd d9d5 b03c 73ff 803d d195 56bc
000002b0: 19cf 863c e14f 4f3a f1c2 cf3d 1389 d2bd
000002c0: b4b0 83bd 324c c4bd f547 c2bc f702 5d3d
000002d0: 1be6 de3c 1d1c 89bd a49d 3e3d bebf b0bd
000002e0: 0a0c b2bd 1aca 913d d471 523c d0aa 72bd
000002f0: 3421 e9bc 5502 8cbd 8e98 56b9 384d 1bb9
00000300: 0b24 693d 844b ed3b 04c3 b0bd 24cf 253c
00000310: 6545 173d 72e8 a73d 2012 9d3d d894 a13b
00000320: 3af3 f5bc 9c20 843b e9c7 1a3b 490c 623d
00000330: e629 52bd f22a f8bd 2455 383c 10f6 793b
00000340: fa46 a3bd 7aa4 60bd 6491 b7bb 374a 77bd
00000350: 7ec2 2c3d 06ec afbd acf0 b23d 5cdd 92bd
00000360: d4e7 b4bd d113 0ebd 0089 983d 1f28 9d3d
00000370: 2140 cdbb 90da 183d 1a9c c3bd 0408 03bd
00000380: e340 e33c a91c 95bd 4e11 3c3d 328d 2f3d
00000390: 733e b63d 69f6 a03d 3b1f afbd ba61 12bd
000003a0: c0eb aabd d3fd 8c3d 47ba 15bd 9cd1 5abd
000003b0: 0905 9abd 046e 45bd e4ca d8bc c6e8 75bd
000003c0: 6019 7b3c 8f15 77bd f2fb 183d aa53 59bd
000003d0: 9889 71bc 2deb 833d 293b 8a3d 249c b2bc
000003e0: ac5c aebd c837 bcbc 7456 a1bd b9fe 9e3d
000003f0: dfcb b5bd ac03 91bc 79c4 51bd f55b b63d

fc_net.fc_net.0.bias f4 [64]
-0.13226856 -0.042275332 0.0071672546 0.03960405 -0.05142038 0.06384546 0.04034716 -0.07241885
-0.054850373 0.08993855 0.0435038 0.010757482 0.057402343 0.017756071 0.09353702 0.010225919
0.012308187 -0.012231406 0.028099122 0.015488876 -0.004303987 0.0368659 0.03149513 0.009247306
0.053697355 0.010568664 0.040815566 0.120322466 -0.09199595 0.04118238 0.03739168 -0.030247033
0.039323315 -0.04234249 0.030516317 0.08524779 -0.0057253945 -0.024603559 0.09540537 0.1089712
0.018638818 0.020995611 0.041512996 -0.050399307 -0.09853789 0.09292593 0.04504569 0.017358059
0.009939346 -0.027406406 -0.081201635 0.018541515 -0.064654015 -0.06267841 -0.019522764 0.08705071
0.015618365 -0.075512014 -0.0894225 -0.040713593 0.093183205 0.051654197 0.026439605 0.052466974
00000000: 6971 07be e628 2dbd 4adb ea3b db37 223d
00000010: 2d9e 52bd 69c1 823d 1043 253d 5650 94bd
00000020: c9aa 60bd b431 b83d 0a31 323d 2640 303c
00000030: b81e 6b3d 2e75 913c 5690 bf3d 9d8a 273c
00000040: 47a8 493c 3c66 48bc 2130 e63c 0ec5 7d3c
00000050: 7608 8dbb b300 173d 0a01 013d 0382 173c
00000060: c2f1 5b3d 3128 2d3c 392e 273d a06b f63d
00000070: 5f68 bcbd dbae 283d 0528 193d a0c8 f7bc
00000080: 7c11 213d 526f 2dbd 5bfd f93c 6596 ae3d
00000090: 179c bbbb 678d c9bc e463 c33d 4b2c df3d
000000a0: 6fb0 983c fdfe ab3c 8809 2a3d 816f 4ebd
000000b0: 3cce c9bd f34f be3d d481 383d 7d32 8e3c
000000c0: a4d8 223c 6683 e0bc 0b4d a6bd 60e4 973c
000000d0: 5369 84bd 8a5d 80bd 34ee 9fbc a547 b23d
000000e0: 2ce4 7f3c 0ba6 9abd 2523 b7bd 4cc3 26bd
000000f0: d6d6 be3d 5a93 533d df97 d83c 9ce7 563d

fc_net.fc_net.2.weight f4 [64, 64]
0.03872203 -0.08637703 0.038696747 -0.017735958 -0.08402363 -0.021656845 -0.006384416 -0.025149852
-0.1297229 0.11733091 0.1317863 -0.012698229 0.02425219 0.11091404 -0.03896088 -0.049613655
0.005017451 0.02124254 -0.063130364 -0.059390552 0.0983514 0.116045326 -0.12863363 -0.0022560193
0.14421642 0.11886616 -0.10672398 0.10572169 -0.037409198 -0.062373232 -0.07915805 0.11393082
-0.123514615 -0.018247226 -0.03770934 -0.08601353 0.168555 -0.005349231 -0.03589673 -0.008289589
-0.101379 0.117553316 0.020270165 -0.054713335 -0.10479045 0.09605805 -0.09695106 0.03806352
0.13125832 0.12544507 -0.0726127 -0.07356714 -0.009205612 -0.05091761 0.022836227 0.12438372
-0.015082418 -0.10676484 -0.08020149 -0.059562515 -0.038505737 0.05998822 -0.011113188 0.012235702
0.12951483 0.053541042 -0.131076 0.08207658 0.015177494 0.013261083 -0.0339741 -0.022716533
-0.06486463 -0.13358425 -0.14222206 0.0391441 0.027469367 -0.09478332 0.042942293 -0.09172545
0.07329177 0.0063466257 0.010799822 -0.13078596 -0.061440337 -0.040648427 0.13534318 -0.042876285
0.083566464 -0.07122405 -0.06974479 -0.09342587 0.050434783 0.022786293 -0.07145671 -0.035270747
-0.04895385 -0.054501534 -0.1253111 0.06082726 0.064373106 -0.023328569 -0.038100574 0.083540656
-0.029633285 -0.09781618 -0.024351105 0.1530995 0.046097327 -0.014458377 0.10891182 -0.06509653
0.093467966 0.066337705 0.0011813428 0.033361778 -0.08634082 -0.05104746 0.09800134 0.09163944
0.0695251 -0.0016478769 0.006637585 0.053457055 0.10226702 0.077203125 0.067285314 -0.12388334
-0.054113373 -0.120181836 0.09795315 0.0075237104 0.07897554 0.10413411 0.034375053 0.004509965
-0.046801362 0.12252008 -0.008965828 0.041883342 0.08772654 0.0003287603 -0.10009317 -0.08028329
-0.078721344 0.08974915 -0.026741957 -0.02190288 0.010657909 -0.06877023 0.031756576 0.1050356
0.03393281 -0.0410734 -0.10210812 0.087879844 0.007598496 0.09472885 -0.024796305 0.035272706
-0.015619582 -0.052592825 -0.002696262 0.10354037 0.041293006 0.055121437 0.101518616 -0.090902925
0.10411453 0.055981062 0.09199953 0.006138872 0.028026408 0.050582148 -0.09738718 -0.064100884
0.14013253 0.104601875 0.0065786676 0.011274499 0.085344546 0.0013184951 -0.012632776 0.08413707
-0.02990399 0.05217086 -0.016343206 -0.02844734 0.0018991958 -0.08769273 -0.056495324 -0.036671672
0.018659139 0.0109015135 -0.023682756 0.036790557 0.07841004 0.048773363 -0.08796674 -0.13566394
0.009099221 -0.046881687 -0.003197983 0.120457605 -0.024725854 -0.042605404 0.045691006 -0.10116142
-0.12909567 0.019803673 -0.032105945 -0.00044058915 -0.0940075 -0.020215143 -0.009620761 -0.06028838
0.05851245 -0.05986668 0.014937184 -0.07665882 -0.039428767 0.06813563 0.13138232 -0.06844741
0.14981918 0.05506818 -0.07133118 -0.04756124 -0.016840745 0.052727655 -0.1318833 -0.13532832
-0.11232016 -0.049241252 -0.013476536 0.14371309 -0.09419723 0.043302342 -0.096913904 -0.00706225
0.0007271027 -0.07251731 0.0061298884 -0.05710349 0.08926715 0.04711547 0.09753521 0.028657379
0.09821139 0.15147458 0.031730168 0.115084805 -0.07053809 -0.0032665154 -0.029657979 -0.1286824
00000000: fe9a 1e3d 71e6 b0bd 7b80 1e3d 004b 91bc
00000010: 9514 acbd b269 b1bc 5d34 d1bb 1007 cebc
00000020: 14d6 04be 304b f03d fdf2 063e 3c0c 50bc
00000030: 87ac c63c e626 e33d 7295 1fbd b037 4bbd
00000040: 6e69 a43b d604 ae3c 7e4a 81bd 8243 73bd
00000050: 756c c93d 2ca9 ed3d 89b8 03be b9d9 13bb
00000060: 78ad 133e 1a70 f33d 1a92 dabd 9d84 d83d
00000070: 633a 19bd 137b 7fbd 9e1d a2bd 9054 e93d
00000080: 3bf5 fcbd 357b 95bc 1c75 1abd dd27 b0bd
00000090: af99 2c3e 9a48 afbb 7308 13bd 0ed1 07bc
000000a0: cb9f cfbd cbbf f03d 9e0d a63c 171b 60bd
000000b0: 609c d6bd 15ba c43d 478e c6bd 7ee8 1b3d
000000c0: 9568 063e ac74 003e f8b5 94bd 5eaa 96bd
000000d0: 23d3 16bc fc8e 50bd 0a13 bb3c e4bc fe3d
000000e0: 3f1c 77bc 86a7 dabd ae40 a4bd d3f7 73bd
000000f0: 31b8 1dbd 35b6 753d 1714 36bc 4178 483c
00000100: 899f 043e da4d 5b3d c938 06be c417 a83d
00000110: 06ab 783c 0345 593c 6d28 0bbd 0618 babc
00000120: bfd7 84bd 4fca 08be a9a2 11be 9055 203d
00000130: 7007 e13c c21d c2bd 42e4 2f3d 8dda bbbd
00000140: ff19 963d 5bf7 cf3b bdf1 303c c1ec 05be
00000150: dda8 7bbd f77e 26bd 6797 0a3e 0b9f 2fbd
00000160: e524 ab3d eadd 91bd 5bd6 8ebd 1056 bfbd
00000170: b494 4e3d 52aa ba3c e557 92bd 0f78 10bd
00000180: d583 48bd 003d 5fbd 8e51 00be 0126 793d
00000190: 0cd6 833d 8e1b bfbc 590f 1cbd 5d17 ab3d
000001a0: 81c1 f2bc d953 c8bd f87b c7bc 1ec6 1c3e
000001b0: 8dd0 3c3d d4e2 6cbc 290d df3d 5451 85bd
000001c0: 226c bf3d 10dc 873d 49d7 9a3a 5ca6 083d
000001d0: 75d3 b0bd 2417 51bd edb4 c83d 75ad bb3d
000001e0: 2d63 8e3d 93fd d7ba 1980 d93b c9f5 5a3d
000001f0: 5f71 d13d ac1c 9e3d e2cc 893d 8cb6 fdbd
00000200: fca5 5dbd e521 f6bd a99b c83d 7589 f63b
00000210: eebd a13d 4444 d53d dbcc 0c3d 54c8 933b
00000220: c9b2 3fbd cfeb fa3d 69e5 12bc de8d 2b3d
00000230: f9a9 b33d 765d ac39 a6fd ccbd 916b a4bd
00000240: a838 a1bd 67ce b73d f311 dbbc ab6d b3bc
00000250: 839e 2e3c 68d7 8cbd 2f13 023d e81c d73d
00000260: 21fd 0a3d 953c 28bd 101e d1bd 59fa b33d
00000270: cefc f83b 3301 c23d 9f21 cbbc 1d7a 103d
00000280: 46e9 7fbc 936b 57bd c5b3 30bb f90c d43d
00000290: db22 293d 04c7 613d fee8 cf3d 502b babd
000002a0: 003a d53d 664c 653d 406a bc3d 9728 c93b
000002b0: a397 e53c 3a2f 4f3d ee72 c7bd 5347 83bd
000002c0: e77e 0f3e 8239 d63d dd91 d73b adb8 383c
000002d0: 1fc9 ae3d 5bd1 ac3a b4f9 4ebc 0e50 ac3d
000002e0: 36f9 f4bc 1db1 553d 30e2 85bc 650a e9bc
000002f0: 70ee f83a 3f98 b3bd a467 67bd 0935 16bd
00000300: 0ddb 983c 439c 323c 5702 c2bc b2b1 163d
00000310: 7195 a03d 94c6 473d e827 b4bd 7deb 0abe
00000320: e614 153c 0307 40bd 4095 51bb 7ab2 f63d
00000330: e08d cabc 0183 2ebd 7e26 3b3d b82d cfbd
00000340: a831 04be 503b a23c 8681 03bd e0fe e6b9
00000350: 0187 c0bd 3a9a a5bc 65a0 1dbc f3f0 76bd
00000360: c0aa 6f3d c436 75bd 17bb 743c 4dff 9cbd
00000370: 0f80 21bd b18a 8b3d 1689 063e 282e 8cbd
00000380: 336a 193e 2c8f 613d 1516 92bd 93cf 42bd
00000390: 9af5 89bc f4f8 573d 6a0c 07be 8293 0abe
000003a0: 1d08 e6bd 32b1 49bd b0cc 5cbc 8629 133e
000003b0: 7aea c0bd cc5d 313d cc7a c6bd 726a e7bb
000003c0: 099b 3e3a f583 94bd 3bdd c83b 59e5 69bd
000003d0: b2d1 b63d 27fc 403d 8ac0 c73d e1c2 ea3c
000003e0: 0e23 c93d 271c 1b3e 7ef7 013d 95b1 eb3d
000003f0: 4676 90bd 0913 56bb 4af5 f2bc 52c5 03be

fc_net.fc_net.2.bias f4 [64]
0.058168836 0.060467515 -0.003947922 0.03306164 0.102931246 -0.09714777 -0.13556999 -0.062060524
0.1486788 0.1300288 -0.032318324 0.0032001259 0.11878682 -0.038238477 0.06638095 -0.0919468
-0.09161522 -0.028999377 -0.14935781 -0.08792257 -0.060062636 0.030534849 0.07960828 -0.012353409
0.08452848 -0.13169971 -0.05770127 -0.031729434 0.06549506 -0.12577431 -0.026861578 -0.10270696
0.008122259 -0.031502374 0.11567947 0.10353807 -0.058163647 -0.04951728 0.038407564 0.006214206
0.035903145 0.13351542 -0.086461425 -0.065235846 -0.11265378 -0.07678078 0.042418674 -0.06443967
0.075188786 -0.09275273 -0.039609183 0.01733975 -0.10076849 0.026943833 -0.02203584 -0.042341538
-0.08174972 0.07037184 0.018777391 0.07145904 0.035149217 -0.06920726 -0.03900261 0.055658825
00000000: 7242 6e3d c9ac 773d 925d 81bb a46b 073d
00000010: 9ecd d23d 69f5 c6bd dcd2 0abe 2d33 7ebd
00000020: 413f 183e 4526 053e 3860 04bd 34b9 513b
00000030: 8146 f33d f39f 1cbd bcf2 873d 9b4e bcbd
00000040: c3a0 bbbd 1a90 edbc 41f1 18be c010 b4bd
00000050: 3d04 76bd 3824 fa3c aa09 a33d f465 4abc
00000060: 451d ad3d 4adc 06be 2b58 6cbd b9f6 01bd
00000070: 4622 863d fbca 00be d00c dcbc 0758 d2bd
00000080: 3913 053c a208 01bd 5ce9 ec3d c50b d43d
00000090: 013d 6ebd a2d2 4abd 4051 1d3d 8aa0 cb3b
000000a0: 2d0f 133d 44b8 083e b012 b1bd 5f9a 85bd
000000b0: 06b7 e6bd 3e3f 9dbd 34bf 2d3d f2f8 83bd
000000c0: 94fc 993d 25f5 bdbd 3d3d 22bd 170c 8e3c
000000d0: b65f cebd 50b9 dc3c 8284 b4bc 526e 2dbd
000000e0: 666c a7bd 1c1f 903d 0bd3 993c 1e59 923d
000000f0: a0f8 0f3d 89bc 8dbd 33c1 1fbd 82fa 633d

action_head.weight f4 [5, 64]
-0.045648754 0.02830621 -0.10584145 0.009550516 0.017090725 -0.04615258 0.0987661 0.07262878
-0.11052471 -0.04871991 0.05648947 0.08938987 -0.0029573338 -0.018567296 -0.025753101 -0.036611862
-0.061056323 -0.009033655 -0.020156983 -0.1100583 0.061297785 -0.08664555 0.08479265 0.08414069
0.056249782 0.08851915 0.086207174 0.035788048 0.04752092 0.083996944 -0.1028636 0.104633175
-0.028858215 0.004567775 -0.065866694 0.025895415 -0.012853699 0.06417172 -0.021542728 -0.0027307065
-0.097103596 0.11190322 0.06140201 -0.07426735 0.0708615 -0.035855576 -0.06937719 -0.06373987
0.0012548773 -0.09211874 -0.066159606 0.10836928 -0.042326793 -0.065807626 0.08434896 -0.0034637265
0.050245382 0.09845287 -0.08860135 -0.07795553 -0.07851109 -0.009898961 -0.101505704 -0.12048145
-0.0662871 0.068268694 0.005660288 0.045426823 -0.034714155 0.01158825 0.116124734 -0.0019458932
-0.09443619 -0.04246879 -0.08540825 -0.12058114 -0.06338897 -0.12953933 0.029122012 0.14514634
-0.06633195 0.13811664 0.049504254 0.1385891 -0.048660748 0.02705541 0.004767447 0.032034703
0.00801598 0.092200816 -0.038165268 -0.082550734 0.12050568 0.032620404 -0.033487182 0.034283064
-0.029418875 -0.01875901 -0.03657161 -0.0863386 -0.03032611 -0.06166205 -0.0943596 -0.05173164
-0.1586253 0.012484727 0.06919992 0.04772027 0.10579515 -0.046232928 -0.09465456 0.078959145
0.087917425 0.12814756 -0.13029857 0.067169465 0.09169364 0.12334299 -0.09906589 0.0033085612
-0.057239126 -0.14630549 0.047064394 -0.06246748 0.068677396 -0.0936156 -0.118844934 0.07749283
0.13734247 -0.091327995 0.095940135 -0.10168642 0.18113373 0.14921524 8.397154e-06 0.049479887
0.14389765 0.17886199 0.018581674 0.14521228 0.11771836 -0.018126752 0.05668852 -0.12719226
-0.15146269 -0.0065343855 -0.07817918 0.059699364 0.06324409 -0.022780553 0.14679031 -0.07061197
-0.15328465 -0.18473205 0.1607345 0.1257952 -0.09069345 -0.08177167 -0.021304874 0.046594672
0.11492175 0.106831506 -0.039692108 0.15346585 0.06212855 0.07215286 -0.08125518 0.08033582
1.16559095e-05 0.10263992 -0.17807363 0.06335265 -0.0298057 0.08719594 0.058408882 0.08069308
-0.16469686 -0.08913419 0.13933405 -0.11557821 -0.16979778 -0.10012105 -0.026378013 0.18297032
-0.05509941 -0.0061820983 0.064266816 0.12009496 -0.11139202 0.12013059 -0.052756276 -0.15103139
-0.090491585 0.018554807 -0.08511054 0.101645105 -0.052534506 -0.14068574 0.013505198 -0.052902173
-0.006882583 -0.08275639 -0.13064066 0.07487258 -0.08632476 0.02952375 -0.09389296 -0.030148534
-0.018280797 0.07240368 -0.03258946 0.04113151 0.048844576 0.03694963 0.096204214 0.081991814
-0.07046888 -0.10938228 0.101514734 0.052525286 0.06185144 0.10023339 0.08898812 -0.023635287
-0.06743347 -0.03725864 0.07950784 -0.08903323 -0.02024676 -0.008624969 0.121490754 -0.017966935
-0.013486311 0.050478112 -0.047595933 0.07702657 0.104126915 -0.091334276 0.0988627 -0.07944526
-0.06200163 0.086615756 -0.025795374 -0.051089253 -0.0041087503 0.006942399 0.030487115 -0.06978034
-0.097068675 -0.044270195 -0.099273376 -0.12645636 0.108495 -0.10088977 -0.10702312 0.04208566
00000000: 30fa 3abd 6de2 e73c 67c3 d8bd c479 1c3c
00000010: d901 8c3c 7d0a 3dbd e245 ca3d 66be 943d
00000020: c75a e2bd 878e 47bd 8161 673d 0912 b73d
00000030: d4cf 41bb 711a 98bc 2bf8 d2bc 52f6 15bd
00000040: 3216 7abd e501 14bc 4220 a5bc 3f66 e1bd
00000050: 6313 7b3d 3973 b1bd c5a7 ad3d f451 ac3d
00000060: 2c66 663d 8749 b53d 638d b03d 7d96 123d
00000070: 4ca5 423d 9706 ac3d 27aa d2bd eb49 d63d
00000080: 1068 ecbc 46ad 953b 1ee5 86bd 9f22 d43c
00000090: 5298 52bc 766c 833d 607a b0bc a7f5 32bb
000000a0: 40de c6bd 842d e53d ad80 7b3d 7b19 98bd
000000b0: d61f 913d 4cdd 12bd a115 8ebd 0d8a 82bd
000000c0: b27a a43a c0a8 bcbd b07e 87bd b7f0 dd3d
000000d0: dc5e 2dbd 26c6 86bd 26bf ac3d b0ff 62bb
000000e0: 1ace 4d3d a9a1 c93d a074 b5bd 26a7 9fbd
000000f0: 6cca a0bd 402f 22bc 39e2 cfbd fabe f6bd
00000100: 88c1 87bd 75d0 8b3d f079 b93b 7a11 3a3d
00000110: 6e30 0ebd a5dc 3d3c ced2 ed3d 570d ffba
00000120: c367 c1bd c1f3 2dbd 85ea aebd 3ff3 f6bd
00000130: 14d2 81bd f5a5 04be 4991 ee3c 3ea1 143e
00000140: 0cd9 87bd 736e 0d3e f9c4 4a3d 4dea 0d3e
00000150: 7e50 47bd 4fa3 dd3c 3e38 9c3b d236 033d
00000160: 7555 033c c8d3 bc3d 2f53 1cbd 5c10 a9bd
00000170: afcb f63d f99c 053d db29 09bd 666c 0c3d
00000180: daff f0bc 7fac 99bc 1dcc 15bd 4bd2 b0bd
00000190: 766e f8bc 5991 7cbd 9b3f c1bd 8ee4 53bd
000001a0: ac6e 22be be8c 4c3c b0b8 8d3d 5476 433d
000001b0: 21ab d83d bd5e 3dbd 40da c1bd 55b5 a13d
000001c0: 0d0e b43d 1d39 033e fd6c 05be 2590 893d
000001d0: e0c9 bb3d 409b fc3d 0fe3 cabd 72d4 583b
000001e0: 9373 6abd 1bd1 15be 98c6 403d e6dd 7fbd
000001f0: bca6 8c3d 89b9 bfbd f964 f3bd 90b4 9e3d
00000200: 81a3 0c3e 2c0a bbbd 437c c43d f840 d0bd
00000210: 1f7b 393e e1cb 183e 80e1 0c37 6cab 4a3d
00000220: e859 133e 9927 373e 9838 983c 87b2 143e
00000230: 5316 f13d 8e7e 94bc 3932 683d b03e 02be
00000240: 0919 1bbe 661e d6bb 681c a0bd 5287 743d
00000250: 1e86 813d 489e babc 3350 163e 029d 90bd
00000260: a7f6 1cbe 662a 3dbe 9697 243e 75d0 003e
00000270: 7dbd b9bd e877 a7bd 8f87 aebc 0eda 3e3d
00000280: 185c eb3d 7aca da3d 3194 22bd 2726 1d3e
00000290: 827a 7e3d e1c4 933d 1e69 a6bd 1b87 a43d
000002a0: c08d 4337 e134 d23d ef58 36be 09bf 813d
000002b0: 152b f4bc c993 b23d 273e 6f3d 6a42 a53d
000002c0: 4ba6 28be fc8b b6bd 96ad 0e3e 45b4 ecbd
000002d0: 78df 2dbe 440c cdbd b416 d8bc 925c 3b3e
000002e0: ebaf 61bd 3393 cabb 529e 833d 59f4 f53d
000002f0: 8021 e4bd 0707 f63d f716 58bd f9a7 1abe
00000300: a753 b9bd 4000 983c 6f4e aebd 4f2b d03d
00000310: 6c2e 57bd ec0f 10be e844 5d3c f3af 58bd
00000320: 4a87 e1bb 2f7c a9bd aac6 05be cc56 993d
00000330: 09cb b0bd cbdb f13c f44a c0bd 0ffa f6bc
00000340: 9cc1 95bc 6148 943d 877c 05bd 8479 283d
00000350: 4011 483d 7f58 173d b706 c53d 53eb a73d
00000360: fd51 90bd d103 e0bd f5e6 cf3d c124 573d
00000370: f057 7d3d 2a47 cd3d 673f b63d ca9e c1bc
00000380: 8f1a 8abd 849c 18bd 02d5 a23d 0e57 b6bd
00000390: 89dc a5bc be4f 0dbc 25d0 f83d 652f 93bc
000003a0: b0f5 5cbc 23c2 4e3d f4f3 42bd 1bc0 9d3d
000003b0: 7e40 d53d 770d bbbd 8778 ca3d 32b4 a2bd
000003c0: 6cf5 7dbd 9a63 b13d d250 d3bc f742 51bd
000003d0: b2a2 86bb 107d e33b 1dc0 f93c ffe8 8ebd
000003e0: f1cb c6bd aa54 35bd d74f cbbd c77d 01be
000003f0: a032 de3d 4c9f cebd f02e dbbd 0362 2c3d

action_head.bias f4 [5]
-0.09580269 0.049213033 0.086458765 -0.044854067 -0.11151441
00000000: 3334 c4bd 9b93 493d 4b11 b13d e6b8 37bd
00000010: ab61 e4bd

value_head.weight f4 [1, 64]
-0.066051714 0.057847284 -0.037063833 0.09515053 0.0025155307 -0.08993992 0.076299645 0.012022397
0.053719807 -0.11067255 -0.049277376 0.043065023 0.053917404 -0.06694016 0.06770947 0.0048424723
0.08607683 -0.005987409 0.030085145 -0.07380553 -0.069953464 -0.06502275 -0.1230935 -0.08186195
-0.06745351 -0.061033018 -0.04734064 0.084602594 -0.057502408 -0.030724151 -0.10351594 0.03164007
0.013468354 0.019261274 -0.023798106 0.09948645 0.12015537 0.078883715 0.055760797 0.032457434
-0.078781925 -0.11457848 0.09714906 0.0041586594 0.05168011 0.06294268 -0.022030003 -0.05970877
-0.009493294 0.09679949 0.042919457 0.06998714 -0.0492797 0.06754018 0.004394958 0.08838071
0.09877284 0.061647758 -0.08734152 -0.1156033 -0.09644363 0.019904887 0.119590856 -0.03431706
00000000: 1f46 87bd 46f1 6c3d 3fd0 17bd 48de c23d
00000010: 9adb 243b 6c32 b8bd fd42 9c3d 96f9 443c
00000020: 4d09 5c3d 4aa8 e2bd 13d7 49bd f364 303d
00000030: 7fd8 5c3d ec17 89bd 43ab 8a3d 9aad 9e3b
00000040: 0d49 b03d 0732 c4bb 1f75 f63c 5b27 97bd
00000050: c343 8fbd a62a 85bd 7218 fcbd 3da7 a7bd
00000060: 1125 8abd c2fd 79bd 42e8 41bd 2044 ad3d
00000070: a587 6bbd 37b1 fbbc 2a00 d4bd 0599 013d
00000080: 5faa 5c3c d2c9 9d3c 3ff4 c2bc 8dbf cb3d
00000090: 0514 f63d c98d a13d 6f65 643d 16f2 043d
000000a0: 6b58 a1bd 1fa8 eabd 16f6 c63d 5d45 883b
000000b0: 86ae 533d 18e8 803d 4478 b4bc 2f91 74bd
000000c0: c389 1bbc d03e c63d 50cc 2f3d 6b55 8f3d
000000d0: 83d9 49bd 8252 8a3d 9403 903b f200 b53d
000000e0: 6a49 ca3d 5c82 7c3d 1ce0 b2bd 6cc1 ecbd
000000f0: 3d84 c5bd 930f a33c 0dec f43d 0c90 0cbd
