2022/20-华立民 指导老师-马里佳/code/tests/2-agents_domain-PredatorPrey-2_adversaryratio-0.5_RADAR_X_2022-11-30-23-07-11/protagonist_model.pth (torch, 52943 bytes, 7 tensors)

fc_net.fc_net.0.weight f4 [64, 125]
-0.071015574 0.0841287 0.019130439 -0.03732211 0.028799228 0.049376987 -0.04297971 -0.03086447
0.055150114 -0.06135354 0.045551024 0.08657726 0.035378903 -0.084767684 0.08088856 -0.080529824
-0.01874423 -0.08381788 0.032869533 -0.017186582 -0.058178626 0.061365075 0.037739776 0.065566145
-0.06349113 -0.0017889594 -0.0051372126 0.025055213 0.014515387 -0.06848106 -0.068780154 -0.04662248
-0.034351904 0.02788413 0.039834715 -0.081228085 -0.024470467 0.07217762 -0.018471776 0.07778224
-0.092259705 0.005514588 0.07286879 -0.0205827 0.031663906 -0.04065855 0.0683637 0.012450669
-0.06363028 0.0049568177 0.038669683 -0.09202316 0.053885292 0.035561793 0.024085823 0.005450195
-0.059673537 -0.077119425 -0.082124196 0.040332142 -0.03555927 0.06309496 -0.038635463 0.0842395
0.10896775 -0.07057571 0.06426625 -0.0042170864 0.0077070957 -0.0034938115 -0.046491902 0.027355013
0.03712874 -0.048812553 0.058868814 0.05227504 0.07369132 -0.070915125 -0.060589816 0.08241961
-0.04099107 0.035254255 0.01803266 -0.045299273 -0.069318525 0.024784563 0.074016705 0.042388447
-0.033203207 0.06385416 -0.09181052 -0.007612955 -0.06693943 0.047043327 -0.06113496 -0.006012918
-0.090010606 -0.011309172 0.048953343 -0.09269762 -0.08843264 -0.041228186 0.039677136 -0.011902727
-0.067091554 0.0720701 0.024158813 0.010787152 0.05833199 0.055465274 -0.07068535 0.000809446
-0.06080938 0.061201327 0.077123664 -0.01989875 -0.009147614 -0.067921184 0.0614328 0.069663174
-0.07062553 0.06865146 -0.028674968 0.073600166 0.0070647076 -0.055125233 0.08161286 -0.005145721
-0.01946301 0.012867346 -0.08944179 -0.025295764 0.010492668 0.041268073 -0.050887942 -0.013460934
0.042686157 0.018887486 0.05143463 0.05326449 -0.033870116 0.044058166 0.04356601 0.008591965
0.03642542 0.080235116 0.06893527 -0.060407046 0.08108347 0.058652587 0.039828792 -0.0805802
-0.063605666 0.05405911 0.0021499882 0.031713407 -0.04924455 -0.0034126977 0.04345401 -0.041213695
0.074453376 0.040469725 -0.07954002 0.030228842 0.06300737 -0.060270663 -0.07394993 -0.065240845
0.02847811 0.10233501 -0.028457267 -0.09476301 -0.033100326 0.016878577 0.00377766 0.018413365
-0.009235952 0.021094395 0.014351275 -0.07951275 -0.012783653 0.023861822 -0.09714504 0.011142598
0.07770386 0.033882618 0.0022588682 0.08009594 0.08759989 0.0457728 -0.010337646 0.0555571
-0.0740664 0.08671037 0.0175902 0.0709384 -0.057881597 0.07146616 -0.098588064 0.071574844
-0.07382274 0.056261554 -0.060562532 -0.08805865 0.042104963 -0.05879099 -0.060358346 -0.062248904
-0.06697976 -0.037693575 0.071528755 -0.0030310191 -0.06374104 0.0033201424 0.03235966 0.06861709
0.052332208 0.08285054 -0.017329864 0.06969937 0.064115986 0.017866084 0.039459787 -0.051084083
0.068121 0.061683618 -0.011934772 0.05643005 -0.076823436 -0.057114474 -0.07197867 -0.052881308
0.07856902 0.038373463 0.02298829 0.04712365 -0.05936163 0.044218816 0.06260248 0.030942522
-0.047255248 0.08213145 -0.0695951 0.07716965 -0.05200451 -0.0829438 0.039763756 0.039007492
-0.06421863 0.019968435 0.054712005 0.026968084 0.029500805 0.03862647 -0.08296379 0.08740171
00000000: 9d70 91bd ab4b ac3d 70b7 9c3c 12df 18bd
00000010: 5cec eb3c 863f 4a3d 7e0b 30bd 7cd7 fcbc
00000020: 16e5 613d d94d 7bbd b693 3a3d 6b4f b13d
00000030: 78e9 103d ae9a adbd e7a8 a53d d2ec a4bd
00000040: 808d 99bc b5a8 abbd 34a2 063d e0ca 8cbc
00000050: b64c 6ebd f259 7b3d 0695 1a3d 8b47 863d
00000060: a307 82bd 847b eaba 1056 a8bb 9740 cd3c
00000070: f2d1 6d3c cc3f 8cbd 9cdc 8cbd 37f7 3ebd
00000080: 95b4 0cbd 426d e43c ba29 233d e95a a6bd
00000090: 4a76 c8bc dcd1 933d 1f52 97bc 4c4c 9f3d
000000a0: a8f2 bcbd b8b3 b43b 3b3c 953d 0d9d a8bc
000000b0: 03b2 013d 9489 26bd 4402 8c3d e4fd 4b3c
000000c0: 9850 82bd cd6c a23b 1a64 1e3d a376 bcbd
000000d0: d3b6 5c3d 3ea9 113d a24f c53c 8d97 b23b
000000e0: 3d6c 74bd caf0 9dbd bb30 a8bd 5133 253d
000000f0: 99a6 11bd ee37 813d 3840 1ebd c285 ac3d
00000100: 7c2a df3d ff89 90bd 069e 833d 7c2f 8abb
00000110: ce8b fc3b 6ef8 64bb 4b6e 3ebd 9f17 e03c
00000120: 4e14 183d acef 47bd 6d20 713d 5a1e 563d
00000130: 7aeb 963d f33b 91bd 072d 78bd 9dcb a83d
00000140: 41e6 27bd c466 103d 3bb9 933c bb8b 39bd
00000150: dff6 8dbd ff08 cb3c 1296 973d 829f 2d3d
00000160: 1600 08bd f8c5 823d 2707 bcbd 1876 f9bb
00000170: 8a17 89bd 81b0 403d a768 7abd 0308 c5bb
00000180: 7b57 b8bd 1b4a 39bc 4d83 483d 40d8 bdbd
00000190: 2c1c b5bd e3de 28bd 7e84 223d a803 43bc
000001a0: 4c67 89bd 7d99 933d b4e8 c53c 98bc 303c
000001b0: 86ed 6e3d 8e2f 633d 7bc3 90bd 0031 543a
000001c0: 4213 79bd 3eae 7a3d 03f3 9d3d b402 a3bc
000001d0: e0df 15bc 431a 8bbd f6a0 7b3d 91ab 8e3d
000001e0: 1ea4 90bd 2399 8c3d c4e7 eabc afbb 963d
000001f0: 107f e73b ffca 61bd a524 a73d 709d a8bb
00000200: e470 9fbc 90d1 523c 422d b7bd 1039 cfbc
00000210: 70e9 2b3c b608 293d e06f 50bd 408b 5cbc
00000220: aed7 2e3d eeb9 9a3c 1ead 523d de2b 5a3d
00000230: 64bb 0abd 5676 343d 4672 323d 50c5 0c3c
00000240: d232 153d 4f52 a43d ef2d 8d3d 616d 77bd
00000250: 170f a63d b23d 703d 8423 233d 3b07 a5bd
00000260: b043 82bd 166d 5d3d d1e6 0c3b ebe5 013d
00000270: a7b4 49bd 91a7 5fbb d5fc 313d b1cf 28bd
00000280: 037b 983d 95c3 253d e1e5 a2bd 7aa2 f73c
00000290: 020a 813d 5fde 76bd 1073 97bd fe9c 85bd
000002a0: ed4a e93c 0595 d13d 371f e9bc 1c13 c2bd
000002b0: 3594 07bd f144 8a3c 9e92 773b a0d7 963c
000002c0: 6452 17bc 27ce ac3c 9c21 6b3c 95d7 a2bd
000002d0: 8772 51bc de79 c33c fbf3 c6bd 728f 363c
000002e0: 3423 9f3d 80c8 0a3d 8509 143b 5709 a43d
000002f0: 9267 b33d 427c 3b3d 3b5f 29bc d78f 633d
00000300: 20b0 97bd 3595 b13d 5319 903c 2748 913d
00000310: 4115 6dbd da5c 923d 8ae8 c9bd d595 923d
00000320: 6030 97bd 8472 663d 6b10 78bd 1858 b4bd
00000330: 4176 2c3d d2ce 70bd 503a 77bd b5f8 7ebd
00000340: af2c 89bd 9464 1abd ab7d 923d 10a4 46bb
00000350: aa8a 82bd bf96 593b 908b 043d 1e87 8c3d
00000360: 4c5a 563d 8bad a93d 5cf7 8dbc 8bbe 8e3d
00000370: 3e4f 833d e55b 923c 96a0 213d 8b3d 51bd
00000380: 0683 8b3d f6a7 7c3d 108a 43bc 3223 673d
00000390: 9b55 9dbd def0 69bd 8e69 93bd 129a 58bd
000003a0: cbe8 a03d 7e2d 1d3d f051 bc3c ba04 413d
000003b0: 2e25 73bd ca1e 353d bb35 803d 2c7b fd3c
000003c0: b88e 41bd 8934 a83d e087 8ebd 1f0b 9e3d
000003d0: ae02 55bd 70de a9bd 52df 223d 52c6 1f3d
000003e0: 0f85 83bd d894 a33c b219 603d 2cec dc3c
000003f0: acab f13c ca36 1e3d ebe8 a9bd abff b23d

fc_net.fc_net.0.bias f4 [64]
0.06284874 -0.023400702 -0.104186706 0.013464963 -0.07454418 0.07810392 -0.06039523 -0.059622165
-0.0020253512 -0.069693856 0.091734834 0.03238299 -0.07428291 -0.03769787 0.02510161 0.04860975
-0.07723425 -0.048195668 0.069163166 -0.10238133 0.042121734 0.03409882 0.06411009 -0.056490425
0.088206604 -0.055986535 0.05846004 0.017612007 0.009478424 0.004099683 0.016912106 -0.081367195
0.058331236 0.041076977 -0.021756848 0.015694186 -0.011734234 -0.091546126 0.07141916 -0.0017551823
0.05929935 0.022234207 -0.0483902 -0.048224177 -0.07001105 0.00045698154 -0.036581513 0.058688346
0.06357545 0.062309332 -0.08662477 -0.06913975 0.060043376 -0.031981647 0.08635308 0.016634857
0.029784417 0.091025025 0.050750025 -0.098860435 0.046685606 -0.012775982 -0.001695987 -0.08643784
00000000: d7b6 803d d4b2 bfbc d75f d5bd 269c 5c3c
00000010: 9eaa 98bd f3f4 9f3d fd60 77bd 5f36 74bd
00000020: c1bb 04bb a7bb 8ebd 79df bb3d 07a4 043d
00000030: a321 98bd 1569 1abd e4a1 cd3c 041b 473d
00000040: fe2c 9ebd d268 45bd 6ba5 8d3d 4ead d1bd
00000050: d787 2c3d 34ab 0b3d 274c 833d 8162 67bd
00000060: aaa5 b43d 2352 65bd cb73 6f3d 0e47 903c
00000070: 644b 1b3c a256 863b 428b 8a3c d8a3 a6bd
00000080: bcec 6e3d 5540 283d 6b3b b2bc 1891 803c
00000090: f240 40bc 897c bbbd 3544 923d 250e e6ba
000000a0: e0e3 723d 8324 b63c cd34 46bd b786 45bd
000000b0: f461 8fbd 0697 ef39 7fd6 15bd 3163 703d
000000c0: d833 823d 1238 7f3d 5468 b1bd 2499 8dbd
000000d0: 0bf0 753d 30ff 02bd e2d9 b03d d345 883c
000000e0: 73fe f33c 546b ba3d 42df 4f3d 5777 cabd
000000f0: 6839 3f3d 5a52 51bc e14b deba 5206 b1bd

fc_net.fc_net.2.weight f4 [64, 64]
-0.046125233 0.12929754 -0.09570413 0.05327847 -0.12474224 0.070992514 0.07277436 -0.017258245
-0.10591716 0.06662079 0.10600123 -0.086886935 -0.0053432924 -0.06341361 0.043041095 0.13276042
0.05735414 -0.012399205 0.08034084 0.005794337 0.034494765 -0.021881271 0.11927204 0.07137776
0.070306204 -0.09577393 0.10546729 -0.06309038 -0.065962695 0.11695176 0.04100181 0.067668706
-0.01512324 0.08039776 -0.02764321 -0.009838326 -0.01608146 0.022787472 -0.039184593 0.06689868
-0.036848556 -0.10337123 -0.11405478 -0.048813097 -0.032867376 -0.09198557 -0.050974045 0.05118499
-0.020951731 -0.0886157 -0.14037652 0.0047452063 0.027548894 0.037985366 0.057432152 -0.037266634
0.05838975 0.08945143 0.037553243 -0.13112065 0.07637712 -0.11009435 0.011420362 -0.12527962
-0.105631836 0.107636854 -0.02390411 -0.11691192 -0.06546599 -0.08446786 -0.0058928365 0.10122333
0.10306922 -0.082744956 0.081580706 -0.10299454 -0.024635417 -0.02688078 0.05086657 0.00969445
0.08469555 0.11306058 -0.02257339 -0.07798243 -0.06731249 0.10085023 0.03936765 0.108339064
0.0914602 -0.017768601 0.04992623 -0.01803202 -0.034208503 -0.11093897 0.028032253 0.1017676
-0.0055403183 0.0021913475 0.097294986 0.11248699 -0.04767979 -0.08510386 -0.024842625 -0.075386815
0.10700047 0.063720554 0.10202595 0.07350001 0.10290032 -0.013433823 -0.053895596 -0.103331596
-0.11998107 -0.107640915 -0.12403607 0.025669217 0.10481449 0.055512037 0.007974158 -0.031247394
-0.022141403 0.06734116 -0.026958266 -0.089238346 0.10717552 0.036923043 0.12054229 0.041499715
0.017577095 -0.09017685 -0.08738996 -0.008136826 0.043204013 0.0697407 0.0024728735 0.04666201
-0.04764968 0.11013882 0.12540272 0.1275158 -0.06651228 -0.015682904 -0.036094025 0.017578313
0.08175665 0.004608996 -0.05343434 -0.09496024 -0.014818143 -0.06364908 -0.023805082 -0.12515599
0.002974665 0.04321256 -0.02742643 -0.027737563 0.041997395 -0.010934681 -0.05731362 -0.13112308
0.081803165 -0.07884224 0.08857163 0.119611196 -0.10033991 -0.032541208 0.01603081 0.09926931
0.059651423 -0.007677379 0.057414737 -0.063943714 0.062118977 -0.09451856 0.0059608566 -0.10389443
0.07720282 -0.100352645 -0.012002319 0.028365724 -0.039834414 0.050246287 0.10555512 -0.04054718
0.097566016 0.12625322 -0.05709684 0.07371234 -0.10216738 0.00574258 -0.08936525 -0.105472125
-0.04251406 -0.111803845 0.055456508 -0.0932865 -0.06019154 -0.11892751 0.097371064 -0.058047555
-0.06371494 0.0018566056 0.03884808 -0.075182594 -0.03677491 0.11796057 0.096354224 -0.011475373
-0.07574661 0.07923789 0.013210481 -0.091948025 -0.066022635 -0.08791021 -0.09509388 -0.044521857
0.00023548587 0.13710354 0.10410446 -0.08377147 0.104996495 -0.045652427 0.025100172 0.009754674
0.042554434 -0.023202062 -0.08314029 0.10559431 -0.0914032 0.07650736 0.091958344 -0.050548866
-0.050227117 0.063231796 0.124214314 -0.09824888 -0.116726264 -0.05412211 -0.118956685 0.0042687743
0.01978959 0.08727703 -0.04857952 -0.022374457 -0.11585702 0.021183208 -0.0036285054 0.068366915
-0.04395603 -0.033715315 -0.024561998 0.00012748924 -0.045581136 0.101247944 0.11513084 0.024898151
00000000: d0ed 3cbd 9366 043e 8700 c4bd 863a 5a3d
00000010: dc78 ffbd 8664 913d b90a 953d 2a61 8dbc
00000020: 19eb d8bd 7b70 883d 2c17 d93d c7f1 b1bd
00000030: c916 afbb ffde 81bd dc4b 303d 59f2 073e
00000040: 2dec 6a3d 0926 4bbc bd89 a43d 6cde bd3b
00000050: 624a 0d3d 5a40 b3bc e644 f43d 812e 923d
00000060: b3fc 8f3d 1f25 c4bd 3cff d73d 8735 81bd
00000070: 7317 87bd 6884 ef3d 84f1 273d e495 8a3d
00000080: 77c7 77bc 95a7 a43d 0374 e2bc ee30 21bc
00000090: 44bd 83bc cbac ba3c 0680 20bd 2d02 893d
000000a0: 83ee 16bd 4cb4 d3bd 8d95 e9bd 3ef0 47bd
000000b0: f19f 06bd ee62 bcbd 29ca 50bd 5aa7 513d
000000c0: f7a2 abbc 267c b5bd ddbe 0fbe ad7d 9b3b
000000d0: 38ae e13c 8b96 1b3d fa3d 6b3d e6a4 18bd
000000e0: 172a 6f3d 5032 b73d 6ed1 193d 7e44 06be
000000f0: 9c6b 9c3d 2679 e1bd 781c 3b3c 4d49 00be
00000100: 8155 d8bd b670 dc3d 8dd2 c3bc 846f efbd
00000110: 0813 86bd 7cfd acbd b218 c1bb 2d4e cf3d
00000120: f515 d33d 3076 a9bd c913 a73d cdee d2bd
00000130: 37d0 c9bc 1535 dcbc 7759 503d 78d5 1e3c
00000140: dc74 ad3d 4e8c e73d d4eb b8bc 41b5 9fbd
00000150: 21db 89bd 918a ce3d f93f 213d dfe0 dd3d
00000160: 7c4f bb3d 758f 91bc 727f 4c3d e3b7 93bc
00000170: 371e 0cbd f933 e3bd e5a3 e53c 886b d03d
00000180: 8f8b b5bb b69c 0f3b 9842 c73d 945f e63d
00000190: e24b 43bd ef4a aebd c382 cbbc 6764 9abd
000001a0: 1023 db3d ec7f 823d fbf2 d03d 2c87 963d
000001b0: 67bd d23d 8a19 5cbc a1c1 5cbd 849f d3bd
000001c0: a3b8 f5bd d772 dcbd a006 febd 4048 d23c
000001d0: fba8 d63d 9760 633d 0ba6 023c 89fa ffbc
000001e0: e361 b5bc 29ea 893d 95d7 dcbc 98c2 b6bd
000001f0: d77e db3d 9e3c 173d e0de f63d 9bfb 293d
00000200: d7fd 8f3c a4ae b8bd 82f9 b2bd 5250 05bc
00000210: b1f6 303d 36d4 8e3d ef0f 223b aa20 3f3d
00000220: 502c 43bd 7690 e13d 9269 003e 8093 023e
00000230: 9737 88bd 6f79 80bc 54d7 13bd 6500 903c
00000240: 0870 a73d 1007 973b f7dd 5abd 847a c2bd
00000250: ccc7 72bc 735a 82bd e002 c3bc e428 00be
00000260: 99f2 423b a7ff 303d 64ad e0bc e339 e3bc
00000270: 7605 2c3d 6027 33bc b0c1 6abd 2145 06be
00000280: 6b88 a73d 0a78 a1bd 0b65 b53d b7f6 f43d
00000290: 037f cdbd ee49 05bd 0c53 833c b54d cb3d
000002a0: 0d55 743d 8692 fbbb b72b 6b3d ecf4 82bd
000002b0: 7870 7e3d f292 c1bd 4a53 c33b 9ac6 d4bd
000002c0: 831c 9e3d b085 cdbd 60a5 44bc 3c5f e83c
000002d0: 6929 23bd 0dcf 4d3d 482d d83d cd14 26bd
000002e0: b1d0 c73d 8648 013e 60de 69bd 7ff6 963d
000002f0: 223d d1bd 412c bc3b 2105 b7bd c501 d8bd
00000300: 3923 2ebd 6af9 e4bd 5d26 633d fe0c bfbd
00000310: 678b 76bd 4490 f3bd 7b6a c73d 46c3 6dbd
00000320: fa7c 82bd 5959 f33a 2a1f 1f3d 55f9 99bd
00000330: 4aa1 16bd 5095 f13d 5d55 c53d 3403 3cbc
00000340: 0a21 9bbd 7a47 a23d c670 583c 3f4f bcbd
00000350: e036 87bd 450a b4bd 95c0 c2bd 8d5c 36bd
00000360: c2ec 7639 df64 0c3e b834 d53d 6090 abbd
00000370: 6708 d73d 0afe 3abd e09e cd3c 11d2 1f3c
00000380: 8f4d 2e3d 4012 bebc 7545 aabd d441 d83d
00000390: 9a31 bbbd e4af 9c3d a854 bc3d 540c 4fbd
000003a0: f3ba 4dbd ac7f 813d 1364 fe3d b536 c9bd
000003b0: 2e0e efbd 25af 5dbd 909f f3bd 13e1 8b3b
000003c0: c71d a23c 4dbe b23d 52fb 46bd a34a b7bc
000003d0: 7246 edbd 6888 ad3c 38cc 6dbb f403 8c3d
000003e0: 3d0b 34bd 1219 0abd 3e36 c9bc a2ae 0539
000003f0: 49b3 3abd 155b cf3d b8c9 eb3d 35f7 cb3c

fc_net.fc_net.2.bias f4 [64]
-0.104179926 0.06929109 -0.08372861 0.05930973 -0.11984486 -0.06948226 -0.05872316 -0.055529468
0.07548759 -0.09600679 0.112418644 0.006568562 0.10258424 -0.11032269 -0.00018384524 0.112109594
0.07117406 -0.057847407 -0.11178049 0.10144362 0.037112284 -0.009600985 -0.12198694 0.08716179
0.07459681 0.036813226 0.07081346 0.08450667 -0.053390685 0.055858042 0.10791959 0.043522093
-0.11032794 -0.11105943 0.045184452 0.042443015 0.10590244 -0.023227494 0.041840676 0.05840669
0.093757026 0.0007369239 -0.0023607677 0.13276063 -0.088541806 -0.08607655 0.06347591 -0.09516168
0.07908455 -0.11846498 -0.080303624 0.10802204 0.121343516 0.05537663 -0.091897674 0.004240358
0.09734282 0.024610354 -0.117748745 -0.014516348 -0.0957463 0.046496693 -0.011465381 -0.036422834
00000000: 495c d5bd 7de8 8d3d e879 abbd c2ee 723d
00000010: 3971 f5bd b74c 8ebd b287 70bd de72 63bd
00000020: 3d99 9a3d 359f c4bd bf3b e63d 173d d73b
00000030: b017 d23d ddf0 e1bd 95c6 40b9 b799 e53d
00000040: b5c3 913d 67f1 6cbd 2bed e4bd acc1 cf3d
00000050: 0d03 183d 734d 1dbc 4ad4 f9bd e181 b23d
00000060: 36c6 983d 77c9 163d a606 913d d511 ad3d
00000070: 31b0 5abd 67cb 643d f204 dd3d 3944 323d
00000080: 9df3 e1bd 2073 e3bd 5513 393d bad8 2d3d
00000090: 61e3 d83d 9647 bebc 2161 2b3d da3b 6f3d
000000a0: af03 c03d 202e 413a 1cb7 1abb 67f2 073e
000000b0: 6855 b5bd e748 b0bd a8ff 813d 20e4 c2bd
000000c0: 15f7 a13d c49d f2bd 3a76 a4bd a93a dd3d
000000d0: f382 f83d 9bd2 623d d934 bcbd b3f2 8a3b
000000e0: ac5b c73d a79b c93c 4126 f1bd fad5 6dbc
000000f0: a316 c4bd 5173 3e3d 4bd9 3bbc 1c30 15bd

action_head.weight f4 [5, 64]
0.11710889 -0.08771103 0.08707504 -0.074928075 -0.015198397 -0.022897903 0.024719415 -0.095533244
-0.10388557 -0.07553984 -0.12667875 0.062303957 0.12905736 -0.07356359 -0.08929162 0.08206805
0.035362005 0.086989775 0.010498166 0.020943832 0.025983743 -0.09016225 -0.025612965 0.08216854
0.0410702 0.018256618 -0.037631214 -0.043956444 0.108629115 0.07105957 -0.06906544 -0.10089291
-0.05900546 -0.034199227 -0.07103727 0.0398944 0.04967518 0.10849593 -0.09464411 0.06220275
0.102871515 0.09377348 0.08956375 -0.06176354 0.07662002 0.035394456 -0.09702829 0.13400935
-0.07647011 -0.11606846 0.030886244 -0.093762405 -0.105810635 0.057784785 -0.08831578 -0.060189053
0.03914444 0.011117814 0.07821985 -0.02674193 0.13441454 -0.010906704 -0.10412216 -0.0230047
-0.12215716 0.061099514 -0.13298544 -0.08381724 0.03901872 0.024047865 -0.021852585 0.05865414
0.012027134 0.00957974 0.015601528 -0.05173566 0.0477778 0.058567487 -0.0037234693 0.077049166
0.058298625 -0.103269614 0.026984764 0.014191086 -0.09420975 -0.0832247 0.009429905 0.101767674
0.12204966 0.055400915 0.01989349 -0.018456334 0.021323094 -0.013597185 -0.040281195 -0.058649905
-0.05062183 -0.05336618 0.06739446 -0.05528852 -0.08020556 -0.06261819 -0.12491038 0.017055657
-0.028694592 0.010404459 -0.015581711 -0.12780128 0.019807888 0.05372482 -0.0871985 -0.07269301
0.020361492 -0.047260325 0.11951053 -0.0037727796 0.048316445 -0.06637304 0.029581161 0.07306417
-0.033148963 0.015417502 -0.10572446 -0.00019810969 -0.08786495 -0.08246587 -0.021698449 0.00941469
0.04290291 0.090641744 0.012824291 0.005611783 -0.10608686 0.055132303 0.11875455 -0.025917383
-0.03191084 -0.04604688 0.13904949 0.052507807 -0.10074266 -0.09569948 0.098121986 0.05227233
0.12431766 -0.04303731 -0.024135746 0.13769342 0.018247504 0.089458235 -0.12066559 0.0075777736
-0.089661516 -0.023476401 -0.066846184 0.0823687 0.060074225 0.11201219 0.14461532 0.051363125
-0.12619153 -0.06151293 -0.13408287 -0.01139766 0.06782248 0.06358182 0.04762389 -0.123166956
-0.07517874 0.03969297 0.02077521 0.1256638 -0.027432766 0.11427399 0.12544064 -0.051690675
0.12670015 0.017878167 -0.069051296 0.11764339 0.004031206 0.112170376 0.14711975 -0.11306592
0.16185293 0.07231069 -0.0116999755 -0.08741397 -0.067179896 0.031140245 0.091982946 -0.13837856
0.07130768 0.08925217 -0.05724462 0.05554562 -0.08175778 0.056989193 0.0273538 -0.10957395
-0.037872605 0.010953277 0.10961955 -0.12603629 -0.034863465 0.11571648 0.09832166 -0.08021895
0.08023565 0.13684885 0.11353478 0.0012283633 -0.008852801 0.08914952 0.12563467 -0.02402235
-0.06928098 0.04460608 0.021655526 0.1202348 -0.013834338 -0.011766613 0.051336177 0.038460813
-0.009146269 -0.054896332 0.08840441 0.122734405 -0.04305876 0.1090799 -0.060754865 -0.032372102
0.13293871 -0.08138003 -0.12927973 0.062086813 -0.05683249 0.022831561 0.030560598 0.08605823
-0.110727236 -0.03495229 -0.05853351 0.09056914 -0.09834555 0.024954516 -0.011229987 0.0006381818
-0.039129794 -0.04684563 0.060360976 -0.1353796 -0.09508037 -0.060448315 0.06911521 0.09333817
00000000: c9d6 ef3d d7a1 b3bd 6654 b23d e473 99bd
00000010: b302 79bc 6294 bbbc 5f80 ca3c efa6 c3bd
00000020: f5c1 d4bd a2b4 9abd 13b8 01be 6f32 7f3d
00000030: 9d27 043e 82a8 96bd 86de b6bd 4b13 a83d
00000040: c0d7 103d b227 b23d 8000 2c3c 6692 ab3c
00000050: dcdb d43c fca6 b8bd 48d2 d1bc fb47 a83d
00000060: 3a39 283d e78e 953c 3023 1abd ac0b 34bd
00000070: f178 de3d ae87 913d 2e72 8dbd f1a0 cebd
00000080: b6af 71bd 7d14 0cbd fd7b 91bd 4f68 233d
00000090: 3478 4b3d 1d33 de3d c5d4 c1bd 50c8 7e3d
000000a0: 4dae d23d 4f0c c03d 336d b73d c4fb 7cbd
000000b0: f5ea 9c3d c7f9 103d c5b6 c6bd bf39 093e
000000c0: 5c9c 9cbd 4db5 edbd 2605 fd3c 8106 c0bd
000000d0: 3fb3 d8bd bdaf 6c3d e7de b4bd cc88 76bd
000000e0: ec55 203d 7e27 363c bb31 a03d e411 dbbc
000000f0: f7a3 093e 08b2 32bc 003e d5bd 5a74 bcbc
00000100: 882d fabd 7c43 7a3d 562d 08be 60a8 abbd
00000110: 18d2 1f3d 0700 c53c 3104 b3bc 533f 703d
00000120: 750d 453c 58f4 1c3c 8d9d 7f3c c5e8 53bd
00000130: a8b2 433d 76e4 6f3d 7305 74bb f4cb 9d3d
00000140: 8aca 6e3d 057f d3bd 270f dd3c bb81 683c
00000150: 0bf1 c0bd b671 aabd e37f 1a3c 926b d03d
00000160: 2cf5 f93d 12ec 623d acf7 a23c bd31 97bc
00000170: c5ad ae3c bac6 5ebc e5fd 24bd e23a 70bd
00000180: d658 4fbd 7f96 5abd 1b06 8a3d 3776 62bd
00000190: d042 a4bd f73d 80bd 03d1 ffbd 4eb8 8b3c
000001a0: ec10 ebbc 7777 2a3c 6f4a 7fbc 57de 02be
000001b0: 2744 a23c 8f0e 5c3d 2195 b2bd 13e0 94bd
000001c0: 25cd a63c 0b94 41bd f0c1 f43d bd40 77bb
000001d0: 77e7 453d 97ee 87bd 3154 f23c aba2 953d
000001e0: 35c7 07bd b199 7c3c 1186 d8bd aabb 4fb9
000001f0: 8af2 b3bd dee3 a8bd f2c0 b1bc 1240 1a3c
00000200: f6ba 2f3d 61a2 b93d fa1c 523c 0ce3 b73b
00000210: 1144 d9bd 69d2 613d 9635 f33d b150 d4bc
00000220: f1b4 02bd a79b 3cbd fd62 0e3e 6d12 573d
00000230: 2b52 cebd 17fe c3bd 2ef4 c83d 831b 563d
00000240: 429a fe3d e447 30bd 54b8 c5bc 81ff 0c3e
00000250: ca7b 953c e135 b73d 851f f7bd f94e f83b
00000260: 75a0 b7bd 9551 c0bc a7e6 88bd ecb0 a83d
00000270: 6410 763d a666 e53d 0a16 143e 2462 523d
00000280: 5a38 01be fbf4 7bbd 054d 09be 40bd 3abc
00000290: 83e6 8a3d 2f37 823d 4511 433d f53e fcbd
000002a0: 50f7 99bd 1995 223d c630 aa3c 03ae 003e
000002b0: aeba e0bc 7b08 ea3d 8373 003e 9ab9 53bd
000002c0: afbd 013e 3c75 923c c46a 8dbd 05ef f03d
000002d0: 3518 843b 95b9 e53d 8fa6 163e 1b8f e7bd
000002e0: c6bc 253e a117 943d 41b1 3fbc 1806 b3bd
000002f0: 9d95 89bd d419 ff3c 8e61 bc3d 1cb3 0dbe
00000300: c309 923d d7c9 b63d 5679 6abd ce83 633d
00000310: 9f70 a7bd 806d 693d 1415 e03c 4f68 e0bd
00000320: 4e20 1bbd 6075 333c 3780 e03d a80f 01be
00000330: fecc 0ebd c3fc ec3d de5c c93d d549 a4bd
00000340: 9752 a43d 1b22 0c3e ec84 e83d 0801 a13a
00000350: 570b 11bc 0694 b63d 60a6 003e 85ca c4bc
00000360: 30e3 8dbd ddb4 363d ee66 b13c aa3d f63d
00000370: 6ba9 62bc c1c8 40bc e245 523d 1689 1d3d
00000380: 3cda 15bc fada 60bd 5f0d b53d 2d5c fb3d
00000390: 625e 30bd 4865 df3d 18da 78bd 9c98 04bd
000003a0: 1621 083e 93aa a6bd e861 04be be4e 7e3d
000003b0: 2fc9 68bd 4109 bb3c 385a fa3c 4c3f b03d
000003c0: f6c4 e2bd 222a 0fbd d5c0 6fbd 507c b93d
000003d0: 6469 c9bd 6a6d cc3c fbfd 37bc a84b 273a
000003e0: 9046 20bd 34e1 3fbd 123d 773d f3a0 0abe
000003f0: 7fb9 c2bd a798 77bd 468c 8d3d 1528 bf3d

action_head.bias f4 [5]
-0.05295886 0.07935823 -0.014010065 -0.07390033 -0.03581535
00000000: 64eb 58bd 9186 a23d 798a 65bc 0e59 97bd
00000010: 1eb3 12bd

value_head.weight f4 [1, 64]
0.0048878933 0.10201114 0.04908324 -0.024327025 0.05461484 0.09544591 -0.021637881 0.03406617
0.016125325 0.02355794 -0.042754795 -0.011811829 0.045146722 0.022222795 -0.04536632 -0.046535265
0.12022255 0.055538986 0.06864365 0.07912552 0.0015964351 -0.057255942 0.03495413 -0.044820502
-0.042736188 -0.014207771 0.112953365 -0.021269238 0.08694493 -0.10577642 -0.033724938 0.04715309
-0.11132204 -0.023406837 -0.11250913 0.015471265 0.022864569 0.08057454 0.11709957 -0.10082799
0.053511344 0.019596657 -0.023478052 0.07010209 -0.046399273 0.11540291 0.08501675 0.085877955
0.011504469 -0.07521955 0.085994646 -0.07747768 0.088186145 -0.021505373 0.045711815 0.105218954
-0.023364436 -0.031061433 -0.04806524 -0.021014167 0.09965655 -0.07572196 0.0012137977 0.027708605
00000000: 9f2a a03b 37eb d03d 820b 493d 7849 c7bc
00000010: cfb3 5f3d 2579 c33d ed41 b1bc f888 0b3d
00000020: 4219 843c 95fc c03c a71f 2fbd 6786 41bc
00000030: c5eb 383d 940c b63c 09d2 39bd c39b 3ebd
00000040: 3e37 f63d d97c 633d 0b95 8c3d 900c a23d
00000050: 793f d13a 3585 6abd 102c 0f3d b495 37bd
00000060: 240c 2fbd b6c7 68bc 1854 e73d d33c aebc
00000070: 2f10 b23d 4fa1 d8bd 2923 0abd 9923 413d
00000080: cffc e3bd b2bf bfbc 306b e6bd 307b 7d3c
00000090: 7a4e bb3c 4404 a53d e6d1 ef3d e87e cebd
000000a0: b62e 5b3d 2b89 a03c 0b55 c0bc af91 8f3d
000000b0: 2a0d 3ebd 5c58 ec3d 431d ae3d c8e0 af3d
000000c0: 3e7d 3c3c b50c 9abd f61d b03d 9eac 9ebd
000000d0: f09a b43d 092c b0bc 503c 3b3d 097d d73d
000000e0: c666 bfbc 8c74 febc 0fe0 44bd e725 acbc
000000f0: bc18 cc3d 1d14 9bbd 4b18 9f3a 28fd e23c
