2022/20-华立民 指导老师-马里佳/code/output/2-agents_domain-PredatorPrey-2_adversaryratio-0.5_RADAR_X_2022-11-10-18-06-51/adversary_model.pth (torch, 52943 bytes, 7 tensors)

fc_net.fc_net.0.weight f4 [64, 125]
00000000: 4fee 883d c78b 873d 9b1c 923d dcd8 cebc
00000010: 8004 17bd e07d 9fbb d064 df3b 8d65 afbd
00000020: 708b 9ebd 01c8 9f3d d843 523c b1ce a03d
00000030: 6ac0 82bb a7e7 a93d 2464 69bd c078 54bb
00000040: 8c6c 0abd ebda 823d 0598 a33d 0825 9cbc
00000050: 9cd6 e7bc 25af 61bd d447 b53c b80d 82bc
00000060: 301b 763c ae2e 9b3c 8ec7 5f3d c2c6 89bd
00000070: 596e 943d fc14 823d 1799 793b b645 94bc
00000080: d4b0 933d d77f 613d a373 3abc 2645 07bd
00000090: e85c b53d 8ad1 eb3c bb65 10bc fbb6 91bc
000000a0: 820e df3c 838d 893d e4fe 4dbd 03e3 43bd
000000b0: 7128 a13d a473 843d 9e5f 0f3d ef02 34bc
000000c0: 2b83 a53d e381 743d c7aa abbd e181 abbd
000000d0: 6f18 84bd 395a 6b3d 6bf6 953b a233 683c
000000e0: a1a9 42bd e06c 93bb 85a2 fe3c 8e0e b13d
000000f0: d737 063d 9fd6 6c3d 6a86 7c3c b1f4 28bd
00000100: 8a24 f23c 358e 783d 88e4 9d3d 650c 9d3d
00000110: 2ef3 c2bb a6c9 24bd 97e1 acbd 94c4 dd3c
00000120: 62cb f83c 758d 843d 0184 af3d 1825 c3bc
00000130: 78f0 a4bd 7ebc 09bd 174a 6f3d 1912 b5bd
00000140: 4dca 9c3d 8d7a e73c cb8f 08bd 17a1 aa3d
00000150: 5e6b f73c 2d97 a13b 85d7 90bc 0c67 f5bc
00000160: eb62 7ebd dfab 3dbd 1300 76bd acae a3bd
00000170: 6525 cd3c 1858 7d3d de8a 17bb 318a 05bd
00000180: c485 92bd 2e85 80bd 41f6 60bd 06f1 dabb
00000190: c6f7 333d 801e de3b 6f86 a03d f481 a1bd
000001a0: 4deb 9c3d f3e0 b6bd 01cb a3bd f71e 37bd
000001b0: 99bb 853d b187 98bd 39d3 05bd 0f71 863d
000001c0: 584b aa3c b4c3 96bc 1eb8 433d 6e49 213d
000001d0: b05e 783c 1d82 a2bd 49a8 a73d f2e4 603d
000001e0: 8cf2 cc3c e0b9 e03c 7cc2 6bbd 9e78 9dbd
000001f0: 1e6c a5bd c2f8 b6bd 4695 6ebd 3b2b a4bd
00000200: a0fe 84bc 3234 2b3d f250 353d 94db 80bc
00000210: daca 88bd 3224 633d 4ea3 61bd f79b 893d
00000220: a929 56bd 8151 0e3d c052 30bc 9590 9b3d
00000230: 826c 1abd 81d7 8c3d 01d9 813d f0cc 50bd
00000240: a4b9 a3bc f8b4 74bc ddd8 9c3d 8898 77bc
00000250: 0863 7d3c 20cc 0bbb eddf 9bbd 07d0 123d
00000260: f2e6 4fbd f267 ef3b 007f 4c3d 2a9c 51bb
00000270: ce78 93bd 7d67 77bd 31e9 063d d96f a0bd
00000280: cc97 9c3b a3f7 0abd 1a66 08bd 714f 0e3d
00000290: 4927 44bd 28d5 b33c 9ac5 8ebd 0c05 483d
000002a0: 74ab 8fbd 97cd 86bd 079d 433d 84fc abbd
000002b0: c68a 323d 128b b3bd ed2e 0a3d e0e1 763b
000002c0: 8865 43bc f8bb 943d f852 843d 5355 163d
000002d0: d0f9 393d 9c8f bc3d 2436 86bd bb7e b7bd
000002e0: 89fe 223d 11f1 94bd 0ee4 3e3c 35ba 003d
000002f0: 7630 68bd 2adc a9bc c686 953c 455d 503d
00000300: df7c c53c 4075 38bd 58c3 a0bd 902b 7ebd
00000310: e4da 04bd 6419 45bc 9500 fcbc c1f4 d33c
00000320: eb4a adbd 85fa 0d3d 8bd8 5bbd 0287 1a3d
00000330: b445 aa3d 55e5 703d af25 dfbb 5b59 4f3d
00000340: a608 183d c37a 1abd ccbd 50bd bc1f a2bd
00000350: b2ff 18bd 3b28 7d3c 5924 953d 2298 7f3d
00000360: 661b 1ebd 0dc8 b9bc b427 a73d a9dc 563d
00000370: b659 a23d 2304 12bd 53ca 723d af84 65bd
00000380: d10c 13bd 6485 ce3c 72fa 3a3d 8098 1f3a
00000390: 20ab d23c cf88 9f3d 7826 463c de6a 4f3d
000003a0: e6fd b5bd b6f0 13bd 93d7 8b3d a0ff 073d
000003b0: aadb 93bd 0045 393b 2aed 513d 33e6 9fbd
000003c0: 5151 903d 5b4a 08bd a1bb 9a3d b450 acbc
000003d0: ba51 25bd 3339 9f3d 9e41 7dbd 8e62 433d
000003e0: 5471 c73c 808a 10bb 8c51 ca3c ff94 16bd
000003f0: 5b96 21bd 7ab0 0ebd 055c 873d 4cd2 8f3c
0.06686079 0.06618457 0.07134362 -0.025249891 -0.036869526 -0.0048673004 0.0068174377 -0.08564291
-0.07741439 0.078018196 0.012833558 0.07851923 -0.0039902227 0.08296137 -0.056980267 -0.0032420605
-0.033794925 0.063894115 0.0798798 -0.019060627 -0.028300576 -0.05509867 0.022128977 -0.015875682
0.01502113 0.018943157 0.05463367 -0.06727363 0.0724761 0.06351659 0.0038085633 -0.018099647
0.07211462 0.05505356 -0.011380109 -0.03302493 0.08855611 0.02878644 -0.008813317 -0.017787447
0.027228598 0.06716444 -0.05029191 -0.047823917 0.07869042 0.06467369 0.035003297 -0.010987028
0.08081659 0.059694182 -0.083821826 -0.08374382 -0.06449973 0.05745909 0.0045764945 0.0141724665
-0.047525052 -0.004499063 0.031083355 0.08645354 0.032768097 0.057821866 0.015412906 -0.04124898
0.029558439 0.060682494 0.077096045 0.0766838 -0.0059493994 -0.04023137 -0.08441465 0.027071275
0.030370418 0.06472293 0.085700996 -0.023821399 -0.08053678 -0.033627026 0.058420267 -0.088413425
0.07655773 0.028256679 -0.033340257 0.08331507 0.030202564 0.0049313516 -0.017680893 -0.029956363
-0.062106054 -0.046306487 -0.060058665 -0.079923004 0.025042245 0.06185159 -0.0023123543 -0.032602493
-0.0715442 -0.06275402 -0.054922346 -0.0066815643 0.043937467 0.006778538 0.07838141 -0.07886115
0.076620676 -0.089296244 -0.07997704 -0.044707265 0.06529922 -0.07447756 -0.03267214 0.06564533
0.02078788 -0.018403865 0.04778301 0.03937667 0.015159294 -0.079349734 0.08186395 0.05490584
0.025018 0.027432382 -0.05755852 -0.076890215 -0.08077262 -0.089341655 -0.058247827 -0.08016058
-0.016234696 0.041797824 0.04426665 -0.015729703 -0.06679316 0.05545444 -0.05508738 0.06719201
-0.052285824 0.034745697 -0.010761917 0.07595936 -0.037701137 0.068770416 0.06340218 -0.050976694
-0.019985981 -0.014935724 0.07658551 -0.01511205 0.015465505 -0.0021331385 -0.0761107 0.03584292
-0.050757356 0.0073060924 0.049925804 -0.003198395 -0.07200776 -0.06040143 0.032937232 -0.07833833
0.004778838 -0.03392757 -0.033300497 0.03474373 -0.047889028 0.021952227 -0.06971283 0.048832938
-0.07015124 -0.06582182 0.047757175 -0.08397773 0.043589376 -0.0876676 0.03373616 0.0037671253
-0.011926062 0.07262415 0.064611375 0.036702465 0.045404255 0.09207079 -0.06553295 -0.08959719
0.039793525 -0.07272542 0.011651052 0.03142758 -0.05668684 -0.020734865 0.018252742 0.0508702
0.024107395 -0.045033693 -0.07849759 -0.062053263 -0.032435313 -0.012029979 -0.030761996 0.025873544
-0.08461555 0.034662742 -0.05367331 0.03772641 0.08314076 0.058812458 -0.006809912 0.050622325
0.037117623 -0.03771473 -0.050962254 -0.07916209 -0.037353225 0.015451486 0.072823234 0.062400945
-0.038600348 -0.0226784 0.0816187 0.05245653 0.07927267 -0.035648476 0.059274983 -0.05603474
-0.035900895 0.02521009 0.045649 0.0006088093 0.025716364 0.07789766 0.012094133 0.050639026
-0.08886318 -0.03611823 0.06828227 0.033202767 -0.07219632 0.0028269887 0.051251568 -0.07807579
0.0704676 -0.033274036 0.075553186 -0.021034576 -0.040361144 0.07774582 -0.061830156 0.04770141
0.024346031 -0.0022055209 0.024697088 -0.036763187 -0.03945003 -0.03483627 0.06609348 0.017556332

fc_net.fc_net.0.bias f4 [64]
00000000: 7cb8 933d 5fef 18bd 6ab5 93bd cc8c f73b
00000010: 2f97 a83d 17a1 b13d 829b 16bd 4455 493c
00000020: 262c b83a 9445 2fbd 1142 f0bb 766e adbb
00000030: 7670 84bd b881 1dbd 3a21 a33d 1da2 54bd
00000040: ab55 cb3b 2316 433d fd1f 8cbc 548f 50bd
00000050: f642 e7bc a535 2e3b 957a a43d 1218 3ebd
00000060: 38e7 403c 1840 d3bb 4dbe ba3c e76f b23d
00000070: d80f 67bc 7b8d 843d d62c 2b3d 4bef 203d
00000080: 473a 2a3d 3cf3 4ebc af58 91bd 0577 b5bd
00000090: cd91 84bd e60e b3bb 07e6 07bd c405 17bc
000000a0: c351 193d b831 aabc f971 cc3b 5b35 733d
000000b0: 8a85 9d3b 7d74 a63d 19c3 693d 3a42 063d
000000c0: a9e9 e1bc e798 703c 4578 a33d 5ad1 263d
000000d0: 76fb 8e3c 25aa a13d c413 273d 7e45 67bd
000000e0: e135 cd3b 760f 0f3d 4dde b9bd 4e51 2f3c
000000f0: ecc6 983c 5c8e 233d 02b4 a93d bc71 f63b
0.07212922 -0.037337657 -0.07212336 0.007554626 0.08231961 0.086733036 -0.036769398 0.012288395
0.0014051243 -0.042790964 -0.0073320945 -0.005292709 -0.06466763 -0.038453788 0.07965322 -0.051912416
0.006205281 0.047628533 -0.017105097 -0.05091794 -0.028230172 0.0026582268 0.08031193 -0.046409674
0.011773877 -0.0064468496 0.02279582 0.0871275 -0.014102899 0.06472298 0.041790806 0.039290708
0.041559484 -0.012631234 -0.07096993 -0.08860592 -0.06473122 -0.0054644225 -0.033178356 -0.009217683
0.03743149 -0.02077566 0.0062391725 0.059377056 0.004807179 0.08127687 0.057070825 0.032778002
-0.027577238 0.014684892 0.07981924 0.040726997 0.01745389 0.078937806 0.040790334 -0.056462757
0.0062625264 0.034926854 -0.09075604 0.010700537 0.01864954 0.039930686 0.08286287 0.0075208824

fc_net.fc_net.2.weight f4 [64, 64]
00000000: 54f6 1d3c a2b0 5abd f267 69bd 689e c0bc
00000010: fee5 fbbd 79c5 243d 8073 a5bd 26f1 f8bd
00000020: e80e b5bd 48ca f3bc c262 863d d33f cb3d
00000030: 998c 0b3c 2571 983d bdde e5bd 4588 c3bd
00000040: 7658 cc3d 4fd3 c73d 7718 bfbd cd85 653d
00000050: c0dd 1e3d bc30 eb3d 9f62 353d 39ca ad3d
00000060: ff74 f53d 1c61 1abc 2566 a9bc 266c b13d
00000070: 623b df3d cfff ba3b f5db ef3d e227 283d
00000080: 3cd0 7f3d 2f72 b1bd 09d0 5f3c 2ca7 a9bd
00000090: b99d f33d db02 a43d 4acb f13d ac84 6b3d
000000a0: c970 573d 0e10 48bb 5028 ac3d cf46 58bd
000000b0: c4fc c5bd 81a3 533d 8eb1 26bd 4667 e1bd
000000c0: cbd1 403d cc97 a0bd 33cb a73d 18e6 dcbb
000000d0: c117 be3d 1cc6 dbbd b400 533d c7f3 513d
000000e0: 7d03 b73c 7406 20bc 078d e93c de33 d23c
000000f0: 531c 7ebd 1b7a 023e 8aa9 913d 5c08 c73d
00000100: ca78 403d bd05 7e3d 9897 81bd 96f2 b9bd
00000110: 6a94 9b3d 482c f1bc 9596 443c fd81 a03d
00000120: 64fb 60bd b7b4 b8bc 486c 773d 0a51 15bd
00000130: 768d c93d 0a61 5abd f043 34bd 79c8 1d3d
00000140: 34b5 bb3c 2861 d73c 7b9a b6bc 11ee e33c
00000150: 16fc acbc 41f6 633c 2a09 dc3d f221 703c
00000160: d07b 09bc 656f c93d 191f ffbc 9f3c c23d
00000170: 2974 0abd 3f5f af3d 73f8 c4bb f558 e7bc
00000180: 9f9d b13d 6aed 0a3d f211 cabb 45d0 59bd
00000190: c848 b2bd d11b 613b a083 7d3b 239b e8bd
000001a0: 9563 ed3d a25f 183b 4fe5 da3d 2108 cebd
000001b0: 85e1 a1bb 202e ae3d 7d26 f1bd 5e2a b7bd
000001c0: 1bfb ac3d 6e3d e0bd 9746 943d 4928 97bd
000001d0: c8b3 a5bd 261b ff3d 685d b83d ba2a 43bd
000001e0: cd87 e23d db69 ebbd e6b4 ff3c 2a16 963d
000001f0: 44f1 f43c 2111 003e 16df 58bc d820 a5bd
00000200: 7d98 8fbd cc8d 4a3a b5b1 a63d f2c2 ccbd
00000210: cf59 be3d 4ee1 973d d5ae ca3c 28ec ca3d
00000220: d96c 663b 1eff dc3b 6d6b efbd 9fa5 ab3d
00000230: cf2b 913c c5f2 c13d 8c38 ccbd 9a62 cbbc
00000240: ef95 523d c470 d5bb 53c7 803d 431d 07bd
00000250: 4c41 dcbd 77ea d03d 8233 a13d 23b5 74bd
00000260: d245 f03c b310 2d3d d3e7 bf3c 0d45 d4bd
00000270: 5ab6 bebb 3a8d f4bd a85b f53c 320f edbd
00000280: fb50 603b 78cd 0e3d 0c79 9a3d 3baf 903d
00000290: 8d70 d93d 7ab6 f8bd f0b8 7dbc c99e 46bd
000002a0: a5a7 a63d bd0a e43c 2bf7 b8bb a01b dd3d
000002b0: 42d2 8a3d 6ff4 833d d56a 87bc 763b dabd
000002c0: 9d67 2dbd 8dd2 ad3d 6150 a33b d205 67bd
000002d0: ad6d d83d 8057 f03c 448b 15bd 9b25 afbd
000002e0: 6178 353c 1522 aa3d e7f6 a8bd a9c2 5f3c
000002f0: ee8c 71bd 83b8 fc3c 4d61 95bc a091 463d
00000300: 4aca a0bc bd11 6e3d c370 fd3d 1613 a13c
00000310: 3457 d1bd 7ebe 79bd 8680 dcbd 0636 a8bd
00000320: ec82 33bd 15cd db3d e3c8 023e 6c26 efbc
00000330: 1c72 c7bd cee1 943c 0701 fbbd de48 c7bd
00000340: 85c1 05bd 9c6a 143d 6458 0f3d 4259 fa3d
00000350: f22b fbbd 182f 513d 4d78 eebd d376 4dbd
00000360: de02 533c 6a4e 2a3d 5600 c43d ff67 a93d
00000370: 51e1 b2bd 2ea6 313d 7e64 a73d 767d e83d
00000380: 629b f8bd bd9b c03c 3b19 eabd 7ee0 583d
00000390: 1b97 cd3d 0342 703d 19b3 623d f36c 3d3d
000003a0: 3731 88bd b2cf 923c 379f ecbd b8dc 2ebd
000003b0: 4d18 093d eaaa 1bbb 8dfa 4c3d ecdb 36bd
000003c0: a1ba 06bd d449 9abd 1fbb 133c 4c29 93bd
000003d0: 2aed ae3d a5d6 803d 8882 223d d640 6a3c
000003e0: c2d0 773d c92c 20bd 021e 5dbd 4840 eebd
000003f0: 49fa 58bd d9f9 69bd cbd9 fe3d e1dd 853d
0.009641249 -0.053391106 -0.056983896 -0.023513034 -0.12299727 0.040227387 -0.080786705 -0.121553704
-0.08840734 -0.029759541 0.06561805 0.09924283 0.008517408 0.074434556 -0.112241246 -0.09547476
0.0997781 0.09757101 -0.09330838 0.056035805 0.038785696 0.11483905 0.044283506 0.084858365
0.11985206 -0.009422567 -0.02067859 0.08663206 0.10899998 0.0057067643 0.11711875 0.04105366
0.062454447 -0.08664357 0.013660439 -0.08283839 0.118953176 0.08008357 0.118063524 0.057499573
0.052597795 -0.0030527147 0.084061265 -0.052801903 -0.09667352 0.0516696 -0.040696673 -0.11006026
0.047075074 -0.07841453 0.08193054 -0.0067412965 0.092818744 -0.10731146 0.051514342 0.051257875
0.02234053 -0.009767164 0.02850963 0.025659498 -0.06203873 0.12741892 0.07112415 0.09718391
0.046990193 0.06201719 -0.06327742 -0.09079473 0.07596667 -0.02944006 0.011998792 0.07837293
-0.054927245 -0.022547109 0.060406 -0.036454238 0.09841435 -0.0533152 -0.044010103 0.038521264
0.022913553 0.026291445 -0.022290459 0.02782348 -0.021116298 0.013913692 0.107439354 0.014656531
-0.008391336 0.098357 -0.031142758 0.09484219 -0.033802185 0.085630886 -0.006011063 -0.02824066
0.08672642 0.033917822 -0.00616669 -0.053177137 -0.08705288 0.0034348855 0.003868319 -0.11357715
0.115912594 0.002325036 0.106882684 -0.10060144 -0.004940214 0.085048914 -0.11774919 -0.08943628
0.08446332 -0.10949217 0.072400264 -0.07380731 -0.08090931 0.1245635 0.09002191 -0.04764817
0.11061058 -0.114948 0.031214189 0.07328446 0.0299002 0.12506534 -0.013236782 -0.08062905
-0.07011507 0.0007726818 0.08139364 -0.0999812 0.092944734 0.0741602 0.02474157 0.099083245
0.0035160093 0.0067442795 -0.11690412 0.08381199 0.017721085 0.09470133 -0.09971723 -0.02482729
0.05141252 -0.006513687 0.06288018 -0.03298689 -0.10754642 0.102009706 0.078711525 -0.059743058
0.029330168 0.042252254 0.023425972 -0.10364733 -0.005820078 -0.11940999 0.029950932 -0.11575164
0.0034227956 0.03486392 0.07542619 0.070646726 0.106171705 -0.1214418 -0.015485987 -0.048491273
0.081374444 0.027837152 -0.005644699 0.10796285 0.06778385 0.064431064 -0.016530434 -0.106558725
-0.04233514 0.08487425 0.004983947 -0.056402035 0.10567794 0.029338598 -0.036509767 -0.085520945
0.011076064 0.08307282 -0.08250218 0.01365725 -0.05897229 0.0308497 -0.018234873 0.048478723
-0.019627709 0.058122385 0.12375023 0.019662421 -0.10221711 -0.060972683 -0.107667014 -0.08213429
-0.04382603 0.10732476 0.12771945 -0.029193126 -0.097385615 0.018174078 -0.12256055 -0.09730695
-0.032655258 0.036234483 0.034996405 0.12224056 -0.12264241 0.051070303 -0.11644039 -0.050162148
0.012879102 0.041578688 0.095703766 0.08271789 -0.08734382 0.043371372 0.08173464 0.11352055
-0.12139012 0.023511762 -0.114305936 0.052948467 0.10038587 0.058656704 0.055346582 0.04624648
-0.06650012 0.017921302 -0.11553805 -0.042690963 0.03347044 -0.0023752996 0.05004363 -0.044643328
-0.032892827 -0.07533613 0.009016781 -0.07185611 0.08541329 0.0629094 0.039675266 0.014297685
0.06050182 -0.03910521 -0.053983696 -0.116333544 -0.052973066 -0.05712304 0.124438845 0.06536461

fc_net.fc_net.2.bias f4 [64]
00000000: a4d1 9e3c 748f ffba cbf4 18bc e417 213b
00000010: 6df4 97bd 9a47 103d 0c6e 723d 0e75 8a3b
00000020: 6391 babd 9774 dcbd 0078 b13d d2cb 96bc
00000030: 5f37 973d d943 7fbd 2f04 09bc 2de0 8f3c
00000040: 2fe2 083d cf18 b03d 463c 423d 17da 9c3d
00000050: 70a0 f93d db8a c1bd 8196 6bbc 866b 89bc
00000060: f8ea c03d 13a4 8dbd 5078 ed3d b149 d43c
00000070: b5e5 063d fe1b a03d b05f 3a3a 2804 03be
00000080: 70ad 763d 757d d43d cb70 99bd ab26 c73c
00000090: 6fae 243c a0c8 83bd a0c5 d5bd 52dd 8cbc
000000a0: 6d44 9abc 1e23 983d 4380 5bbd edf8 d1bd
000000b0: 350d 5e3d 74b6 ce3d 05ca 0dbd f463 3f3c
000000c0: d30e c53d 7d9f 733d 6280 ad3d 9e40 bcbd
000000d0: d34d 023e 5805 c5bd d6e1 cb3d bee1 03bd
000000e0: 086f 3d3d 6ba8 f3bd fc6b b03d 4677 fb3c
000000f0: 2971 e1bd 710f 84bd 6326 5b3d bf86 8c3c
0.019387074 -0.0019497708 -0.009335707 0.002458089 -0.074196674 0.035224535 0.05918698 0.00422538
-0.091097616 -0.10764425 0.08665466 -0.018407736 0.07383608 -0.062320564 -0.008362814 0.01756295
0.03341883 0.08598482 0.047420762 0.07658785 0.12188804 -0.09450313 -0.014379145 -0.016774904
0.09419817 -0.0691606 0.115952134 0.025914045 0.03293391 0.07817839 0.00071095955 -0.12794554
0.060223997 0.103754915 -0.07492217 0.02431043 0.010051354 -0.064347506 -0.104380846 -0.017195377
-0.018831456 0.07428573 -0.053589117 -0.10252557 0.054211814 0.10093394 -0.03461649 0.0116815455
0.09621968 0.05947827 0.08471753 -0.09192012 0.12725 -0.0962016 0.09955184 -0.032197706
0.046248466 -0.118973576 0.086143464 0.030696522 -0.11007912 -0.06448258 0.053503405 0.017154096

action_head.weight f4 [5, 64]
00000000: 2f7e bdbc 7919 e73d 48da b3bd 5261 68bd
00000010: e41f cabd 15cc 9f3d e248 0a3d 95a9 a5bc
00000020: f3c0 a03c 847a 7e3d 967a 9cbb 23af e4bc
00000030: fe88 d63d f24f 863c 3a7e 703d 88e4 59bc
00000040: 5a78 1e3d 3c96 b03d 5506 a03c cd26 9c3a
00000050: ac28 243d 113e 97bd 2dec 1c3d f7ed 7fbc
00000060: 9035 90bd 0a24 02be 7d37 f0bc d69e d1bd
00000070: f0aa 0b3d 601f 94bd 00d4 c7bd 0e11 c63d
00000080: 32d8 153d 21a6 293c c889 5b3d 7eef 1dbd
00000090: bebc 31bd 33a6 af3d 7f6c 5cbd 1fc6 a0bc
000000a0: c329 733d 18a5 aebd 2afb f73c 2d0e ca3c
000000b0: 41f9 a63d 6d48 97bc 875c 5dbd 878d 93bd
000000c0: 82b4 eb3d e967 8dbd dbb5 9c3c 0e6a 41bd
000000d0: 2ba7 c3bb c91d bdbd e7eb 823d 8688 cb3d
000000e0: 570c 44bd 187d d43d 63a0 533b c1bf 84bd
000000f0: 3605 cdbd 278f 9bbd 45a9 3dbc 9ac2 82bd
00000100: 114a b73d e3f5 f5bd 8b8d 5b3d 6bb4 10bd
00000110: 5a79 db3d a0a5 a4bc ce5c dc3d cd3f 6fbd
00000120: 1d91 e53d bba6 e93d 858d 003d 03b2 ca3d
00000130: 6fa8 04be 6288 963d 7db3 fd3c 53d7 e4bd
00000140: 412f cc3c 6bab 79bd c8fa ba3d f97d 02be
00000150: 347b a9bd bf88 033d 7846 9a3a ea57 ba3d
00000160: d687 233c ad93 683d e736 e4bc 11c4 403c
00000170: 9356 db3d e485 babd 9d3d 323d 31aa ab3d
00000180: 37dc a03d a384 ba3d dd26 63bd ddbf 833d
00000190: df0c cb3d a07e a2bc e0b5 afbd e0e9 5c3c
000001a0: cd17 a5bd 682f 3e3d 294e 2ebd dbd0 7b3d
000001b0: 57aa 6bbd 255d 973d f69d fa3c 900b bfbd
000001c0: 8bcf d43d 7d6d e13d cbe0 e9bc af2f f3bc
000001d0: 9b07 c8bd 25dc 633c d6b5 febd d0da b73c
000001e0: e446 df3d 3c68 ad3d 4561 103d aec4 f83d
000001f0: f3f6 b4bd 2c95 1abd 39a5 02be 175c bfbd
00000200: f11f 4b3d 1cdf cebd 3ae7 df3d f5a6 1abd
00000210: d12d 833d 72fc 5fbd 728b ce3d 8367 8bbd
00000220: 2295 c33d 7f78 e6bd 694e b3bb 529f cf3d
00000230: 58fc 013d 60c7 c13d a96b 6fbd 2728 493c
00000240: d492 a03d 1289 ecbd 14d2 a63d bc22 bb3c
00000250: 3a24 623d bc93 e13d fcda b33d 018c 193d
00000260: b455 463d 2100 d6bd dd82 9e3d 25d1 33bc
00000270: 0c64 453d d8ed e8bd c3d0 6c3d ff6e cdbd
00000280: 8d43 b3bd 8811 f3bd 86d1 b33d 9a01 d1bb
00000290: 4df5 463d e7b6 543d 8297 2b3d d495 a6bd
000002a0: 4d99 983d 68cd a93c 41be 1d3d 7147 493c
000002b0: e099 933d 9694 5b3d 6785 c83d ab22 cbbc
000002c0: 4b81 973c 3a8f d93d 75ed 8b3d 42ca 12bd
000002d0: a9f2 e8bd fa55 8b39 8d58 88bd b331 9a3d
000002e0: 39de 9ebd 340f 1bbd c44d ef3d adc6 823d
000002f0: c87c 63bd c878 adbd 123a 183d 1789 9ebd
00000300: 370a 6b3d f1b7 a1bc 5824 a4bd 81ec 84bc
00000310: 0784 ed3d b287 50bd fcf5 e9bd 8fa1 93bd
00000320: 1847 ffbd abc9 b63d 9ce4 74bd 1410 bd3d
00000330: 6c29 12bd 0583 9fbd 77b4 a0bd 403e fdbc
00000340: 1e14 963d 836b a73d 6b6a 9ebd 5c71 9fbd
00000350: f050 b5bd c6fd e53d c915 debd 81f3 f2bd
00000360: fef2 55bb 13b7 b33d bc1b 40bd 06c2 5f3c
00000370: b76a ee3c 25eb 163d 72e0 a4bd b85c c2bd
00000380: 90c3 f53c 3611 32bc a97c cf3d 99ec a63d
00000390: 4620 80bd b4a0 9f3d 749a 99bd 87af 42bd
000003a0: 1feb 0bbd 2de9 a2bd b5ec b23d dfaa 863d
000003b0: b29f 333d e099 a73d 0062 bdbd f815 f2bd
000003c0: fc86 32bd e4b6 8e3d d80a a63d fc92 afbd
000003d0: e084 843c 0e39 b23d 2f53 bdbd 524b dd3b
000003e0: 2bfb d8bd 7b6f 423d 6711 88bd 9910 97bc
000003f0: 91e5 a73d cfc2 1ebc c3e4 463c fee6 dabd
-0.023131458 0.112841554 -0.08781868 -0.056733437 -0.09869364 0.078025974 0.033760913 -0.020222465
0.019623255 0.06212856 -0.0047753556 -0.027915543 0.10475348 0.016395543 0.05871413 -0.013299115
0.038688995 0.08622405 0.01953427 0.0011913419 0.04007785 -0.07384885 0.038311172 -0.0156207
-0.07041466 -0.1270906 -0.029323334 -0.10235374 0.034098566 -0.07232547 -0.09757233 0.09671222
0.036583133 0.01035455 0.053598195 -0.038558476 -0.04339289 0.08576622 -0.053814407 -0.019625721
0.059366 -0.08527583 0.030271132 0.024664963 0.0815301 -0.018467152 -0.05404332 -0.072047286
0.115090385 -0.06904585 0.019129684 -0.047220282 -0.0059708557 -0.09234197 0.06392651 0.09938149
-0.04786333 0.10375422 0.0032291643 -0.06481887 -0.100107595 -0.075956635 -0.0115760015 -0.063847736
0.08949674 -0.1200979 0.053601783 -0.03532831 0.10716505 -0.020098507 0.107598886 -0.058410455
0.11209319 0.114087544 0.031384964 0.09897234 -0.12954877 0.07350232 0.030969376 -0.11173882
0.024924876 -0.060954493 0.09129864 -0.12743367 -0.08275452 0.032112833 0.0011770269 0.090987995
0.009981116 0.05678146 -0.02785821 0.011765496 0.10709872 -0.09107569 0.04351579 0.08382071
0.07854503 0.0910733 -0.055456985 0.064330794 0.09914564 -0.01983577 -0.08579612 0.0134834945
-0.0806118 0.04643193 -0.042555008 0.061478477 -0.057535496 0.07390813 0.0305929 -0.09328377
0.10391148 0.11007211 -0.028549572 -0.029685823 -0.09767076 0.013907467 -0.12437026 0.022443205
0.10902193 0.08467147 0.035249013 0.12146889 -0.08836164 -0.037739918 -0.1275834 -0.093437366
0.04959101 -0.101011485 0.10932775 -0.03775688 0.06405223 -0.05468411 0.10085191 -0.06806853
0.09549929 -0.112534516 -0.0054719937 0.1013781 0.031734794 0.09461856 -0.058452282 0.0122776395
0.07840505 -0.115495816 0.08145538 0.022843711 0.05521033 0.11014506 0.08782002 0.037487034
0.048421577 -0.10449243 0.07739804 -0.010975157 0.048191115 -0.1137349 0.05781628 -0.100309364
-0.08753119 -0.11868578 0.08780198 -0.0063783647 0.04857378 0.05193224 0.041892536 -0.08134046
0.07451115 0.020727828 0.03851152 0.012285099 0.07207084 0.0536085 0.097910695 -0.024796804
0.018494269 0.106230214 0.06832401 -0.03583742 -0.11374409 0.00026576204 -0.06657515 0.075290106
-0.07757229 -0.037856296 0.116847545 0.06385551 -0.055538923 -0.08470303 0.037164755 -0.077409916
0.05738279 -0.01974103 -0.080147445 -0.016226055 0.11597448 -0.05091066 -0.11423871 -0.07208549
-0.12464732 0.08925184 -0.05978833 0.09231582 -0.035684034 -0.07788662 -0.07846921 -0.030913472
0.07328056 0.08174803 -0.07735141 -0.077852935 -0.08853328 0.11230044 -0.10843999 -0.11862851
-0.0032646055 0.08775153 -0.04690145 0.013657099 0.02910362 0.036845345 -0.08050622 -0.09490341
0.030000478 -0.010868361 0.10131199 0.08150596 -0.06256156 0.077943236 -0.07500163 -0.047530677
-0.034159776 -0.07954631 0.087365545 0.0657556 0.04385347 0.08183646 -0.09247208 -0.118205965
-0.043585762 0.06968477 0.08107537 -0.08572957 0.016176641 0.087022886 -0.09244382 0.0067533636
-0.105947815 0.047469597 -0.06643944 -0.018440532 0.08198083 -0.009690001 0.012139502 -0.106885895

action_head.bias f4 [5]
00000000: b95e 333d d79a 4bbd 6751 ecbd 4511 093d
00000010: 70fc 253d
0.043791506 -0.049708214 -0.11538964 0.033463735 0.040523946

value_head.weight f4 [1, 64]
00000000: 0f9b b9bd 7c12 d1bd f937 a4bd c6d4 de3d
00000010: 9969 bdbc b11f 9e3d e2b2 153d 81b9 e33d
00000020: 4baf b93d 4892 9bbc e5ff 89bc f6ef d7bd
00000030: 2673 f4bd a7ae f93d 454d 393d 6a96 423c
00000040: d359 7abd aa6e 903d f554 1a3d c042 e63d
00000050: d341 d1bd cddc d6bd b250 b73d e78c 023d
00000060: cae5 843d 45ac 89bd 68d3 663d e59c be3d
00000070: 9a7e d7bb 6d9b 6ebd da3e b2bd 6206 54bd
00000080: c62c 4f3d 8eaa 5d3d 606e ae37 8f7b 8b3d
00000090: 4e20 953d ae3f 303d baeb 223d 253e 41bd
000000a0: 15a0 253d 7ca9 953d 4c62 ce3d 17f1 27bd
000000b0: c5be e53d 3307 0cbd 0fde f23d 5af1 88bd
000000c0: 6e99 bebd e864 843d a21a 17bc 520b a53d
000000d0: 76f5 debd d426 c5bd 3134 113d 50ba 08bd
000000e0: c25f 4c3c 144d 86bb 4d98 a8bd 73c6 d33c
000000f0: 6b9a 9dbc f72a d53d b015 8fbd 896c 4ebd
-0.09062778 -0.10208604 -0.080184884 0.10880427 -0.023121642 0.077208884 0.03654755 0.111193664
0.090666376 -0.01899065 -0.016845653 -0.10543816 -0.11936025 0.121915154 0.045239706 0.011876682
-0.06112082 0.070523575 0.037678678 0.112432 -0.10217633 -0.10491333 0.08950938 0.031872656
0.06489141 -0.06722311 0.056353956 0.09307269 -0.0065763714 -0.058253694 -0.08703394 -0.0517639
0.05057981 0.05411773 2.0793814e-05 0.06810676 0.07281552 0.04302948 0.039775588 -0.047178406
0.04043587 0.07307717 0.100773424 -0.041001406 0.11218027 -0.034186553 0.118587606 -0.06686659
-0.09306608 0.06464559 -0.009222658 0.080588 -0.10886662 -0.096265465 0.035450164 -0.033380806
0.012474002 -0.004098544 -0.08232174 0.025851464 -0.019238671 0.104085855 -0.069865584 -0.050396476
