2022/20-华立民 指导老师-马里佳/code/output/2-agents_domain-PredatorPrey-2_adversaryratio-0.5_RADAR_X_2022-11-10-18-06-51/protagonist_model.pth (torch, 52943 bytes, 7 tensors)

fc_net.fc_net.0.weight f4 [64, 125]
0	0x3da4bc81	0.08043767
1	0x3d1a98a6	0.037743233
2	0x3d29b8b2	0.041435905
3	0xbd850cb9	-0.06496567
4	0xbd42b592	-0.04753644
5	0x3c9d0af0	0.019170254
6	0xba15bb80	-0.00057118386
7	0xbd09a70c	-0.033606574
8	0xbdb1f26b	-0.08688816
9	0xbd3d4180	-0.046205044
10	0x3d72341a	0.05913172
11	0xbda978e3	-0.082750104
12	0xbc95b79b	-0.018276026
13	0xbc1715d0	-0.009221509
14	0x3d7ba4c6	0.061436437
15	0x3d4b7d4e	0.049680047
16	0x3d4f10ce	0.050553136
17	0x3d93a8c5	0.072099246
18	0xbd9058e7	-0.07048207
19	0xbd47c4f2	-0.048771806
20	0xbaa7a0c0	-0.0012788996
21	0xbd81c912	-0.06337179
22	0xbd1559b9	-0.03646252
23	0xbd9cb883	-0.0765238
24	0x3d508cfe	0.05091571
25	0x3da71f52	0.08160271
26	0x3d057502	0.03258229
27	0x3bf093dc	0.007341845
28	0x3da65cd4	0.08123174
29	0x3d304f72	0.043044515
30	0x3d08335e	0.033252113
31	0x3d905339	0.070471235
32	0x3d71fd3e	0.0590794
33	0x3d082ced	0.03324597
34	0x3d189445	0.037250776
35	0xbd824ba8	-0.063620865
36	0xbd9a15b5	-0.075236715
37	0x3daceb02	0.08443262
38	0x3c45289f	0.012033611
39	0xbced4cda	-0.02896731
40	0x3d02069e	0.031744592
41	0xbc94f427	-0.018182827
42	0x3ca9456d	0.020662988
43	0x3d958605	0.07300953
44	0xbc88b6ee	-0.01668879
45	0xbd224909	-0.039620433
46	0xbd60947b	-0.054829102
47	0xbda77bfc	-0.08177945
48	0x3d8110fd	0.063020684
49	0xbc50e881	-0.012750746
50	0xbd1a9681	-0.037741188
51	0xbda733df	-0.081641905
52	0x3cf5166c	0.029917918
53	0xbd83fc0b	-0.06444558
54	0xbcb15bad	-0.02165016
55	0x3d272bab	0.04081313
56	0xb82256e2	-3.8704726e-05
57	0xbd11eac6	-0.035624288
58	0xbce8d237	-0.02842055
59	0xbd1903f3	-0.037357282
60	0x3dc1c3fa	0.09461208
61	0xbd52185e	-0.05129277
62	0xbd498c73	-0.04920621
63	0x3d3d89fd	0.046274174
64	0x3c55e98c	0.01305617
65	0x3c81c2b3	0.01583991
66	0xbba1b292	-0.0049346173
67	0xbd16514d	-0.03669863
68	0xbc394116	-0.011307022
69	0xbd948d8f	-0.07253563
70	0xbd4f7f30	-0.050658405
71	0x3c8bd17a	0.01706766
72	0xbd96d830	-0.07365453
73	0xbd95a420	-0.07306695
74	0x3d5118db	0.051049095
75	0xbd30e2e7	-0.04318514
76	0x3d45aa23	0.04825796
77	0xbd98734d	-0.07443867
78	0xbd5b6315	-0.05356129
79	0x3da8cb1a	0.082418635
80	0xbb36e868	-0.002790952
81	0x3da2d849	0.07951409
82	0xbd8b8d84	-0.06814101
83	0x3c130229	0.008972683
84	0x3d1011cb	0.03517322
85	0x3dbd75ae	0.09250961
86	0x3da95ff5	0.082702555
87	0x3d112f7a	0.035445668
88	0xbd4a69ed	-0.049417425
89	0x3c0d4be3	0.00862405
90	0x3d88cad1	0.06679309
91	0xbd846e2f	-0.06466328
92	0xbd9bb7c9	-0.076034136
93	0x3d8dc978	0.06923193
94	0xbd01d116	-0.03169354
95	0xbca46163	-0.020065969
96	0xbc10c488	-0.008835919
97	0x3dac9ef8	0.084287584
98	0xbd684527	-0.056706574
99	0x3d0b4d7f	0.034009453
100	0x3cd123fc	0.025529854
101	0x3d8a0a91	0.06740297
102	0xbc7cb438	-0.015423827
103	0x3d211322	0.039324887
104	0x3d1b11d2	0.03785879
105	0xbd47c795	-0.04877432
106	0xbdb656c2	-0.089032665
107	0xbdaded52	-0.08492531
108	0x3d5fbe9a	0.05462513
109	0xbcf5ffe2	-0.030029241
110	0x3d8dffd9	0.06933565
111	0x3b3e4e80	0.002903849
112	0xbd2b1f22	-0.041777737
113	0x3da07611	0.078350194
114	0xbdab13ea	-0.08353408
115	0xbc9bbe30	-0.019011587
116	0xbc3398c0	-0.010961711
117	0xbdb2ee28	-0.08736831
118	0x3c2a1698	0.010381363
119	0xbd9f7d60	-0.07787585
120	0x3d225f9e	0.03964197
121	0x3d7219e6	0.05910673
122	0x3c363098	0.011119984
123	0xbd09b3a8	-0.0336186
124	0x3b08b500	0.0020859838
125	0x3d58c3fe	0.052921288
126	0x3d402152	0.046906777
127	0x3d6267e2	0.05527485
128	0xbd3a889f	-0.04554045
129	0x3d2af4ca	0.041737355
130	0xbd77fd2e	-0.060544185
131	0xbbbc06c0	-0.0057381094
132	0x3da6f1b1	0.08151568
133	0xbcf948ea	-0.030430276
134	0x3d948c37	0.07253306
135	0x3d77eec2	0.06053043
136	0xbd8f75b4	-0.07004872
137	0xbd9c79e3	-0.076404355
138	0x3d836e6d	0.064175464
139	0xbd0a8b93	-0.033824515
140	0x3cc0cf14	0.023536243
141	0xbd790cb2	-0.060803123
142	0xbd99fc10	-0.0751878
143	0xbcac21e0	-0.021012247
144	0xbd9b14b2	-0.07572307
145	0xbd368fde	-0.044570796
146	0x3d86aa79	0.06575484
147	0x3d2beb26	0.041972302
148	0x3d8cf14f	0.068819635
149	0x3d6cf1b2	0.057847686
150	0x3c9e3680	0.019313097
151	0xbd38cbf6	-0.045116387
152	0x3c7a6553	0.015282947
153	0x3db804ef	0.08985316
154	0xbd3a0377	-0.04541346
155	0x3d53ec56	0.05173906
156	0xbd5bf2fd	-0.05369853
157	0x3b145891	0.0022635798
158	0x3c6cf62c	0.014462989
159	0xbd97cc56	-0.07412021
160	0x3ca6dd85	0.0203693
161	0x3dad57af	0.0846399
162	0xbd2ebfc7	-0.042663362
163	0xbd4693e9	-0.048480902
164	0x3b982fa7	0.0046443525
165	0x3d9c3cd0	0.076287866
166	0x3d9716dc	0.07377407
167	0xbbdd33c2	-0.006750555
168	0xbda864e7	-0.082223706
169	0xbcfda37d	-0.030961746
170	0xbd90b8d2	-0.07066502
171	0x3d9e0cad	0.077172615
172	0xbcb4f7b2	-0.022090767
173	0xbc04d7ab	-0.00810806
174	0x3d99ca52	0.07509293
175	0xbd7605f8	-0.060064286
176	0x3cfcadb9	0.030844556
177	0x3cb5db92	0.022199426
178	0xbdad86c3	-0.084729694
179	0x3ad85da5	0.00165074
180	0x3d1e5bd7	0.038661804
181	0x3d8c862b	0.06861528
182	0xbd1722e4	-0.03689851
183	0xbbc9bc2e	-0.006156466
184	0x3cd43c64	0.025907703
185	0xbda349e3	-0.07973077
186	0xbc3ea6dc	-0.011636462
187	0xbd57d8d7	-0.05269703
188	0xbb451f41	-0.0030078443
189	0x3d44553f	0.04793286
190	0xbd065ca8	-0.032803208
191	0xbd79eab7	-0.061014857
192	0x3c2f307d	0.010692713
193	0x3bbdea12	0.0057957256
194	0x3db17b11	0.08666051
195	0xbda3f32c	-0.08005366
196	0x3cdedf74	0.02720616
197	0xbc3b82dd	-0.011444774
198	0x3ca9ad62	0.020712558
199	0x3ce82425	0.028337548
200	0xbd12d263	-0.03584517
201	0x3d8944e8	0.06702596
202	0x3d05586e	0.032555036
203	0xbd11cbfe	-0.035594933
204	0x3c50df1c	0.012748506
205	0x3c559ae7	0.01303742
206	0x3d29b42e	0.0414316
207	0x3d31ebb0	0.04343766
208	0x3d449053	0.0479892
209	0xbc4fdb24	-0.012686525
210	0xbd9d923a	-0.07693906
211	0x3c5c70a5	0.013454591
212	0xbdb1e4f7	-0.0868625
213	0x3d927bf5	0.07152549
214	0x3d4c0394	0.0498081
215	0xbcc4386f	-0.02395269
216	0x3bcb03b8	0.0061955117
217	0x3d0abd98	0.033872217
218	0x3d60b4d2	0.054859944
219	0xbd843035	-0.06454507
220	0xbdba3370	-0.09091842
221	0xbb1e686e	-0.0024171132
222	0x3d7bd01e	0.061477773
223	0xbae4a97b	-0.0017445529
224	0xbcf44ca1	-0.029821696
225	0xbc062e88	-0.008189805
226	0xbc90d830	-0.017681211
227	0x3d28929a	0.041155435
228	0x3d0cfcf2	0.034420915
229	0xbca7fe18	-0.020506904
230	0x3d8ae5f1	0.06782139
231	0x3c113578	0.008862846
232	0xbd209d16	-0.03921231
233	0x3d9617ad	0.073287345
234	0xbd92aca0	-0.07161832
235	0xbd29783a	-0.041374423
236	0xbcdb4484	-0.02676607
237	0xbd7a8340	-0.061160326
238	0xbcd189b0	-0.02557835
239	0x3cbbecd4	0.022940077
240	0x3d086606	0.033300422
241	0xbd5cbeb2	-0.0538928
242	0xbc1d5f78	-0.009605281
243	0xbdaa3841	-0.08311511
244	0xbb64f700	-0.0034937263
245	0xbd5cd929	-0.053918038
246	0xbdb103e4	-0.0864332
247	0x3d67ab2e	0.056559734
248	0x3caf5540	0.021402955
249	0xbcd1be80	-0.025603533
250	0x3c968178	0.018372282
251	0x3d55863e	0.052129976
252	0xbd441ff2	-0.047882028
253	0x3d91de6b	0.07122501
254	0xbdb0c8d2	-0.086320534
255	0x3c99e874	0.0187876

fc_net.fc_net.0.bias f4 [64]
0	0xbd692f56	-0.05692991
1	0x3d96150f	0.07328235
2	0xbc56ad68	-0.013102867
3	0xbd8e9ae1	-0.069631346
4	0x3c3509fc	0.011049744
5	0x3da87ebf	0.082273
6	0x3cdcd20b	0.026955625
7	0xbd07da9f	-0.033167478
8	0x3da05169	0.07828028
9	0x3ceb68d1	0.028736504
10	0xbd4fd97b	-0.050744515
11	0x3d4395fd	0.04775046
12	0xbd100dcb	-0.035169404
13	0x3d994cac	0.07485327
14	0x3d038289	0.03210691
15	0xbd8948a3	-0.067033075
16	0xbc2692e4	-0.010166857
17	0x3d927a1b	0.07152196
18	0x3d8135f2	0.063091174
19	0xbd86b35d	-0.065771796
20	0x3da289a3	0.07936408
21	0x3db58592	0.08863367
22	0x3d30ec46	0.043194078
23	0xbd85403f	-0.065063946
24	0x3c8a77fb	0.016902914
25	0xbd5e33e5	-0.05424871
26	0xbc9954f8	-0.018717274
27	0x3d6edfc0	0.058318853
28	0xbd4d23d3	-0.050082993
29	0x3d7d3d38	0.06182596
30	0xba600def	-0.0008546998
31	0xbcc7132a	-0.02430113
32	0xbd215da0	-0.03939593
33	0x3d1a2f11	0.037642542
34	0xbd6ed48d	-0.058308173
35	0x3d06c5e2	0.03290356
36	0x3b43512e	0.0029803026
37	0x3bc2462f	0.0059287767
38	0x3d30ea69	0.0431923
39	0x3d513a9d	0.05108129
40	0x3d3745e4	0.044744387
41	0x3c715ee8	0.0147321
42	0xbd5d724f	-0.05406409
43	0xbb41203f	-0.0029468683
44	0x3c06f977	0.008238188
45	0xbdbb8f54	-0.09158197
46	0xbd7fc0aa	-0.0624396
47	0xbbfaedfe	-0.0076577654
48	0x3ce83a78	0.028348193
49	0x3d85cc32	0.06533088
50	0x3da10920	0.078630686
51	0x3d5fb000	0.054611206
52	0xbbaad5ea	-0.005213489
53	0x3d10d780	0.035361767
54	0x3c7a7357	0.015286288
55	0x3d7d553e	0.06184887
56	0x3c5e2c08	0.013560303
57	0xbda57614	-0.08079162
58	0x3cacb8af	0.021084158
59	0x3d1f57d3	0.038902115
60	0xbd0c34fa	-0.03423021
61	0xbdacdb68	-0.08440286
62	0xbd4a470c	-0.04938416
63	0xbd0b7f1d	-0.03405677

fc_net.fc_net.2.weight f4 [64, 64]
0	0xbd412b90	-0.047160685
1	0xbdab0118	-0.08349818
2	0xbcf4bb23	-0.02987439
3	0xbc5ab4b6	-0.013348749
4	0x3d7defc3	0.061996233
5	0x3d873901	0.066026695
6	0xbbf46240	-0.0074580014
7	0xba2c2fda	-0.000656841
8	0x3de5d0c9	0.11221463
9	0xbc97cd2a	-0.018530447
10	0xbdf69eae	-0.120419845
11	0x3da875e4	0.08225611
12	0x3d508ef5	0.050917584
13	0xbdd2200c	-0.10260019
14	0x3df27e33	0.11840477
15	0x3d7229d8	0.059121937
16	0xbdd7c400	-0.10535431
17	0x3df2fa96	0.11864202
18	0xbd5faf50	-0.05461055
19	0x3dcf49a5	0.101214685
20	0xbd94e599	-0.07270355
21	0xbdf17fd5	-0.1179196
22	0x3cc2ec18	0.023794219
23	0x3b5818e6	0.0032973825
24	0xbdbc25d4	-0.09186903
25	0xbdaef674	-0.08543101
26	0xbd001488	-0.03126958
27	0x3d7cc314	0.06170948
28	0x3dc79784	0.09745696
29	0xbc8d184d	-0.017223502
30	0x3d2f96b6	0.04286834
31	0x3d121645	0.03566577
32	0x3d9f3cc0	0.07775259
33	0xbdc7da99	-0.09758491
34	0xbd2329d6	-0.03983482
35	0x3dbbc555	0.091684975
36	0x3de948a0	0.11390805
37	0xbcb68446	-0.02227987
38	0xbde94edd	-0.11391995
39	0xbd6d69f1	-0.05796236
40	0x3cd0d8e3	0.025494045
41	0xbcb2b916	-0.021816771
42	0xbdc78543	-0.097422145
43	0xbdab49ab	-0.083636604
44	0x3be9b025	0.007131594
45	0xbd170d16	-0.036877714
46	0xbc016850	-0.007898405
47	0xbd72d997	-0.05928954
48	0xbdd55afc	-0.104177445
49	0x3d5de1fe	0.0541706
50	0xbd838395	-0.06421582
51	0x3d462270	0.048372686
52	0x3d2e714d	0.04258852
53	0x3d1f1f28	0.038848072
54	0xbd155369	-0.0364565
55	0x3d7c62dd	0.06161772
56	0xbc465490	-0.012105122
57	0x3c6fb613	0.014630812
58	0x3d7459b2	0.059655853
59	0xbca575bb	-0.02019774
60	0x3da7f8bf	0.082017414
61	0xbd54e890	-0.0519796
62	0xbcee2515	-0.029070416
63	0x3dd09e65	0.10186461
64	0x3dad0e40	0.084499836
65	0xbccca5d0	-0.02498141
66	0x3de71173	0.11282625
67	0xbd93de22	-0.07220103
68	0x3d83629d	0.06415293
69	0x3ddc2b1d	0.10750411
70	0xbdbf3c8e	-0.09337722
71	0xbd9b9211	-0.07596219
72	0xbddc00cb	-0.10742339
73	0x3da6ee08	0.081508696
74	0x3dd1a378	0.10236257
75	0x3dc6ff90	0.097167134
76	0xbd7ac4a4	-0.061222687
77	0x3da400ef	0.080079906
78	0xbda51571	-0.0806073
79	0x3d7ff006	0.062484764
80	0x3d6ad029	0.057327423
81	0xbdb6d072	-0.089264765
82	0xbc0df913	-0.008665341
83	0xbdad63d9	-0.0846631
84	0x3e01e9e2	0.12686875
85	0xbd031972	-0.03200669
86	0xbd4aba4b	-0.04949407
87	0x3d0e338e	0.034717135
88	0x3df2a096	0.118470356
89	0xbcc9a900	-0.024616718
90	0xbde4227d	-0.111393906
91	0xbc2f453f	-0.010697662
92	0xbd7c38e0	-0.061577678
93	0xbdfbcd9d	-0.12295077
94	0xbca3b97a	-0.019985903
95	0x3dc4d025	0.09610013
96	0x3d86b603	0.06577685
97	0xbde11b60	-0.109915495
98	0xbae86bc4	-0.0017732312
99	0xbd6fbf0f	-0.058531817
100	0xbdb960e7	-0.09051686
101	0x3d45f815	0.048332293
102	0x3d478412	0.048709936
103	0xba16ed56	-0.0005757412
104	0x3dbe7be9	0.09300978
105	0xbd95014b	-0.07275637
106	0xbca0e55f	-0.019640623
107	0x3da1a659	0.078930564
108	0xbd031e18	-0.03201112
109	0x3de391f9	0.111118264
110	0x3ddfecf9	0.10933871
111	0x3d401f9a	0.046905138
112	0xbd71f519	-0.059071634
113	0xbcf099fe	-0.029370304
114	0x3d3b4f47	0.0457299
115	0xbd75769a	-0.05992756
116	0xbcb2a565	-0.021807382
117	0x3d08170a	0.033225097
118	0xbd7ea54d	-0.06216936
119	0x3d9710a2	0.07376219
120	0x3da31553	0.07963052
121	0xbd3a05fb	-0.04541586
122	0xbd330aae	-0.043711357
123	0x3da14e96	0.07876317
124	0x3dad3224	0.08456829
125	0x3d93448b	0.07190808
126	0x3dae7f4a	0.08520372
127	0x3d635067	0.0554966
128	0x3d214f36	0.039382182
129	0x3c51dec7	0.012809462
130	0xbd8fd8c0	-0.07023764
131	0xbdaeac00	-0.085289
132	0xbd8126c9	-0.06306226
133	0x3d3d2c28	0.04618469
134	0xbd411673	-0.04714055
135	0xbd234e93	-0.039869856
136	0x3ddd6c08	0.10811621
137	0xbdb52b87	-0.08846193
138	0x3c20837a	0.009796971
139	0x3ddfcb0d	0.10927401
140	0x3d42109e	0.04737913
141	0x3dc54dd0	0.09633982
142	0xbdd20ae9	-0.10255987
143	0xbd2f1e1a	-0.042753316
144	0xbdba8249	-0.09106881
145	0xbdc8782e	-0.097885475
146	0xbd8c6f8a	-0.06857212
147	0xb9d5fea4	-0.00040816248
148	0xbd5c0645	-0.053716917
149	0x3db5dc70	0.08879936
150	0xbdbd2369	-0.092352696
151	0x3d3f11de	0.0466479
152	0xbd1d8cc5	-0.038464326
153	0xbdbce43c	-0.0922322
154	0xbc648613	-0.013947981
155	0xbde57205	-0.11203388
156	0xbdb8cdb9	-0.090236135
157	0xbd648a1e	-0.05579578
158	0xbd85a01f	-0.06524681
159	0x3d520828	0.05127731
160	0xbd1b46f7	-0.037909474
161	0xbda0a515	-0.07843987
162	0x3c5293d4	0.012852628
163	0x3dc9ab30	0.098471045
164	0xbdda6b32	-0.10664977
165	0xbd69a420	-0.057041287
166	0xbcdf818c	-0.027283452
167	0x3d0730e0	0.033005595
168	0xbd365235	-0.044511992
169	0x3cb2cd01	0.02182627
170	0xbddbe6a7	-0.10737353
171	0x3d664686	0.0562196
172	0xbded267f	-0.11579608
173	0xbd35788e	-0.044304423
174	0xbd5c9359	-0.05385146
175	0xbd624dc7	-0.055249956
176	0xbd956434	-0.07294503
177	0x3d444807	0.047920253
178	0x3c34238a	0.010994801
179	0x3d90e30b	0.07074555
180	0x3cc6c30f	0.024262933
181	0xbda27581	-0.07932568
182	0xbc3815cc	-0.0112356655
183	0xbde056b2	-0.10954036
184	0xbdb370d6	-0.08761756
185	0xbdaf0169	-0.08545191
186	0x3c5abbee	0.01335047
187	0xbdd16118	-0.10223597
188	0x3d1df413	0.038562845
189	0x3daf349d	0.08554957
190	0xbdd32589	-0.10309894
191	0x3d9a0546	0.07520537
192	0x3ccf9930	0.0253416
193	0x3df9d4fa	0.12198825
194	0x3d0d90d9	0.034561966
195	0x3d8fc329	0.07019646
196	0xbd525cad	-0.051357914
197	0x3cf71ce4	0.030165143
198	0xbd13a680	-0.03604746
199	0x3dea1605	0.11429981
200	0xbdcfb1b0	-0.10141313
201	0xbdc2ef46	-0.09518294
202	0x3d4ab91e	0.049492948
203	0xbd2250f3	-0.03962798
204	0x3cdf8fd2	0.027290259
205	0x3d8a8ba6	0.06764917
206	0xbdbfd2d3	-0.093663834
207	0xbdc666a8	-0.09687549
208	0xbdc0305d	-0.093842246
209	0x3dcfa4c1	0.10138846
210	0x3cd3f056	0.025871437
211	0xbd62ce88	-0.055372745
212	0xbd104186	-0.035218738
213	0x3d38b8cc	0.04509811
214	0xbdbe6e80	-0.0929842
215	0xbd718fe3	-0.05897511
216	0xbc5f0a0e	-0.013613237
217	0x3d1fd1b1	0.039018337
218	0x3b645a77	0.003484396
219	0x3ddd70be	0.108125195
220	0xbdba5a37	-0.09099238
221	0x3d7b0133	0.06128044
222	0xbddc404f	-0.107544534
223	0xbc63701e	-0.013881711
224	0xbd83d599	-0.06437225
225	0xbdc0d720	-0.09416032
226	0xbc9c420a	-0.019074459
227	0xbdb2fe23	-0.08739879
228	0x3d718503	0.05896474
229	0xbd9edcf7	-0.077569894
230	0x3d823ebd	0.06359623
231	0xbbf94a4e	-0.0076077348
232	0xbda8da6c	-0.08244786
233	0x3d841c36	0.06450693
234	0xbdc8bedc	-0.098020285
235	0xbd054291	-0.032534186
236	0xbd812874	-0.06306544
237	0xbd099c68	-0.033596426
238	0xbd5f0bf0	-0.054454744
239	0x3d856f55	0.065153755
240	0x3d70840d	0.058719683
241	0x3d9762cc	0.07391891
242	0x3d942d63	0.07235219
243	0x3d2313fe	0.039813988
244	0xbc8dadab	-0.017294725
245	0xbdd6e98f	-0.104937665
246	0x3d5fff3e	0.054686777
247	0x3c355fa6	0.011070168
248	0x3d875b56	0.06609218
249	0x3d09c7d4	0.033637837
250	0x3cb84555	0.022493998
251	0x3d1091f0	0.035295427
252	0x3ce0d910	0.027447253
253	0x3db4df18	0.08831614
254	0x3dc066b8	0.09394592
255	0xbd0ede30	-0.034879863

fc_net.fc_net.2.bias f4 [64]
0	0x3de34edf	0.11099028
1	0xbdea54ab	-0.114419304
2	0xbc9115d2	-0.0177106
3	0x3ce9eca6	0.028555226
4	0x3d917ea2	0.071042314
5	0x3da87c42	0.08226825
6	0xbd763cf5	-0.060116727
7	0x3cd7000d	0.026245141
8	0xbd9ff6c3	-0.07810738
9	0x3dc9739b	0.09836503
10	0x3cc295a8	0.023753002
11	0x3cd817b4	0.02637849
12	0x3da8ffe2	0.08251931
13	0xbd9bf1ee	-0.07614504
14	0xbd48c393	-0.04901464
15	0xbb86d15e	-0.004114314
16	0x3d3bd26e	0.04585498
17	0xbd9356de	-0.07194303
18	0xbd58259d	-0.052770246
19	0x3dc9354f	0.09824621
20	0xbcec3152	-0.028832112
21	0xbdd90604	-0.105968505
22	0xbd62dd59	-0.055386875
23	0x3d8be53e	0.06830834
24	0xbda0163f	-0.07816743
25	0xbd4fe3f5	-0.050754506
26	0x3daaf53f	0.08347558
27	0x3ad0280a	0.0015881073
28	0xbcdc4809	-0.026889818
29	0xbdce3105	-0.100679435
30	0xbd3c9005	-0.046035785
31	0x3d36939f	0.044574376
32	0xbda766ba	-0.081738904
33	0x3d0c3afc	0.03423594
34	0x3bd9177a	0.006625113
35	0xbdd641b4	-0.104617506
36	0x39cd7254	0.00039185828
37	0x3a948010	0.001132967
38	0xbc1618c6	-0.00916118
39	0x3d3beed6	0.04588207
40	0xbdaf5796	-0.085616276
41	0xbc0e7b8b	-0.008696447
42	0x3c42d9b2	0.011892723
43	0x3db54436	0.08850901
44	0x3cb6e3ed	0.02232548
45	0x3d96add4	0.07357374
46	0xbd3fabef	-0.046794828
47	0x3d8d7f74	0.069090754
48	0xbd3b3930	-0.045708835
49	0x3d199243	0.037493
50	0xbd67390b	-0.056450885
51	0x3d37ecd2	0.044903584
52	0x3c346da1	0.011012466
53	0xbd9cd99a	-0.07658692
54	0x3de14a08	0.110004485
55	0xbc99c2e3	-0.018769687
56	0xbdd91a49	-0.106007166
57	0xbdf1b623	-0.11802318
58	0x3dc2fcc6	0.09520869
59	0xbd053309	-0.032519374
60	0xbd92a528	-0.07160407
61	0x3b909019	0.004411709
62	0x3c1c8077	0.009552113
63	0xbcb41b80	-0.02198577

action_head.weight f4 [5, 64]
0	0xbd8db3e0	-0.06919074
1	0xbd6327f2	-0.055458017
2	0xbd33ed5f	-0.043927547
3	0x3c9ae99d	0.018910224
4	0xbc44bf3e	-0.012008486
5	0xbdd056fe	-0.101728424
6	0x3c9d2cc2	0.019186381
7	0x3cbd0ddd	0.0230779
8	0x3d3694ea	0.04457561
9	0x3d978054	0.073975235
10	0x3dfac047	0.12243705
11	0xbd282d15	-0.04105862
12	0xbd59a274	-0.053133443
13	0x3da3af05	0.07992367
14	0xbdca89e5	-0.098895825
15	0xbdb293cb	-0.087195955
16	0x3d318c79	0.043346856
17	0x3d01b2cb	0.03166465
18	0xbdc1a734	-0.094557196
19	0xbdfba4df	-0.12287306
20	0x3ba90b78	0.005158838
21	0x3bd48047	0.0064850184
22	0x3d06beb0	0.032896698
23	0x3c843404	0.016138084
24	0xbcfec8b9	-0.031101571
25	0x3ddd73f6	0.108131334
26	0xbd96a072	-0.07354821
27	0xbd4a9705	-0.04946043
28	0x3dab089c	0.083512515
29	0x3c980b33	0.018560028
30	0x3dad3a70	0.08458412
31	0x3dd8cd3a	0.10586019
32	0x3d8d1879	0.068894334
33	0x3deee4b4	0.116647154
34	0x3b96e1ba	0.0046045454
35	0x3d7a05f2	0.061040826
36	0xbdb0d725	-0.086347856
37	0xbc9af854	-0.01891724
38	0xbd03bbfb	-0.032161694
39	0x3d600160	0.05468881
40	0xbbb3aee3	-0.0054834946
41	0x3daaba47	0.08336311
42	0x3d942c7a	0.07235046
43	0xbdae273d	-0.08503578
44	0x3d245aab	0.04012553
45	0xbd8a63fa	-0.0675735
46	0xbd79694f	-0.060891446
47	0xbdeb89eb	-0.11500915
48	0x3bcfc743	0.0063408925
49	0x3dc4040b	0.09571084
50	0xbd695a96	-0.056971155
51	0xbdd0a895	-0.101884045
52	0x3cab4540	0.020907044
53	0x3ce72914	0.02821783
54	0xbdb677cf	-0.089095704
55	0xbd715dbf	-0.058927294
56	0x3dc97b9a	0.09838028
57	0x3db86015	0.09002701
58	0x3d8226fd	0.06355093
59	0xbd55ce6b	-0.05219881
60	0xbd89a7b0	-0.06721437
61	0x3b3dd5f3	0.0028966635
62	0x3c8097b6	0.015697341
63	0x3dff7bc1	0.12474776
64	0x3da74e8d	0.08169279
65	0xbb8a22dd	-0.004215582
66	0xbd5060d5	-0.050873596
67	0x3d8110ea	0.06302054
68	0xbd8a5c4b	-0.06755885
69	0xbdaa3e97	-0.08312719
70	0x3c540bb2	0.0129422415
71	0x3d98e65b	0.07465812
72	0xbdb883e1	-0.09009529
73	0xbdb1f104	-0.08688548
74	0x3dfd7390	0.123755574
75	0x3d9875e0	0.07444358
76	0xbc92b97d	-0.017910713
77	0xbd5fb0d6	-0.054612003
78	0xbc1da803	-0.009622577
79	0x3df19b8d	0.11797247
80	0x3d822804	0.063552886
81	0x3d0a01d0	0.033693135
82	0xbde7f9c7	-0.11326938
83	0xbc65b31f	-0.014019757
84	0xbde1e7ff	-0.11030578
85	0xbd9a38dd	-0.07530377
86	0x3de55221	0.111973055
87	0x3c93f977	0.01806329
88	0x3db1292c	0.08650431
89	0x3c1a784b	0.009428094
90	0x3df4fe5d	0.119625784
91	0x3d0154ae	0.031574897
92	0x3d17418f	0.036927756
93	0xbc53ea3d	-0.012934265
94	0x3cb38de0	0.021918237
95	0xbb2a735d	-0.0026008703
96	0xbde221ba	-0.11041589
97	0x3de5b08b	0.112153135
98	0x3d2c929e	0.042132013
99	0x3c6d4539	0.014481836
100	0x3d3fee02	0.04685784
101	0xbc3ad999	-0.011404418
102	0xbdaaeb3c	-0.08345649
103	0xbcc75677	-0.024333222
104	0x3c453211	0.012035863
105	0x3dd7d79b	0.1053917
106	0x3de41df5	0.11138526
107	0xbd9cd438	-0.07657665
108	0x3db3fcb6	0.08788435
109	0xbd8864a7	-0.06659823
110	0x3d5c3773	0.053763818
111	0xbdfcaea2	-0.12337996
112	0x3db39024	0.08767727
113	0x3d97cd76	0.074122354
114	0xbc1d6cea	-0.009608487
115	0x3df09940	0.1174798
116	0xbddd8de6	-0.108180806
117	0x3d8626f9	0.06550402
118	0xbd89023c	-0.06689879
119	0x3d88d9f0	0.06682193
120	0x3d247e3e	0.040159456
121	0xbdb505a9	-0.0883897
122	0x3d6d16ce	0.057883076
123	0x3df3096e	0.11867033
124	0xbd5546a4	-0.05206932
125	0xbdc280d3	-0.094972275
126	0x3cdc874c	0.026919983
127	0xbda3e05b	-0.08001777
128	0xbdae1d39	-0.085016675
129	0xbded7eb4	-0.11596432
130	0x3bf5eddf	0.007505163
131	0x3dc698e1	0.09697128
132	0xbd634d92	-0.0554939
133	0xbd1b1792	-0.037864275
134	0x3d40c9ec	0.047067568
135	0x3da0e070	0.07855308
136	0xbde21fce	-0.110412225
137	0x3cdb37fd	0.026760096
138	0x3b0bb642	0.002131835
139	0xbdcb657b	-0.09931465
140	0xbdc68dae	-0.09694992
141	0xbde840c5	-0.11340479
142	0xbdbbdbcc	-0.09172782
143	0xbd9063f1	-0.07050312
144	0xbdf12d2e	-0.117761955
145	0x3dd32e31	0.10311545
146	0xbdf63a64	-0.12022856
147	0xbd60a7e8	-0.054847628
148	0xbdd4312d	-0.10360942
149	0x3dccab9b	0.09993669
150	0x3db131f8	0.08652109
151	0xbd60b9d6	-0.054864727
152	0x3daef78b	0.08543309
153	0x3cdcbce4	0.026945539
154	0x3cd31f0a	0.025771637
155	0xbd11b694	-0.03557451
156	0x3deb7aa6	0.11498003
157	0xbdbb8d2a	-0.09157784
158	0x3da539d0	0.080676675
159	0x3da8f644	0.082500964
160	0xbd13f7a3	-0.036124837
161	0xbdaa453b	-0.08313986
162	0xbc93deab	-0.018050512
163	0x3c6b000a	0.014343271
164	0x3d47eba3	0.048808705
165	0x3c38b9b9	0.0112747485
166	0xbdc83de7	-0.09777432
167	0xbc5d464d	-0.013505531
168	0xbd782c11	-0.0605889
169	0x3c29df8b	0.010368238
170	0x3dfb70dd	0.12277386
171	0xbd15041d	-0.036380876
172	0xbd2226c2	-0.039587744
173	0x3d8b7b36	0.0681061
174	0xbdb990ea	-0.09060843
175	0xbda83f3f	-0.08215188
176	0xbbd79f59	-0.006580275
177	0xbd9ed4ba	-0.07755418
178	0x3de53d59	0.11193342
179	0x3b94e62b	0.0045440397
180	0xbd35d477	-0.044392075
181	0x3b756312	0.0037443084
182	0x3d7bb6f1	0.061453763
183	0x3c7f8529	0.015595713
184	0xbd2e5ab6	-0.042566977
185	0x3c0b2eef	0.008495077
186	0xbc56505d	-0.013080684
187	0x3dd0091c	0.101579875
188	0x3cd2f733	0.02575264
189	0x3a76d24d	0.00094154925
190	0x3d8fdfe1	0.070251234
191	0x3daa7dbd	0.08324764
192	0xbdada5aa	-0.084788635
193	0x3cd07206	0.025444996
194	0xbd30fa79	-0.04320762
195	0xbde20805	-0.11036686
196	0x3dca43f8	0.09876245
197	0x3dff0412	0.12451948
198	0x3ddff9b1	0.10936297
199	0xbce152e0	-0.027505338
200	0xbd615b6b	-0.055018824
201	0x3dd9c29f	0.10632824
202	0x3d808d09	0.062769
203	0x3de46194	0.11151424
204	0xbcee8891	-0.029117854
205	0x3d8fb144	0.070162326
206	0x3d3e6573	0.04648347
207	0x3d89c12c	0.06726298
208	0xbddb3d63	-0.10705068
209	0x3c06441d	0.00819495
210	0xbdbb0d95	-0.0913345
211	0xbdb9f82d	-0.09080539
212	0xbbde9934	-0.0067931656
213	0xbd9db7e9	-0.07701094
214	0x3ddd9da8	0.10821086
215	0xbd2b4b9e	-0.04182016
216	0xbdc869ea	-0.097858265
217	0x3c368a29	0.011141338
218	0xbdbefdf4	-0.093257815
219	0xbd583b49	-0.052790914
220	0xbd50ab7b	-0.050944787
221	0x3d9282f5	0.07153884
222	0x3dca8105	0.0988789
223	0x3dbe349f	0.092873804
224	0xbdc5780a	-0.09642036
225	0xbd0d40ce	-0.03448563
226	0x3df5caf5	0.120016016
227	0xbc7405bc	-0.014893945
228	0xbce0f4b7	-0.02746044
229	0xbd8530f7	-0.0650348
230	0xbd3ec087	-0.046570327
231	0x3dd2cdb3	0.1029314
232	0xbd942acf	-0.072347276
233	0xbdef87a3	-0.116957925
234	0x3c8275fd	0.015925402
235	0xbd310f03	-0.043227207
236	0x3c7099ec	0.014685135
237	0x3ddae4b9	0.10688157
238	0x3df0585b	0.117356025
239	0xbdc5c16e	-0.096560344
240	0xbc36846e	-0.011139972
241	0xbda32c4b	-0.079674326
242	0x3d6e9336	0.05824586
243	0x3db74507	0.08948713
244	0x3bb59103	0.0055409684
245	0xbd50bde9	-0.050962362
246	0xbd9ac4e5	-0.07557086
247	0x3d45b61b	0.048269372
248	0xbdc25529	-0.09488899
249	0xbd8ac200	-0.06775284
250	0x3d854325	0.065069474
251	0x3d6d3950	0.057915986
252	0x3decf4ee	0.11570154
253	0x3dc8ed44	0.0981088
254	0x3d34ca5e	0.044138305
255	0xbdf45c15	-0.11931626

action_head.bias f4 [5]
0	0x3dcdf1f8	0.100559175
1	0x3d592a63	0.05301894
2	0xbc64d611	-0.013967053
3	0xbd15acf0	-0.03654188
4	0x3dd85928	0.1056388

value_head.weight f4 [1, 64]
0	0xbd1123e8	-0.035434633
1	0x3df49c2f	0.11943852
2	0xbd28b59a	-0.041188814
3	0xbd1de3d8	-0.038547367
4	0xbc3391b3	-0.01096003
5	0xbc1dda35	-0.009634544
6	0x3df4c304	0.11951259
7	0xbd9eddef	-0.07757174
8	0x3d60debb	0.054899912
9	0xbd5dc811	-0.054145876
10	0x3caca034	0.021072485
11	0xbdce2691	-0.1006595
12	0xbb27b870	-0.002559211
13	0xbde815f1	-0.1133231
14	0x3cf67eab	0.030089697
15	0xbda7c295	-0.081914105
16	0x3d4d5ec7	0.050139215
17	0x3c937af8	0.018002972
18	0xbdb20576	-0.08692448
19	0x3d4797b8	0.048728675
20	0x3de69972	0.11259736
21	0x3cb09c17	0.021558804
22	0x3dc7c886	0.09755044
23	0x3bca5f51	0.0061759134
24	0xbd0c8e81	-0.03431559
25	0xbd512176	-0.0510573
26	0x3cea7cad	0.028623903
27	0xbdc2554d	-0.09488926
28	0xbd8398e4	-0.06425646
29	0xbd584d68	-0.052808195
30	0x3ddd9211	0.108188756
31	0xbb2f0125	-0.0026703563
32	0xba255416	-0.000630678
33	0xbd210128	-0.039307743
34	0xbd871d89	-0.0659743
35	0x3dd8cd59	0.10586042
36	0x3de9df07	0.11419492
37	0xbca06b53	-0.019582426
38	0x3dfe2601	0.124095924
39	0xbddae02a	-0.10687287
40	0xbd3d8f17	-0.04627904
41	0xbdf1e322	-0.118109
42	0xbdce0f8e	-0.100615606
43	0xbded1e7b	-0.11578079
44	0xb999264c	-0.00029210967
45	0x3c28706d	0.010280711
46	0xbdb008b0	-0.08595407
47	0x3ccd1a97	0.025037093
48	0xbd2bccfd	-0.04194354
49	0x3d9f8437	0.0778889
50	0xbddf1846	-0.10893302
51	0x3d9a40d7	0.075318985
52	0x3ddcf569	0.10788996
53	0xbd15e4d5	-0.036595184
54	0xbdd95f46	-0.10613875
55	0xbd0e312c	-0.034714863
56	0xbdd8e5cb	-0.105907045
57	0xbc98d219	-0.01865487
58	0xbd6170ff	-0.055039402
59	0x3d1fa5cd	0.03897648
60	0xbc2c9f20	-0.010535985
61	0x3d2627ea	0.04056541
62	0x3c9e4af7	0.019322855
63	0xbc7ddc1f	-0.0154943755
