2022/20-华立民 指导老师-马里佳/code/output/2-agents_domain-PredatorPrey-2_adversaryratio-0.75_AC-QMIX_2022-11-16-08-49-52/adversary_model.pth (torch, 52943 bytes, 7 tensors)

fc_net.fc_net.0.weight f4 [64, 125]
00000000: 10ee 92bb f8e3 74bc a877 a03c 2263 4f3d
00000010: 0b75 ae3d c016 abba 18bf a6bd eec4 adbd
00000020: 1e9a 523d 0f3f 21bd 1da5 8f3d 3ec1 8bbd
00000030: 2caa c23c 37d8 88bd 7ae0 203d 768f 193d
00000040: fa16 95bd 20ab 1e3b 7293 f1bc 30e1 05bc
00000050: cc3b 68bd 6af8 81bd 4198 afbd 3081 acbd
00000060: 6c86 54bd a8e9 ef3c abee 963d 0898 fabc
00000070: 5638 1d3d e375 aabd 8076 f6bb 883e 6b3c
00000080: bc8a a43c 04d8 da3c 88bd 46bc 8d27 2ebd
00000090: 084c 26bd f548 a13d 2bd7 62bd 2032 0ebb
000000a0: 50bc 84bc 308a 94bb a00a afbb 2959 9abd
000000b0: ca25 7b3d c4f8 e03c 46a6 353d 2ea5 82bd
000000c0: c8d9 dc3c 78da 95bd 462c 663d b068 2b3c
000000d0: 6879 6fbd 9604 333d d589 89bd e067 c4bb
000000e0: 03ec 08bd d0ae f9bc 5bfd 5abd 23bb 94bd
000000f0: fdaf ae3d 35c3 983d 3c59 bdbc 0012 91b9
00000100: 8da6 913d b90f b1bd d2fa 1a3d f2ae 143d
00000110: 9624 493d 5364 b23d 26c4 83bd 4674 3b3d
00000120: 80fd 963b 805a f53c fff6 b0bd 0492 88bc
00000130: a129 6dbd a6a2 7d3d 008a 7eb9 a2cc 583d
00000140: e2e7 5e3d 261e 4cbd e002 3fbb 5810 2d3c
00000150: e54e a33d b824 a5bc 5d09 903d e00a ca3c
00000160: f091 953c c2c4 4e3d 199b a0bd a07f 36bd
00000170: de1f 153d 2d9a 39bd 585a 063c 62ba 203d
00000180: cf38 813d 76a2 5a3d 802b 163b 2838 80bd
00000190: ff93 56bd 0054 98ba d6aa 6fbd 5666 20bd
000001a0: 0349 3bbd 6781 973d 31c4 b03d e628 1e3d
000001b0: ed84 923d 9091 bdbc e1f9 913d 5a7b 5e3d
000001c0: 3b08 9c3d f8bc 0d3d defd 393d a8d5 ab3c
000001d0: 0020 6938 e8d2 a23c 2d1f 02bd 8a5d 3a3d
000001e0: 4ee9 073d 3cb9 9dbd c022 c3bb 544d 0e3d
000001f0: 4028 a2ba 96ce f0bc 679b 61bd aa45 4bbd
00000200: 603f 4a3b 6dfc 8f3d ee4b 2b3d 80f6 25bc
00000210: 6881 163c 434c 6ebd 7411 6ebd c601 6dbd
00000220: 10a7 c23c a9d3 a6bd b4fc 983c ee1c 753d
00000230: 0693 6e3d 034a a93d 4081 51bc b49f 933c
00000240: 6e69 553d 0082 b4b9 abd5 adbd b815 253c
00000250: b9ae 8f3d 5c83 f03c a088 aabd fb06 9abd
00000260: e2c7 adbd 30d0 03bc eee8 6e3d 96cf 8cbd
00000270: f9e0 6bbd b0d1 ef3b e0b8 c63b f3b0 91bd
00000280: aff6 30bd 6c85 cb3c 55e5 12bd c776 9f3d
00000290: dda4 803d 1afd 793d 4083 41bb 0016 4cbd
000002a0: 5043 a63c 6a10 2e3d aa41 413d 7e4f 373d
000002b0: dad1 3e3d 801e b23c 8aa5 583d 4e4a 183d
000002c0: 5aaf 583d 840f 83bd d230 573d de45 3fbd
000002d0: efc4 a73d 9449 c83c b070 3dbc 62fd 7c3d
000002e0: d0b0 8abb 1c65 a8bc e911 963d 2b70 883d
000002f0: e489 9c3c 39c2 16bd 6c90 0b3d db3b 903d
00000300: 9315 b73d 583a 65bc 9b72 52bd 65a8 9cbd
00000310: 2f76 5ebd 71c8 883d a60f 793d 14db d13c
00000320: 82ff 4f3d 86ae 303d 8543 15bd c026 5abb
00000330: 5f63 a93d f674 753d 90ae 6cbc a1a3 8a3d
00000340: 923b 9ebd d02a 54bc 10db 1dbd f83c 9ebd
00000350: adc7 49bd c84d 15bc bc1b adbd 4020 c43b
00000360: 4042 5ebb 7e6f 433d d29a 453d 4008 e5bc
00000370: d67a 0f3d b257 383d 10dc 4c3c 08b2 a7bd
00000380: 6bc5 903d c6fd 18bd c09c a43a 5099 fd3c
00000390: 9813 07bc 8a05 463d b260 483d bad2 603d
000003a0: d509 b13d 6096 743c 168a b2bd e475 f13c
000003b0: c8fd 3ebc 68dd 56bc 351e 28bd 5076 8dbc
000003c0: 9977 24bd 0012 1439 60a8 79bb 6030 91bc
000003d0: a0cb 3dbd 00cb 6dbc d069 693c ceca 6c3d
000003e0: b2e8 4c3d b29a 653d 5838 04bc 8ffd b13d
000003f0: 4437 8bbd 9875 9dbc d28a 2b3d 410c aa3d
-0.0044839457 -0.01494693 0.019588307 0.05063165 0.08518418 -0.0013053045 -0.08141917 -0.08484827
0.05141651 -0.039366778 0.07013915 -0.068239674 0.023762785 -0.06681865 0.039276578 0.03749033
-0.07279773 0.0024210885 -0.029489253 -0.008171365 -0.05669765 -0.06346209 -0.08573962 -0.08423078
-0.051886007 0.02928622 0.07369741 -0.030590072 0.038383804 -0.08323266 -0.0075214505 0.01435817
0.020085685 0.026714332 -0.012130149 -0.042518187 -0.040599853 0.078752436 -0.05538098 -0.0021697357
-0.016203076 -0.004533075 -0.005341843 -0.07536537 0.061315335 0.02746237 0.044348024 -0.06379162
0.026959315 -0.0731706 0.056194566 0.010461971 -0.05846539 0.043705545 -0.067157425 -0.005993828
-0.033428203 -0.030478865 -0.053464275 -0.07262256 0.08529661 0.07459108 -0.02311384 -0.00027669966
0.07111845 -0.08645577 0.037836857 0.036299653 0.049107157 0.087105416 -0.06433897 0.045765184
0.0046078563 0.02995038 -0.08640861 -0.016671188 -0.05790103 0.06192269 -0.00024274737 0.052929528
0.05442036 -0.04983344 -0.0029146 0.010562979 0.07974032 -0.02015911 0.07033036 0.024663389
0.018258065 0.05048061 -0.078420825 -0.044555306 0.036407344 -0.04531305 0.008200251 0.03924025
0.063096635 0.05337759 0.0022914112 -0.06260711 -0.052387234 -0.0011621714 -0.05851253 -0.039160095
-0.045723926 0.073977284 0.086311705 0.038613223 0.0715426 -0.023140699 0.07127739 0.054316856
0.07618757 0.034604043 0.045408122 0.020975903 5.558133e-05 0.019875959 -0.031768013 0.045499362
0.03318148 -0.07701346 -0.0059550703 0.034741715 -0.0012371615 -0.029395383 -0.055079844 -0.049626984
0.0030860528 0.07030568 0.04182046 -0.010129571 0.009186126 -0.058178198 -0.058122113 -0.05786302
0.023761302 -0.0814584 0.018675186 0.059842043 0.05824568 0.0826607 -0.012787163 0.018020488
0.0521025 -0.00034429133 -0.084880196 0.010075979 0.070157476 0.029359512 -0.083268404 -0.07520863
-0.0848539 -0.008045241 0.058327608 -0.068755314 -0.057587598 0.007318698 0.0060645193 -0.071138285
-0.043204006 0.024843894 -0.03586324 0.07786327 0.06281445 0.061032392 -0.0029527694 -0.04982567
0.020295769 0.042496122 0.047181763 0.044753544 0.04658685 0.02174306 0.052892245 0.037180237
0.052901603 -0.06399444 0.052536793 -0.04669749 0.08191859 0.024449147 -0.011562511 0.061765082
-0.0042325035 -0.020556025 0.07327635 0.06662019 0.01910872 -0.03680632 0.03407328 0.070426665
0.08939662 -0.013990961 -0.051378828 -0.07649306 -0.054311927 0.06678856 0.06080594 0.02561716
0.05078078 0.04313519 -0.036441345 -0.0033287257 0.08270907 0.059925996 -0.014445916 0.06769491
-0.07726206 -0.01294966 -0.038538992 -0.077264726 -0.04926269 -0.009112783 -0.084525555 0.00598529
-0.0033914 0.04771375 0.04824335 -0.027958035 0.035029255 0.045005508 0.012503639 -0.08188254
0.070689045 -0.037351392 0.0012558922 0.030956894 -0.008244418 0.048345126 0.04892034 0.054888465
0.086444534 0.01492843 -0.08717744 0.02947516 -0.011657186 -0.013114311 -0.041044433 -0.01726833
-0.04015312 0.00014121085 -0.0038094744 -0.017723262 -0.04633677 -0.014513731 0.014246419 0.057810597
0.050026603 0.056055732 -0.008070074 0.086909406 -0.067976505 -0.019221112 0.041880436 0.083031185

fc_net.fc_net.0.bias f4 [64]
00000000: 1f97 a73d a0ac 2ebc 7234 93bd 4798 a93d
00000010: 0a92 a1bd ea2a 5b3d e8b4 193c 65cd 9e3d
00000020: 21b8 85bd 4843 ab3c 8629 2a3d f116 a1bd
00000030: fed4 243d 9a4b 623d 405f d9ba b0c2 d4bb
00000040: 9390 2abd 49e6 873d c679 2e3d 7218 1e3d
00000050: 1ae3 2bbd 3f1d 2bbd f009 133c 00a1 073b
00000060: 809b b63c da40 2ebd c75c a03d 06d0 6f3d
00000070: e853 d4bc d516 b4bd 90e1 a1bb fdf3 873d
00000080: e731 b5bd 19b2 9f3d 7b14 39bd a1a1 923d
00000090: aec1 8cbd 0180 a33d 2004 53bb 30a3 e5bb
000000a0: 707b 9d3b a0cc 6b3c fa31 2e3d 46de 97bd
000000b0: 31e5 9bbd 28b3 03bd b76f 80bd 85bf a1bd
000000c0: 94c2 a23c b0db 5abc 008c c9b9 0c42 f0bc
000000d0: c20d 603d f079 e83b 5f9f 08bd c1d6 74bd
000000e0: fefd 8dbd dced 88bd 00a3 08bc f535 b43d
000000f0: 4911 a93d d4ea 6fbd e0c5 223c 314e 22bd
0.08183121 -0.010661274 -0.071877375 0.08280998 -0.07889183 0.053507723 0.00938151 0.0775402
-0.065292604 0.020906106 0.041543506 -0.07865704 0.040242188 0.05524788 -0.0016584173 -0.006492935
-0.041641783 0.0663572 0.0425966 0.03859753 -0.041964628 -0.041775938 0.008974537 0.0020695329
0.022290945 -0.042542316 0.07830196 0.058547996 -0.025918916 -0.08793417 -0.004940219 0.06638334
-0.08847409 0.07797641 -0.045185547 0.071597345 -0.06872879 0.07983399 -0.0032198504 -0.007007979
0.0048059747 0.014392048 0.04252813 -0.07415442 -0.07612074 -0.03215328 -0.06271308 -0.078978576
0.019868173 -0.013358042 -0.00038442016 -0.029328369 0.05470062 0.007094614 -0.033355113 -0.059775118
-0.06933211 -0.06685993 -0.0083396435 0.08799354 0.0825525 -0.05857356 0.009934872 -0.03962535

fc_net.fc_net.2.weight f4 [64, 64]
00000000: 0809 d13c 92e3 e13d c0ae 62bb 66a3 f4bd
00000010: c0ea f3bc f4c8 abbd f212 843d 7489 b53d
00000020: f27e db3d d0a6 70bc 8c32 ed3d eea6 91bd
00000030: d495 3dbd 9e89 cc3d fce5 63bd a038 463d
00000040: d023 273c 9004 283d 24c3 8d3d 001d 90bc
00000050: 8248 bd3d 803f 8c3c 1418 58bd e82d b1bc
00000060: 8cf0 833d 3273 e53d 5488 abbd a0ac cd3d
00000070: 7cc4 cfbd cce0 8abd a0f3 84bd e079 063c
00000080: 7e6a d3bd ac1b 5e3d 10ad 853c a47e 61bd
00000090: 4010 febd b080 b9bc c8fc a3bc c01c 0bbd
000000a0: 48af 89bc 2050 97bd 8401 a7bd 0016 d2bc
000000b0: 4c9d 1bbd 3815 413d 94ec bcbd 6022 603c
000000c0: bcfe 9f3d 7c78 bebd 86d1 973d 58ee 79bd
000000d0: 24ef 5b3d 4077 3dbb ec82 af3d 20ba 883c
000000e0: 0a46 903d 9486 6d3d 0ccc 3abd fefe c8bd
000000f0: 96e6 e0bd c294 b1bd cc2f 153d 9a96 d6bd
00000100: 40cf 80bc 6069 e2bd d452 b9bd 70f9 a73c
00000110: b29e 94bd 589a f13c 3810 613d 92a0 c93d
00000120: aa2d 9c3d 3846 903c 460b a73d b078 db3c
00000130: 0099 07bc 9865 e83d c423 98bd 1c39 c03d
00000140: 2892 22bd 8829 c23c 100a 4ebc 4ce1 b83d
00000150: 7002 b6bc 54c5 c8bd 8257 a2bd 242e d73d
00000160: d080 523d 907c 48bc 38d5 7dbd 90d6 773c
00000170: 2adf 8bbd a856 67bd 206c 6f3d 8806 d6bd
00000180: 0837 c83c e4cc 613d 64d6 2a3d 0886 cabc
00000190: e229 913d 0c18 05bd 5021 d7bc 7411 363d
000001a0: 0021 d8bd a00a 39bc 58d5 32bd b057 d83c
000001b0: 38ab 79bd 185b ef3c ae37 f33d 8a56 a6bd
000001c0: d0d5 2f3c e093 113d 34f9 1a3d 8064 acba
000001d0: 8eb9 953d 6eff a8bd 382d 4e3d c65f f8bd
000001e0: 000d b23b 7866 5bbd e09f edbb 00dc cabd
000001f0: 70a8 6b3d 2e2a cf3d 8452 11bd f01d 0dbc
00000200: 8078 2ebb a4d5 93bd 9254 a03d 10e2 573c
00000210: 5292 9b3d 8066 0f3c 96e9 87bd 78f1 fbbd
00000220: f86a 453d 8040 cd3a 4676 da3d ecf6 dcbd
00000230: f029 7c3c 3232 8d3d b0bc 0c3c 965c a0bd
00000240: 30c7 983c 00f4 67bd d86c 14bd 64dd 543d
00000250: 2ab9 edbd c087 f63d 5816 f13d 9882 fe3d
00000260: 0478 60bd b077 d93c d69a 943d 6acf f13d
00000270: 468e c93d 006c 503a c82f f9bc 30c5 5d3d
00000280: e4fe 9e3d 80d5 983d d00c a8bd e0e1 75bd
00000290: 4432 9fbd 7cfd a63d c089 9c3c 0440 7f3d
000002a0: 8881 7b3d 9090 6e3d 8ad2 a6bd f0b1 3abc
000002b0: d230 c4bd 9678 ea3d 807d aabd f486 153d
000002c0: c0b6 373c 2afd b03d aa0d c33d aa64 c63d
000002d0: eadf c93d 5c89 273d aa3e abbd 1edb abbd
000002e0: 2841 493d 00b6 81bd 8492 933d eecd b5bd
000002f0: ce26 cd3d a051 bd3c 9087 d2bc 8051 d8bb
00000300: 2881 86bd 3441 8c3d 3035 ce3d 28da cbbd
00000310: da1e bbbd b8a6 b73d ae57 fe3d d4c9 e8bd
00000320: cc21 b83d 167d e7bd 302b 38bc 4e4e a3bd
00000330: c0fd 6dbd d456 d7bd 08fe 28bd 3a4c db3d
00000340: 963d 873d bc21 4dbd a4b2 43bd c4a6 e53d
00000350: 80ce c03d ae09 b9bd 4e59 983d 28a8 5f3d
00000360: 00ca dc3c 40e7 ef3b 9247 a7bd f62c 99bd
00000370: 3065 79bd d859 743d 9059 7d3d 0832 e83d
00000380: 287f cf3c 4037 fabb 80bc 633c c040 b4bc
00000390: dc12 5cbd b4c3 e1bd 54f6 43bd ded8 e73d
000003a0: a204 9d3d 38dd 1e3d 8000 00bc aa8e f63d
000003b0: 28a2 083d a20f cd3d 6664 dc3d 842b a73d
000003c0: 786a 7b3d 9695 98bd f877 46bd 928d e2bd
000003d0: 78b7 fabc f08c 76bc 8065 e4bc 70f8 5ebc
000003e0: 12f0 d5bd dcf6 83bd bc4a ab3d b2dc c83d
000003f0: 5e65 cd3d a85b e3bc ecde 1abd 2813 5abd
0.025517002 0.11029734 -0.0034589022 -0.11945228 -0.029775023 -0.08387938 0.06448926 0.08864108
0.10717572 -0.014688209 0.11581907 -0.071119174 -0.046285465 0.09987186 -0.055639252 0.048393846
0.010201409 0.041019976 0.06921986 -0.017591953 0.092423454 0.017120123 -0.052757338 -0.021628335
0.06442365 0.112036124 -0.08375612 0.10042691 -0.10144898 -0.06781158 -0.0649178 0.008207768
-0.10323046 0.05422561 0.016317874 -0.055052415 -0.12405443 -0.02264437 -0.020017996 -0.033962965
-0.016807213 -0.073883295 -0.08154586 -0.025645256 -0.037991807 0.047139376 -0.09224811 0.013680071
0.078122586 -0.09300324 0.0741301 -0.061018318 0.05369486 -0.002891019 0.08569893 0.016690314
0.07044609 0.05798967 -0.04560475 -0.09814261 -0.10981481 -0.086709514 0.036422536 -0.10477944
-0.015723825 -0.11055255 -0.09049001 0.020504683 -0.07256831 0.029492542 0.054947108 0.098450795
0.07625897 0.017611608 0.08156447 0.026790947 -0.008276224 0.113475025 -0.07428697 0.09385893
-0.039690167 0.023701444 -0.012575641 0.09027347 -0.02221796 -0.09803262 -0.07926847 0.105068475
0.051392376 -0.012236729 -0.06197092 0.015126839 -0.068296745 -0.056479126 0.058452725 -0.104504645
0.024440303 0.05512704 0.041708365 -0.024722114 0.07088067 -0.032493636 -0.026261002 0.04445024
-0.10553169 -0.011294037 -0.04366049 0.026409 -0.060954303 0.029218242 0.118758544 -0.08121975
0.010732129 0.035541415 0.037835315 -0.001315251 0.073107824 -0.08251844 0.050336093 -0.12127642
0.0054336786 -0.05356452 -0.0072517246 -0.09905243 0.05753368 0.10115467 -0.035479084 -0.008613095
-0.0026622117 -0.07218483 0.078286305 0.013176456 0.07596268 0.008752465 -0.0663635 -0.12301916
0.048197716 0.0015659481 0.1066709 -0.10789284 0.015390858 0.068943396 0.0085899085 -0.07830159
0.018649668 -0.05662918 -0.036236614 0.051968947 -0.11607583 0.12037611 0.1177184 0.124272525
-0.054801956 0.02654633 0.07256095 0.11807139 0.0984159 0.00079506636 -0.030418292 0.05414313
0.0776346 0.07462597 -0.08205569 -0.060029864 -0.07773259 0.08153817 0.019108653 0.06231691
0.061402828 0.058243334 -0.08145626 -0.011394963 -0.09579624 0.11448781 -0.083247185 0.036505654
0.011213005 0.08642037 0.095240906 0.09687169 0.09857161 0.04090248 -0.083615616 -0.08391403
0.049134403 -0.06333542 0.0720568 -0.088771686 0.10017167 0.02311021 -0.025699407 -0.0066015124
-0.06567603 0.06848374 0.100687385 -0.099537194 -0.09136744 0.08967346 0.12419067 -0.11366621
0.08990821 -0.11303155 -0.011240765 -0.0797392 -0.058103323 -0.10514608 -0.041257888 0.107078984
0.066035435 -0.050081 -0.047777787 0.11213449 0.09414387 -0.090350494 0.074389085 0.054603726
0.02695179 0.0073212683 -0.08167948 -0.07479279 -0.060887516 0.059655994 0.06185299 0.11337668
0.025329188 -0.007635981 0.013899922 -0.022003531 -0.053728923 -0.110236555 -0.04784234 0.11320661
0.07666899 0.03878519 -0.007812619 0.1203893 0.03335777 0.10012747 0.10761337 0.08162597
0.061380833 -0.07450406 -0.048454255 -0.11062159 -0.030605063 -0.015048251 -0.02788043 -0.013609037
-0.104461804 -0.06443569 0.08363864 0.09807719 0.100291 -0.027753666 -0.03781025 -0.053240925

fc_net.fc_net.2.bias f4 [64]
00000000: 344c ab3d b839 d6bc 48d0 af3c 68fa d83d
00000010: 4010 98bd 5466 9bbd c4df bbbd 307e cfbd
00000020: 200a 2cbd 80e2 f6bc 9ebb e6bd ccde 12bd
00000030: 4259 efbd 04b2 33bd e044 d03b c89d 8a3d
00000040: 6008 7c3d 0cd3 9cbd 3634 cf3d 0c89 b5bd
00000050: c832 50bd 2042 ce3d 14ea 6f3d 6056 a7bc
00000060: 6864 fc3d c01c 91bd a80c b7bc c08a 53bd
00000070: 0ad7 e43d 806e febd c078 7c3c 50f1 fcbd
00000080: c802 033d 58fe 3f3d 90be 6a3c 1271 dabd
00000090: 2eec e43d 2a66 e1bd 2819 e2bd 30b3 fabc
000000a0: 20d7 123c 7041 af3c 84a7 ee3d 34e0 503d
000000b0: c0de c73c c883 a4bd 70af a33d 70d9 9ebc
000000c0: 8054 a63a 42d2 9ebd 205f 9ebd b03e 363d
000000d0: 509f 533d 2482 f33d 8097 fdbd 3cd9 debd
000000e0: d620 adbd a0da f33b b05e 6c3d 1819 65bd
000000f0: 4c5f 58bd b6fb dcbd 6c15 21bd f689 d73d
0.08364144 -0.02615057 0.02146162 0.10594636 -0.074249744 -0.07587877 -0.09173539 -0.1013149
-0.042001843 -0.0301373 -0.11266254 -0.035857007 -0.116869465 -0.04387094 0.006355867 0.06768376
0.061531425 -0.076574415 0.1011738 -0.0886403 -0.05082968 0.10071206 0.058572844 -0.020426929
0.123238385 -0.07085562 -0.022344902 -0.051645994 0.11173828 -0.1242342 0.015409648 -0.12350714
0.031985074 0.04687342 0.01432766 -0.10666098 0.1117786 -0.110058144 -0.110399544 -0.030603021
0.008962423 0.021393508 0.11653045 0.050995067 0.024398208 -0.08032948 0.079924464 -0.019390792
0.0012689978 -0.07754947 -0.077329874 0.044493377 0.051665604 0.11890057 -0.12382412 -0.10881278
-0.084535286 0.0074418336 0.05770749 -0.055932134 -0.052825257 -0.107901976 -0.03932707 0.10524361

action_head.weight f4 [5, 64]
00000000: f8ee e03c 9810 82bd 0410 61bd 9866 643d
00000010: c071 603b 409e 83bc 0017 5bbd 54af 75bd
00000020: 00d1 1d3c bca4 81bd 6c80 0dbd d0ce 2d3d
00000030: 505b 0cbd ac05 e4bd 680a 34bd 889b ba3d
00000040: 0036 8fb9 f658 eebd 7a22 ee3d 2c7e b2bd
00000050: 00b5 4a3d 486b c03c 2a84 d2bd b4ab 3f3d
00000060: 60ee b2bb 40f2 c63d 00e5 493b 4617 b4bd
00000070: b2b2 d73d 3c98 4a3d 38c6 633d f275 a8bd
00000080: 083d eb3d 4422 7b3d 9866 93bc 24a4 b7bd
00000090: 8071 84bd b8a5 a6bc cc6a de3d da37 db3d
000000a0: 686a 113d 801c 52bb 4639 923d 6871 60bd
000000b0: 1047 c23d 80ad efbd 80fa c33a 0020 e4bb
000000c0: c07c 6c3c 382f b03c 46c0 903d 5aaf 8e3d
000000d0: 74e5 6fbd d4ad 8e3d 80ea 1fbb e4ae f93d
000000e0: 126b b73d 2c1a c3bd 42c3 e4bd 7ab9 a33d
000000f0: 80f4 953b 989a 293d a03e bd3d 88ac e0bc
00000100: 8885 9d3c 30d9 bebd 6081 c03c c618 dcbd
00000110: f037 04bd ae4f af3d c0ae 3a3b 8ac6 dabd
00000120: c85f 963d 7028 22bc 945e f0bd f099 3cbd
00000130: 1499 cf3d 501f d4bd 3c61 453d 0c04 8a3d
00000140: 56ab dbbd e065 2f3c 40be ecbc 5af4 9bbd
00000150: f212 e03d 5c00 793d 9096 233c b6b6 c13d
00000160: 7e3f fc3d f846 b33c b84b 69bd b0d5 62bc
00000170: 04b7 c8bd 80b2 87ba c4ea 9fbd 1822 803c
00000180: 8488 6abd acc1 253d 848a 403d a087 ecbb
00000190: 9812 53bd 183c 80bc 20f3 3d3d 3835 bc3d
000001a0: 98a6 1abd 8007 573c 00a8 fabd 22ad c83d
000001b0: f200 ebbd 80e0 103d fcc0 c5bd 202f bfbd
000001c0: f059 3b3c 7cfe 7ebd e872 e33c aaac b6bd
000001d0: f20f c3bd b083 ab3c 9090 a5bc 608a 09bd
000001e0: 303c 54bc 80d9 973a ec0b 94bd 10a4 183c
000001f0: c253 bbbd 7c12 ed3d 401c 083b d03d 5c3c
00000200: 9809 c6bd fc73 af3d c687 b7bd b238 8ebd
00000210: a8e3 a0bd 185d 89bc 10c4 c9bc 02ab cb3d
00000220: 164b a6bd ea20 9c3d 8822 973d 7039 483d
00000230: 483a c4bc b8aa 26bd d8bd b43d 869a febd
00000240: 0adf 80bd 181c a83d 6c95 5e3d da74 c23d
00000250: 440d bbbd 8cfe a4bd 5cbc e03d 4ce2 fb3d
00000260: 6454 303d 5c3f 9d3d fccb 523d c002 7fbb
00000270: c0e8 4e3c 86e3 f9bd a42a 353d 9006 6dbd
00000280: 9897 f53d f0b0 533d 522e d2bd 703a e23c
00000290: f032 b7bc 0a37 ec3d 74af 443d d49e 4c3d
000002a0: 40b9 08bd a088 283c b49b b63d b819 61bd
000002b0: 2a57 fabd 5815 643d c408 41bd 8c84 c83d
000002c0: d828 69bd 7ae9 983d b06d 19bc b025 ddbd
000002d0: 3049 0f3c 206f f93b 38d3 9cbd 602a be3c
000002e0: 6856 ef3d 48b1 febd 24eb 09bd 1e96 e8bd
000002f0: 5c5b 593d a4e6 dc3d 5077 f5bd 3490 97bd
00000300: 7002 333c c227 edbd 42f6 ebbd 44e4 0f3d
00000310: e2ae e7bd 4ea4 963d 5c2e 32bd 407b 63bb
00000320: 80d4 c43d 00d0 8e3b 78d0 bdbd 50b3 51bd
00000330: fa1c ebbd 7030 163c 2ce1 1d3d 3279 ebbd
00000340: 5888 1abd be11 dd3d 4c52 edbd 8859 e8bd
00000350: 04f6 21bd a851 83bd 9424 20bd ba20 dd3d
00000360: a82b bbbc e291 993d d469 a2bd 1276 8f3d
00000370: 5cba bb3d 486d 723d 084b e8bd 32ab b93d
00000380: 68cf 7f3d bc55 113d 0c15 843d 30ac 1b3c
00000390: a6df 8b3d 48a8 dc3d 72ad a3bd c056 3f3c
000003a0: 520b b43d 1c62 0d3d a24f 8abd 8a59 f63d
000003b0: 14c3 c7bd 26b0 f1bd e845 b43d 3cd1 ac3d
000003c0: 168c 9dbd baa6 e2bd 8858 a8bc aeea 83bd
000003d0: 8aba c43d 5253 a3bd a8d3 6dbd 080f a9bd
000003e0: e0ce a0bb 4aa0 c53d bcc7 31bd e4e6 ba3d
000003f0: 42a7 9c3d 18ff 3e3d d88a a4bc 9ad4 c03d
0.0274577 -0.06350821 -0.054946914 0.055761904 0.0034247488 -0.01606667 -0.05348873 -0.05998166
0.009632349 -0.06330249 -0.0345463 0.04243356 -0.03426677 -0.11133894 -0.043955237 0.091116965
-0.0002731532 -0.11638062 0.1162767 -0.087154716 0.04948902 0.023488656 -0.102791145 0.04679461
-0.0054605454 0.09714174 0.003080666 -0.087935016 0.1053213 0.04946159 0.055608958 -0.08225621
0.1148625 0.061311975 -0.017993256 -0.08966854 -0.06466961 -0.020342693 0.10860214 0.10704012
0.035501868 -0.0032060444 0.0713983 -0.054795653 0.0948621 -0.117030144 0.0014951974 -0.0069618225
0.01443404 0.02150689 0.07067923 0.069670394 -0.058568433 0.06966749 -0.0024401248 0.12191561
0.08955969 -0.09526476 -0.11170055 0.07994361 0.004576266 0.041407198 0.092404604 -0.02742602
0.019228712 -0.09318769 0.02349919 -0.10746913 -0.03227991 0.085601196 0.0028485507 -0.106823996
0.073424876 -0.009897336 -0.11736789 -0.046045244 0.10136619 -0.10357535 0.048188433 0.06739053
-0.10726039 0.010705441 -0.028899312 -0.07614966 0.109411135 0.06079136 0.009984627 0.094586775
0.12316798 0.021884426 -0.056956977 -0.013844892 -0.098005325 -0.001035288 -0.0780845 0.015641257
-0.057259098 0.040467903 0.0470071 -0.007218316 -0.051531404 -0.015653655 0.04637444 0.09189838
-0.037756532 0.013124347 -0.12239075 0.097986475 -0.1147479 0.03537035 -0.096559495 -0.0933516
0.011435017 -0.062254414 0.027764753 -0.08919652 -0.09524526 0.020936817 -0.020210534 -0.03357923
-0.012953803 0.0011585206 -0.072288364 0.009316459 -0.09146835 0.11575791 0.0020768791 0.013442472
-0.096697986 0.08567044 -0.089614436 -0.069444075 -0.07855922 -0.016768023 -0.024629623 0.099447265
-0.0811979 0.07623465 0.07379633 0.0488829 -0.023953572 -0.040690154 0.08825272 -0.12431817
-0.06292541 0.082084835 0.05434172 0.09494944 -0.091333896 -0.080563635 0.10973427 0.12299022
0.04304923 0.076781005 0.051464066 -0.0038911551 0.012628734 -0.122016 0.04423012 -0.057867587
0.11991805 0.051682413 -0.10262741 0.027615756 -0.022363156 0.11533935 0.048018888 0.049956158
-0.033379793 0.01028648 0.08916417 -0.054956168 -0.122236565 0.055684417 -0.0471275 0.09790906
-0.056923717 0.07466407 -0.00936453 -0.10798204 0.008745477 0.007612124 -0.07657474 0.023213565
0.116864026 -0.124361575 -0.033671513 -0.113567576 0.053065643 0.10786179 -0.11985648 -0.074005514
0.010925874 -0.11579849 -0.11521579 0.0351298 -0.11312653 0.073555574 -0.043501243 -0.0034710914
0.09610844 0.0043582916 -0.09268278 -0.051196396 -0.11480136 0.009166822 0.03854482 -0.114977255
-0.037727684 0.107944 -0.115879625 -0.11345202 -0.03954126 -0.06412059 -0.039097384 0.10797258
-0.022847965 0.07498528 -0.07930341 0.07004942 0.091664046 0.05918625 -0.11342436 0.09065856
0.062453657 0.035482153 0.06449327 0.009501502 0.06829767 0.107742846 -0.079920664 0.011678398
0.08791222 0.034517393 -0.0675347 0.12028797 -0.09754005 -0.11801176 0.08802396 0.08438346
-0.07692735 -0.11066957 -0.020550027 -0.06441246 0.09605892 -0.079748765 -0.05806318 -0.0825482
-0.004907474 0.09649713 -0.043403372 0.0912607 0.076490894 0.046629995 -0.020085737 0.094155505

action_head.bias f4 [5]
00000000: 28d4 dc3c 7037 f93c 30ff 063d 0007 89bb
00000010: 08ac f03c
0.026956633 0.030421942 0.03295821 -0.0041817427 0.029378906

value_head.weight f4 [1, 64]
00000000: ac0f c83d d63b d53d 0cb1 bf3d dc8d c23d
00000010: 5093 593c 70f7 313d daef e33d 6a59 febd
00000020: 869f f1bd 5890 bdbc d06f b3bd a807 3e3d
00000030: 923a 973d e2a6 cbbd d039 6a3d 00e3 0cbc
00000040: 2814 123d 48d0 4f3d 6662 c0bd d860 81bd
00000050: c882 1dbd cae8 a83d a630 a23d b0b4 efbc
00000060: d0d6 923c c851 4bbd 6886 61bd 4647 c93d
00000070: 620e 98bd b0a4 62bd 2690 863d 0eb6 f33d
00000080: b080 d83d 90cf 383c 5009 e13c 32b7 883d
00000090: 2035 1fbc d87c 8a3c c4d3 083d a231 f43d
000000a0: dca1 183d e0d6 50bc f496 d43d 8c07 1d3d
000000b0: 506d db3d f817 973d a821 e1bd f4c4 ec3d
000000c0: a4d9 c33d 1c6a 70bd 8893 54bd 2c25 c0bd
000000d0: c04a afbb acba 103d 70ba 193d 7635 be3d
000000e0: c0e8 1cbb 5e45 b93d 4064 85bb 5057 743c
000000f0: 38f4 16bd 3232 f8bd 3c8f 48bd b29a 97bd
0.09768614 0.104118034 0.09359941 0.09499714 0.013279751 0.043448865 0.111297324 -0.12419398
-0.11798005 -0.023140118 -0.08761561 0.04639402 0.07384218 -0.0994394 0.05718404 -0.008599043
0.035663754 0.05073574 -0.09393768 -0.063172996 -0.0384548 0.08247526 0.07919435 -0.029260963
0.017924696 -0.04963854 -0.05505982 0.098280475 -0.07424618 -0.05533284 0.06570463 0.118999586
0.1057142 0.0112799555 0.02747026 0.06675567 -0.009717256 0.016905233 0.03340508 0.11923529
0.037263736 -0.012746543 0.103803545 0.038337275 0.10714209 0.073776186 -0.109927475 0.11561003
0.09562996 -0.058694944 -0.05189851 -0.0938209 -0.005349487 0.035334274 0.037531316 0.092875406
-0.002394244 0.09046434 -0.0040707886 0.014913395 -0.036854 -0.12118949 -0.048964724 -0.07402553
