2022/20-华立民 指导老师-马里佳/code/output/2-agents_domain-PredatorPrey-2_adversaryratio-0.75_AC-QMIX_2022-11-16-08-49-52/protagonist_model.pth (torch, 52943 bytes, 7 tensors)

fc_net.fc_net.0.weight f4 [64, 125]
0	0xbd71a430	-0.058994472
1	0xbd9b6258	-0.07587117
2	0x3cc88260	0.02447623
3	0xbdb2d44f	-0.08731901
4	0xbd456ce5	-0.048199553
5	0xbda788ce	-0.0818039
6	0x3c625130	0.013813302
7	0x3d7a6fe6	0.06114187
8	0xbc4c2f18	-0.0124624
9	0x3d6fd392	0.05855138
10	0x3d9ee8d7	0.077592544
11	0xbd4e5b33	-0.050379943
12	0xbd70e848	-0.05881527
13	0x3c86c09c	0.016449265
14	0x3d9e6dcd	0.077357866
15	0x3d4c85aa	0.04993216
16	0x3c103bd8	0.00880333
17	0x3d8c7dcd	0.06859932
18	0xbd299582	-0.041402347
19	0xbd30d662	-0.0431732
20	0x3c9ba9e8	0.019001916
21	0xbd31d8bd	-0.04341959
22	0xbd42264b	-0.0473998
23	0xbd0bb608	-0.034109145
24	0x3c155628	0.0091147795
25	0xbc37ba86	-0.011213904
26	0x3d8299c5	0.063769855
27	0xbb594768	-0.0033154134
28	0xbd94087a	-0.07228179
29	0xbd30e4ca	-0.04318694
30	0x3c37e620	0.0112243
31	0x3da60363	0.08106115
32	0x3d183add	0.03716551
33	0x3c8d52e9	0.017251449
34	0x3d5dd9e7	0.054162886
35	0x3d7c140f	0.061542567
36	0xbccac95b	-0.024754217
37	0xbcb2f841	-0.021846892
38	0xbda49185	-0.08035568
39	0x3c418e0d	0.011813653
40	0x3c8499b3	0.01618657
41	0x3d179023	0.037002694
42	0x3d219b46	0.03945472
43	0x3da2d596	0.079508945
44	0x3ce9a4fc	0.028521053
45	0x3d43563c	0.04768966
46	0xbd616f31	-0.05503768
47	0xbd74b8ad	-0.059746433
48	0xbc34dac0	-0.011038482
49	0x3c049062	0.008091064
50	0x3c9242bd	0.017854089
51	0x3d8a4d27	0.06752997
52	0xbd03ec20	-0.03220761
53	0x3c559994	0.013037104
54	0xbd8257b7	-0.063643865
55	0xbb0ac41e	-0.0021174024
56	0xbd16506f	-0.0366978
57	0x3d9ce84c	0.076614946
58	0xbc3b97dd	-0.011449781
59	0x3d407cd0	0.04699403
60	0x3ce02ee9	0.027366119
61	0x3d650445	0.055912275
62	0x3da9973e	0.082808
63	0xbd9153e4	-0.07096079
64	0xbd8f84f7	-0.07007783
65	0x3daa2590	0.08307946
66	0x3bc56ab8	0.0060246848
67	0x3aec12cc	0.0018010973
68	0x3d7d3976	0.061822377
69	0xbd353b4e	-0.04424601
70	0xbbaa21c0	-0.0051920116
71	0x3cb412f8	0.021981701
72	0x3d8bd773	0.06828203
73	0x3d12f1ca	0.03587512
74	0xbdb389d6	-0.087665245
75	0xbda1cab3	-0.0789999
76	0x3da7606c	0.08172688
77	0x3dba7b34	0.091055304
78	0x3bfa91e5	0.0076467865
79	0xbd0b0078	-0.033935994
80	0x3d989200	0.07449722
81	0x3d39e41e	0.045383565
82	0xbd75cbb4	-0.06000872
83	0x3c970dc0	0.018439174
84	0x3d89b618	0.06724185
85	0xbc5750a8	-0.013141789
86	0x3d995b48	0.07488114
87	0x3d8e2825	0.06941251
88	0x3c6f9852	0.014623718
89	0xbc9ac01e	-0.018890437
90	0x3d8ef360	0.06980014
91	0xbd8f058b	-0.06983479
92	0xbd076e93	-0.033064436
93	0x3da0e2d5	0.07855765
94	0x3d7520fa	0.059845902
95	0xbacdc5c3	-0.0015699196
96	0x3b4bb97a	0.0031085894
97	0xbbb31984	-0.005465688
98	0x3c8df305	0.017327795
99	0xbce7e024	-0.02830512
100	0xbd908689	-0.070569105
101	0xbbe738c0	-0.0070563257
102	0x3c1ae818	0.0094547495
103	0xbd86fa1b	-0.065906726
104	0x3d9017bf	0.07035779
105	0x3d903d95	0.07042996
106	0xbd8d3df8	-0.06896585
107	0xbc9e26a0	-0.019305527
108	0xbd18404f	-0.037170704
109	0x3d6804a6	0.056645058
110	0x3d748b1a	0.05970297
111	0xbc4cf208	-0.012508877
112	0x3c8a7afc	0.016904347
113	0xbcfaf546	-0.030634534
114	0xbc2a52f0	-0.01039575
115	0xbd54338d	-0.051806975
116	0xbd09af55	-0.033614475
117	0xbdacb99d	-0.084338404
118	0xbcc18ffc	-0.023628227
119	0xba078080	-0.00051689893
120	0xbc39be58	-0.011336885
121	0x3da154c5	0.07877497
122	0x3ab32480	0.0013667494
123	0x3d8cbdd9	0.06872148
124	0xbd3d413f	-0.0462048
125	0x3d860a1f	0.06544899
126	0x3d74d26a	0.05977098
127	0xbd15dcb0	-0.036587417
128	0x3dae0665	0.084973134
129	0xbcb85184	-0.022499807
130	0x3daf99d9	0.08574266
131	0xbda08c75	-0.0783929
132	0x3cd99eb8	0.02656494
133	0x3d9f8fdf	0.07791113
134	0x3c8aa808	0.016925827
135	0xbd9939fd	-0.074817635
136	0xbdb0d77b	-0.0863485
137	0xbd803483	-0.06260016
138	0xbc3cc870	-0.011522397
139	0xbdb2e6fd	-0.08735464
140	0x3da8e2c9	0.08246381
141	0x3c1f0df0	0.009707913
142	0x3a828540	0.0009957924
143	0x3dabc34f	0.083868615
144	0x3d8f141d	0.06986258
145	0xbd186082	-0.037201412
146	0x3d98477f	0.07435512
147	0xbc899a38	-0.01679717
148	0x3cd6ad84	0.026205786
149	0xbd5e4802	-0.05426789
150	0xbd3d635f	-0.046237346
151	0xbc10d5b1	-0.0088400105
152	0xbd8f548a	-0.069985464
153	0xbd4af02f	-0.049545463
154	0xbd7776e8	-0.060416132
155	0xbb8bec95	-0.004270146
156	0x3d7c6546	0.06162002
157	0xbd803c88	-0.062615454
158	0xbcaa77f6	-0.020809155
159	0xbd170f76	-0.03687998
160	0x3d5abe84	0.053404346
161	0x3d9502b4	0.07275906
162	0xbd99a462	-0.07502057
163	0x3cd240ac	0.025665604
164	0x3ce1151c	0.027475886
165	0x3d46fb0b	0.048579257
166	0xbbc7ea7a	-0.00610095
167	0x3bf52f27	0.0074824276
168	0x3ce6d0b4	0.02817569
169	0xbda04630	-0.07825887
170	0xbb8f7d10	-0.0043789223
171	0xbcb8e164	-0.022568412
172	0xbd9f945d	-0.0779197
173	0xbd3588b9	-0.044319842
174	0xbc3d6c41	-0.011561454
175	0xbd2b7e10	-0.04186827
176	0x3d991ae9	0.07475836
177	0x3b164d0d	0.002293411
178	0xba409fcb	-0.000734803
179	0x3d311205	0.043230075
180	0xbd36b75d	-0.044608463
181	0x3d92e472	0.07172479
182	0xbd06c1be	-0.03289961
183	0x3d8d0a68	0.068867505
184	0x3c01a223	0.007912192
185	0xbd5d98b7	-0.05410072
186	0x3d2c6df6	0.042097054
187	0xbd6fb52c	-0.05852239
188	0x3cb18cdc	0.021673612
189	0x3c1256bb	0.008931811
190	0x3c0d2be6	0.008616423
191	0x3d6ff20f	0.058580454
192	0xbd95b879	-0.07310576
193	0xbbbdbf95	-0.0057906606
194	0x3d86a13b	0.06573721
195	0x39d69864	0.000409308
196	0x3d6a84bc	0.05725549
197	0xbd91458f	-0.070933454
198	0x3d99f202	0.075168625
199	0x3da2a8b9	0.079423375
200	0x3db52b0a	0.088461
201	0x3bf08ff0	0.0073413774
202	0xbd1077ba	-0.03527043
203	0xbd8031cc	-0.06259498
204	0x3d591bf9	0.053005192
205	0xbd184354	-0.037173584
206	0xbd5fc826	-0.054634236
207	0xbd1ca9da	-0.03824792
208	0x3c93c266	0.018037032
209	0x3c2fdadd	0.010733333
210	0xbb8b73da	-0.004255754
211	0xbd295583	-0.041341316
212	0x3d36e812	0.044654913
213	0xbd4d249f	-0.050083753
214	0x3cde0f87	0.027107013
215	0xbc1a4951	-0.009416894
216	0x3dacb808	0.08433539
217	0xbc3a46c5	-0.011369412
218	0x3d45f26c	0.048326895
219	0x3d8bd116	0.06826989
220	0x3d3a4a34	0.045480922
221	0xbd828d4d	-0.06374607
222	0x3d838341	0.06421519
223	0xbd36a3e0	-0.044589877
224	0x3d266572	0.04062409
225	0x3d5bba0a	0.053644218
226	0x3d29f34a	0.041491784
227	0xbc5b0608	-0.013368137
228	0x3c803894	0.015651979
229	0x3d91910f	0.07107746
230	0x3cca1b8c	0.024671338
231	0xbd23e015	-0.040008623
232	0xbd8cac43	-0.06868794
233	0xbc3f29b0	-0.011667654
234	0x3c42b0d8	0.011882983
235	0xbced7c9c	-0.028990082
236	0xbd4a27b2	-0.049354263
237	0xbc971fc0	-0.018447757
238	0x3ced8718	0.028995082
239	0x3b995a20	0.004679933
240	0x3d47b806	0.048759483
241	0x3d0319ae	0.032006912
242	0x3cf048e0	0.029331625
243	0xbd10e01e	-0.035369985
244	0xbc807c58	-0.015684292
245	0x3d8e3ad5	0.06944815
246	0x3d590672	0.052984662
247	0xbd9a63b4	-0.07538548
248	0x3db40e65	0.08791808
249	0x3bec65c0	0.007214278
250	0x3daa20db	0.08307048
251	0x3d3e569e	0.046469323
252	0xbcc2f330	-0.023797601
253	0xbb8b1210	-0.0042440966
254	0x3d17f3aa	0.03709761
255	0x3c20fcf8	0.009825937

fc_net.fc_net.0.bias f4 [64]
0	0x3d11e35e	0.035617225
1	0xbda26c86	-0.079308555
2	0x3d94c8ef	0.072648875
3	0x3ba583d2	0.0050511146
4	0xbd4d0c3e	-0.050060503
5	0xbd0d6c45	-0.034527082
6	0x3d807091	0.0627147
7	0x3d090061	0.033447627
8	0xbd706dd8	-0.058698505
9	0xbda7819a	-0.081790164
10	0xbc370de2	-0.0111727435
11	0xbd421a71	-0.047388498
12	0xbdb8ee92	-0.09029879
13	0xbda31036	-0.07962076
14	0x3b5e0e01	0.0033882859
15	0xbcfc021c	-0.030762725
16	0x3dafa6f4	0.08576766
17	0xbc089f00	-0.00833869
18	0x3d4ea6dd	0.050452102
19	0x3cd31f5b	0.025771787
20	0xbbc48024	-0.005996721
21	0x3d296df8	0.04136464
22	0xbda95a0c	-0.08269128
23	0x3d6a672d	0.057227302
24	0xbd02a85b	-0.031898838
25	0xbda54698	-0.08070105
26	0xbda568be	-0.080766186
27	0x3d3397a9	0.043845806
28	0xbc72b7e8	-0.0148143545
29	0xbd4a4e48	-0.04939106
30	0xbd9fb92f	-0.07798993
31	0xbd0bccfd	-0.03413104
32	0xb98747d0	-0.0002580271
33	0xbd6d1846	-0.057884477
34	0x3d957a2f	0.07298695
35	0xbd228137	-0.03967401
36	0x3d9a7435	0.07541696
37	0x3c6cc48b	0.014451156
38	0xbca2b75b	-0.019862821
39	0xbd9249fc	-0.07143018
40	0x3d5c3152	0.053757973
41	0x3d9e68f3	0.07734861
42	0xbc4a0c30	-0.012332007
43	0xbd1ffcb5	-0.03905936
44	0xb9f5fd85	-0.00046918928
45	0xbc27a57a	-0.010232324
46	0x3aa77ceb	0.0012778317
47	0x3d519fd0	0.0511778
48	0xbbcea1b0	-0.0063058957
49	0xbd62a8c0	-0.055336714
50	0xbc06d142	-0.008228602
51	0x3ce1689d	0.027515704
52	0xbd21b148	-0.03947571
53	0xbc2fd9d4	-0.010733087
54	0x3d41d007	0.04731753
55	0xbd463e37	-0.048399176
56	0x3d9c83a4	0.07642296
57	0x3daf8315	0.08569924
58	0x3d5280a5	0.051392216
59	0x3d9f62f7	0.07782548
60	0x3d810cd1	0.06301273
61	0x3ce1dce7	0.027571155
62	0x3dace1bc	0.08441493
63	0xbd326bc2	-0.043559797

fc_net.fc_net.2.weight f4 [64, 64]
0	0x3dac00cf	0.08398592
1	0xbd47b258	-0.048754066
2	0x3d767274	0.060167745
3	0xbde12ae5	-0.109945096
4	0x3d61b3b9	0.055103038
5	0x3bce5031	0.0062961807
6	0xbc058b42	-0.008150877
7	0xbda9e132	-0.08294906
8	0x3cfd7639	0.030940162
9	0xbd211a81	-0.039331917
10	0xbd91ace3	-0.07113054
11	0x3d5122f0	0.05105871
12	0x3c82bc7b	0.015959015
13	0xbdc46de4	-0.095912725
14	0xbdc4c328	-0.096075356
15	0x3d84c126	0.06482153
16	0xbdb3d66f	-0.08781134
17	0x3cd42f19	0.025901364
18	0xbc0da664	-0.008645628
19	0xbcf93893	-0.030422485
20	0xbbb96c36	-0.0056586517
21	0xbc17c5bf	-0.009263455
22	0x3dc1370e	0.09434329
23	0x3da3cbd5	0.07997862
24	0xbdd4cf70	-0.10391128
25	0x3d0eb611	0.0348416
26	0xbc9b757c	-0.01897692
27	0x3d063d97	0.03277358
28	0x3d8bcc21	0.06826044
29	0xbc1cfe30	-0.009582087
30	0xbd6cbdca	-0.057798184
31	0xbd5a51ac	-0.053300545
32	0x3cd0b781	0.025478126
33	0xbdee99fe	-0.116504654
34	0xbdffa155	-0.124819435
35	0xbc180bd1	-0.009280161
36	0xbb91afb0	-0.0044459924
37	0x3dc24682	0.094861045
38	0xbd94f603	-0.072734855
39	0xbc3a4fbc	-0.011371549
40	0x3da8ae4d	0.0823637
41	0xbd7d280b	-0.061805766
42	0x3d6a9760	0.05727327
43	0xbb5a0788	-0.003326865
44	0x3dcc426f	0.09973609
45	0xbd43c16b	-0.04779188
46	0x3dc87e1f	0.09789681
47	0xbcc224d3	-0.0236992
48	0xbe02dd6b	-0.12779777
49	0x3d10d613	0.035360407
50	0xbd702414	-0.058628157
51	0xbd8d2970	-0.06892669
52	0xbdc57b46	-0.09642653
53	0x3acec6be	0.0015775783
54	0x3cd66b77	0.02617429
55	0xbc9cfb37	-0.019162757
56	0xbdf56c44	-0.11983541
57	0xbcafd53b	-0.02146398
58	0xbdf19868	-0.11796647
59	0x3d78ba45	0.060724515
60	0xbdaf5fc3	-0.08563187
61	0x3ddf6601	0.109081276
62	0xbdd14f32	-0.102201834
63	0x3d0bb1c0	0.034105062
64	0x3c97e4ff	0.018541811
65	0x3d41a34e	0.04727488
66	0xbd376e65	-0.044783015
67	0xbdcf59f6	-0.101245806
68	0x3dd97dc2	0.106196895
69	0x3d803e4d	0.06261883
70	0x3d1b5b13	0.037928652
71	0xbce44c61	-0.027868452
72	0x3c4f0d19	0.0126374
73	0x3c98ebe3	0.018667167
74	0xbd742d90	-0.059613764
75	0x3d4a451e	0.04938232
76	0x3db42da6	0.08797769
77	0x3d002d6d	0.03129332
78	0x3ce9f60f	0.028559713
79	0x3d77b5a9	0.06047598
80	0xbd42610b	-0.04745583
81	0x3c15ce2b	0.009143393
82	0x3dd383b2	0.10327853
83	0x3da80d96	0.08205716
84	0xbd1e459d	-0.038640607
85	0xbd3c9e72	-0.046049543
86	0x3ce17ebc	0.027526252
87	0x3d1436a6	0.03618493
88	0x3d232f02	0.039839752
89	0xbd6f814f	-0.058472928
90	0x3dac9eaa	0.084287
91	0x3def96b7	0.116986685
92	0xbcb06352	-0.021531735
93	0xbdd81506	-0.10550885
94	0x3dfefd18	0.124506176
95	0x3c351c3a	0.011054093
96	0x3d5d0e50	0.053968728
97	0xbdbb557f	-0.091471665
98	0xbca434f6	-0.020044785
99	0xbda9a5e4	-0.08283594
100	0xbdc74f20	-0.09731889
101	0xbdae1c06	-0.08501439
102	0x3cdc2145	0.026871333
103	0x3dd5d59f	0.104411356
104	0xbcf5cfa2	-0.030006234
105	0xbd7eaf4d	-0.0621789
106	0x3daa1aa3	0.08305862
107	0xbd811a8a	-0.0630389
108	0x3da58d2f	0.08083569
109	0xbd384e99	-0.04499683
110	0x3cfb7bd8	0.030698702
111	0x3da041f7	0.07825082
112	0xbde0047b	-0.109383546
113	0xbd25da0e	-0.040491156
114	0xbd8925f2	-0.066966906
115	0xbd5ff25f	-0.054674502
116	0x3dfa5bbf	0.122245304
117	0x3d548d26	0.051892422
118	0x3d72186a	0.059105314
119	0xbde8ed2c	-0.11373362
120	0x3dc89436	0.09793894
121	0xbd37cf39	-0.044875357
122	0x3dcbb27e	0.09946154
123	0xbd1f5a94	-0.03890474
124	0xbd8cc6ed	-0.068738796
125	0xbda17b93	-0.07884898
126	0xbdb4406d	-0.08801351
127	0x3d1c31a2	0.03813327
128	0xbd242830	-0.04007739
129	0xbd635394	-0.05549963
130	0x3dad1e10	0.084529996
131	0xbd07bc56	-0.033138596
132	0xbdb221f2	-0.08697881
133	0xbc8ea4eb	-0.017412623
134	0xbd96ae7e	-0.073575005
135	0x3db7490f	0.08949482
136	0x3c542751	0.012948827
137	0xbddc6585	-0.10761551
138	0x3c28784e	0.010282589
139	0x3d717568	0.058949858
140	0x3c18da69	0.009329417
141	0x3dc5c498	0.09656638
142	0xbdd6a72f	-0.104811065
143	0xbc93be43	-0.01803506
144	0x3dddd509	0.10831649
145	0x3dcfaf39	0.10140843
146	0xbda77c5b	-0.08178016
147	0xbdc458b5	-0.09587232
148	0xbc670844	-0.014101092
149	0xbd83f494	-0.06443134
150	0xbd575b68	-0.052577406
151	0x3df1c33c	0.11804816
152	0x3dde3528	0.108499825
153	0x3d29553c	0.04134105
154	0x3d247171	0.04014725
155	0x3d86342e	0.06552921
156	0x3cfa505c	0.030555896
157	0xbd8edaed	-0.069753505
158	0xbe025d30	-0.1273086
159	0xbdc54794	-0.09632793
160	0xbd934c88	-0.071923316
161	0x3dc281f9	0.094974466
162	0x3b8301be	0.0039980104
163	0x3b08d435	0.0020878438
164	0xbce2e1be	-0.027695533
165	0x3cc79ad6	0.024365824
166	0x3d29ab36	0.041423045
167	0xbdac82fb	-0.0842342
168	0x3d391ef0	0.04519552
169	0xbd940d06	-0.072290465
170	0xbdc34534	-0.09534684
171	0x3da88cfa	0.08230014
172	0x3cf5418d	0.029938484
173	0xbd651889	-0.0559316
174	0xbda76c06	-0.08174901
175	0xbdc941e7	-0.09827023
176	0xbdc839c9	-0.09776647
177	0xbcaf4f86	-0.021400224
178	0x3d211164	0.039323226
179	0x3c2c71b9	0.0105251605
180	0x3d04a703	0.032385837
181	0x3d0928d0	0.033486187
182	0x3dd48ce5	0.10378436
183	0xbded093a	-0.115740255
184	0x3bc5273b	0.0060166395
185	0xbd0ec7f9	-0.034858678
186	0x3dd24cf6	0.102685854
187	0x3cb485c0	0.022036433
188	0xbdde63d4	-0.108588845
189	0x3c7aeb2b	0.0153148575
190	0xbd96991f	-0.07353424
191	0x3b69f2e0	0.0035697743
192	0x3d0c6eda	0.034285404
193	0xbde49eb8	-0.11163086
194	0xbdcede59	-0.10101003
195	0xbdcde865	-0.10054091
196	0x3de1be89	0.1102267
197	0xbd74c45f	-0.059757587
198	0xbcfdd257	-0.030984087
199	0x3dfe6e86	0.124234244
200	0xbc00aac6	-0.007853216
201	0x3d774ee0	0.060377955
202	0xbd1fbd99	-0.038999174
203	0xbdb03a89	-0.08604915
204	0x3c3abad6	0.011397084
205	0x3d3cafda	0.046066143
206	0xbcb0f223	-0.021599835
207	0xbd829e3e	-0.063778386
208	0x3cd052c6	0.025430094
209	0x3cf634ff	0.030054567
210	0x3d77239c	0.060336694
211	0xbd25dc7d	-0.040493477
212	0xbdd42c0c	-0.10359964
213	0xbd8d4dee	-0.068996295
214	0x3d1a89a6	0.037728928
215	0x3cf11f7b	0.029433956
216	0x3d8519a4	0.06499031
217	0x3c18966e	0.009313209
218	0x3d334894	0.043770388
219	0xbd18a9b5	-0.03727122
220	0x3de8b494	0.113625675
221	0xbbf690c9	-0.007524584
222	0x3d1f3c25	0.038875718
223	0x3d855f47	0.06512313
224	0xbdbd0027	-0.09228545
225	0x3d7bb814	0.061454847
226	0x3b15d174	0.002286044
227	0xbd322ea7	-0.043501522
228	0xbc154f1d	-0.0091131
229	0x3c1524d9	0.009103023
230	0xbd2a3040	-0.04154992
231	0xbdd2b112	-0.1028768
232	0xbc80a7f2	-0.015705083
233	0xbca5d706	-0.020244133
234	0xbd50e15c	-0.05099617
235	0xbd06b60b	-0.032888453
236	0xbdee2fda	-0.11630221
237	0x3d83f1a5	0.064425744
238	0x3d55fef4	0.052245095
239	0x3df78c50	0.12087309
240	0x3dc49bda	0.09600039
241	0x3dad5811	0.08464063
242	0x3d7b7e38	0.06139967
243	0x3dbff37f	0.09372615
244	0xbd0800c3	-0.03320385
245	0x3d62882e	0.055305652
246	0x3cd3a9c9	0.025837796
247	0xbca39e7f	-0.019973038
248	0xbd83349f	-0.06406521
249	0xbc93e198	-0.018051907
250	0xbcfc4287	-0.030793441
251	0xbd613a0e	-0.054987006
252	0xbd966c97	-0.073449306
253	0x3d0542b2	0.03253431
254	0x3ddaa6dc	0.10676357
255	0x3cd2d970	0.025738448

fc_net.fc_net.2.bias f4 [64]
0	0xbdd8d3dc	-0.10587284
1	0x3d906d3a	0.07052083
2	0x3dbef96b	0.093249165
3	0xbcfed58c	-0.031107686
4	0x3dc0d82c	0.094162315
5	0xbd3f040c	-0.04663472
6	0x3d74e8d2	0.059792347
7	0xbcfe0136	-0.031006437
8	0xbd06f625	-0.032949585
9	0xbca0e97c	-0.019642584
10	0x3df203bb	0.11817118
11	0xbdc92cd5	-0.09823004
12	0x3ccf3460	0.025293529
13	0xbd0106f8	-0.031500787
14	0xbd98d8a6	-0.074631974
15	0xbda9e599	-0.082957454
16	0xbdb7d27b	-0.08975693
17	0xbd986fec	-0.074432224
18	0xbc94c077	-0.01815818
19	0x3d1c1543	0.038106214
20	0x3dcc7bca	0.099845484
21	0xbb197bab	-0.002341966
22	0x3a3f1dab	0.00072904926
23	0x3cc1970f	0.0236316
24	0x3d655ec5	0.055998582
25	0x3dc1f829	0.09471161
26	0xbd14b5fa	-0.03630636
27	0xbd3bbc8a	-0.0458341
28	0xbcd9aa4e	-0.026570465
29	0xbbbc3d12	-0.005744585
30	0x3dcd778e	0.10032569
31	0xbbffb601	-0.007803679
32	0x3de85ac9	0.11345441
33	0xbc893f1a	-0.016753722
34	0x3c51d932	0.012808131
35	0xbd93b726	-0.07212667
36	0x3dd6d140	0.1048913
37	0x3d9f1f79	0.07769675
38	0xbd1e81aa	-0.038697876
39	0x3df01f00	0.11724663
40	0x3bbc6dc9	0.005750392
41	0x3d138c41	0.03602243
42	0xbdb6c32f	-0.08923947
43	0x3d675ebd	0.056486834
44	0xbdad92c6	-0.084752604
45	0xbde69e6e	-0.11260687
46	0x3d69a70d	0.057044078
47	0xbb487fcf	-0.0030593758
48	0xbcd02598	-0.025408551
49	0xbdb785f4	-0.089610964
50	0x3da5a395	0.080878414
51	0x3ca57db8	0.020201549
52	0xbd91f1ea	-0.071262196
53	0x3e02c6a0	0.12771082
54	0x3dc37223	0.09543254
55	0x3d8c3f89	0.06848056
56	0xbd722b29	-0.059123192
57	0x3db82e8f	0.08993255
58	0x3d84f4fb	0.06492039
59	0xbdb9fb77	-0.09081166
60	0x3d910a1c	0.07082006
61	0x3ce147ac	0.027499996
62	0xbc2758fc	-0.010214087
63	0x3ce5a343	0.02803195

action_head.weight f4 [5, 64]
0	0xbd126b94	-0.035747126
1	0xbdc4407b	-0.09582611
2	0x3dfd8a09	0.12379844
3	0x3c7ed68f	0.015554084
4	0xbc7ad142	-0.01530868
5	0xbd59f231	-0.053209487
6	0x3db365f8	0.08759683
7	0xbd382d63	-0.04496516
8	0xbd45a15a	-0.04824958
9	0x3d1350db	0.03596578
10	0xbc15ab00	-0.009135008
11	0x3d655d20	0.055997014
12	0xbda2f378	-0.07956594
13	0x3aa7ef32	0.0012812375
14	0xbc03b81e	-0.008039502
15	0xbb3f721f	-0.0029212309
16	0x3cc51d5d	0.024061853
17	0xbda240e7	-0.079225354
18	0x3c9a1b14	0.01881174
19	0xbe024cbb	-0.12724583
20	0x3c6202fa	0.013794655
21	0x3d9815d9	0.07426042
22	0x38574f00	5.133357e-05
23	0x3d9f8057	0.07788151
24	0x3d65ec11	0.056133334
25	0x3d15b581	0.03655005
26	0x3cf9cfff	0.030494688
27	0x3cc933f5	0.024560908
28	0x3ce281f2	0.027649853
29	0x3d8dc978	0.06923193
30	0xbdd936db	-0.10606166
31	0xbda42302	-0.0801449
32	0x3d1ff13b	0.039048415
33	0xbd8ed9c7	-0.069751315
34	0x3dc7a996	0.09749143
35	0x3db13f6a	0.086546734
36	0xbd5f1dba	-0.05447171
37	0x3cf93e18	0.030425116
38	0x3dca6084	0.0988169
39	0xbda45d58	-0.080256164
40	0xbcf1246f	-0.029436318
41	0xbcd90ec9	-0.026496308
42	0xbdf1575a	-0.11784239
43	0xbdac2c06	-0.08406834
44	0xbd47daee	-0.048792772
45	0xbda5757a	-0.080790475
46	0xbcc29d34	-0.0237566
47	0xbd71956c	-0.05898039
48	0xbd966fb1	-0.07345522
49	0xbd96c0e5	-0.073610105
50	0xbdcb22d6	-0.09918754
51	0x3d192eec	0.037398264
52	0x3dec0e36	0.11526148
53	0x3dc6ccf8	0.097070634
54	0xbd98c214	-0.074588925
55	0x3d8d5efe	0.06902884
56	0xbd4952cd	-0.04915123
57	0xbd23e17c	-0.04000996
58	0x3d3f2307	0.046664264
59	0xbd6dabe0	-0.05802524
60	0x3d5c2d3e	0.053754084
61	0x3d857d15	0.06517998
62	0x3d018906	0.031624816
63	0xbdc94275	-0.09827129
64	0x3d8f6d64	0.070032865
65	0xbdc98635	-0.09840051
66	0x3d419ac3	0.047266733
67	0x3c9e7aee	0.019345727
68	0xbb35fcd5	-0.0027769108
69	0xbd4eca5e	-0.05048596
70	0x3ca4574d	0.02006116
71	0x3cb91738	0.02259408
72	0xbd70c9fa	-0.05878637
73	0x3d106f9c	0.03526269
74	0x3d6a281a	0.05716715
75	0xbdbe53e8	-0.092933476
76	0x3c58f29a	0.0132414345
77	0x3d89c40a	0.067268446
78	0xbd88b583	-0.066752456
79	0xbdf244c0	-0.11829519
80	0xbbaf7179	-0.005354103
81	0x3d8fcaed	0.07021127
82	0x3d5a2367	0.05325642
83	0xbdd36228	-0.10321456
84	0xbdc906bc	-0.098157376
85	0xbd7d22e3	-0.06180085
86	0xbce355e0	-0.02775091
87	0x3df04e12	0.11733641
88	0xbdcab94f	-0.09898626
89	0x3d95079b	0.07276841
90	0x3d9b7b41	0.07591868
91	0x3d837193	0.06418147
92	0x3dbac2c0	0.09119177
93	0x3dddc082	0.108277336
94	0xbd926906	-0.07148938
95	0x3de711a9	0.11282665
96	0xbcac5075	-0.021034459
97	0xbd9fd3f9	-0.078041025
98	0x3dc9fd58	0.098627746
99	0xbdbb17a9	-0.09135372
100	0xbcc4140a	-0.023935337
101	0xbd9f770e	-0.0778638
102	0xbbe3b410	-0.0069489554
103	0x3dcb9f68	0.09942514
104	0x3c75a540	0.014993012
105	0xbdbacc64	-0.09121016
106	0x3c05157a	0.008122796
107	0x3df90700	0.12159538
108	0xbbdf80ff	-0.0068207975
109	0x3ada6e40	0.0016664937
110	0xbcb7f192	-0.022454057
111	0x3d7f450b	0.062321704
112	0x3de0b647	0.10972267
113	0xbdb11da2	-0.0864823
114	0x3d66856a	0.056279577
115	0x3d49a060	0.04922521
116	0xbbd6155d	-0.0065333084
117	0x3db13a90	0.08653748
118	0xbdbd2e66	-0.092373654
119	0xbdccc528	-0.09998542
120	0x3b2197c0	0.00246571
121	0x3ccbd385	0.024881134
122	0x3dc9d3cf	0.098548524
123	0xbd1bed37	-0.038068023
124	0xbddbcc7f	-0.10732364
125	0x3d8200ca	0.06347807
126	0xbd327948	-0.043572694
127	0xbdecf292	-0.11569704
128	0x3dca91e8	0.09891111
129	0x3dba5f12	0.091001645
130	0xb995c008	-0.0002856257
131	0x3dc3a365	0.095526494
132	0x3d71ca51	0.059030835
133	0x3dbb32eb	0.09140571
134	0xbd838a06	-0.0642281
135	0x3dd43452	0.10361542
136	0x3da5911f	0.0808432
137	0x3dd33085	0.10311989
138	0xbd9c799d	-0.076403834
139	0xbdc4351f	-0.095804445
140	0x3cde8c45	0.027166495
141	0x3d8b1b0f	0.067922704
142	0x3d983687	0.07432275
143	0x3d906266	0.07050018
144	0x3da4af4c	0.08041248
145	0xbcb471d3	-0.022026932
146	0xbd8dd18d	-0.06924734
147	0xbd5a3455	-0.053272564
148	0xbd2d2662	-0.042272933
149	0xbd43f47b	-0.047840577
150	0xbc819715	-0.015819112
151	0x3dd362ee	0.10321604
152	0x3d56401f	0.052307244
153	0xbce2f2a1	-0.027703585
154	0x3dc0db20	0.09416795
155	0xbdeb0d84	-0.11477187
156	0xbdee579c	-0.11637804
157	0xbcc4d408	-0.024026886
158	0xbdfa6df0	-0.12228
159	0x3d20ac8c	0.039227054
160	0x3d22fd2e	0.039792232
161	0x3baf353c	0.005346922
162	0x3cdadd37	0.026716812
163	0xbc411e5a	-0.0117870215
164	0x3de1aa02	0.110187545
165	0xbdcf1fee	-0.10113512
166	0xbb0f7546	-0.0021889969
167	0xbcb473d3	-0.022027886
168	0xbdf8ac86	-0.12142281
169	0xbd3fd892	-0.046837397
170	0xbd8bf325	-0.068334855
171	0xbdc6d36d	-0.09708295
172	0xbda0c52a	-0.07850106
173	0x3ddbb167	0.10727196
174	0xbdc90f25	-0.09817342
175	0x3d2c7e8b	0.04211287
176	0x3d7d6c6b	0.061870974
177	0xbda8d1b8	-0.08243126
178	0x3c84d47d	0.016214604
179	0xbd91e4d5	-0.07123724
180	0x3c2239e2	0.009901496
181	0x3d65b187	0.056077506
182	0xbb2505b4	-0.0025180401
183	0x3dc3d84f	0.09562742
184	0xbd942a3c	-0.07234618
185	0xbd1db402	-0.038501747
186	0x3e0151d2	0.12628868
187	0x3dad4beb	0.08461746
188	0x3d8c51b0	0.06851518
189	0xbd9f42df	-0.077764265
190	0xbd301970	-0.04299301
191	0xbdd302c7	-0.10303264
192	0x3de30b64	0.11086157
193	0x3cabb7b8	0.020961627
194	0x3d26be83	0.04070903
195	0x3c8054fb	0.015665522
196	0x3c2c09d4	0.01050039
197	0xbdd792e8	-0.10526067
198	0x3de757de	0.11296056
199	0xbd0aa4f5	-0.03384872
200	0xbdd83f35	-0.10558931
201	0xbd23e221	-0.040010575
202	0x3cc44339	0.023957836
203	0x3dbe04ac	0.09278235
204	0xbcd4d678	-0.025981173
205	0x3d1ef7a0	0.038810372
206	0x3c274ea0	0.010211617
207	0x3dafe4c6	0.08588557
208	0xbd4fb5ac	-0.050710365
209	0xbd019ed0	-0.031645596
210	0xbd9a8dee	-0.07546602
211	0x3d81c87a	0.06337066
212	0x3d63f227	0.055650856
213	0x3df68d20	0.12038636
214	0x3d800ae7	0.062520795
215	0xbdc965d8	-0.09833878
216	0x3dc9fb15	0.09862343
217	0x3cd6159c	0.026133351
218	0x3d9d0f82	0.076689735
219	0xbddbf47a	-0.107399896
220	0x3ceb7fad	0.028747404
221	0xbd904bbc	-0.07045695
222	0x3db87dd3	0.09008374
223	0xbdde0138	-0.10840076
224	0xbd96325b	-0.07333823
225	0xbd4d4c07	-0.050121333
226	0xbd5ad77b	-0.053428154
227	0xbd9db8aa	-0.077012375
228	0xbd9e0171	-0.07715119
229	0xbdbb18e0	-0.09135604
230	0x3d20ab4c	0.03922586
231	0xbd1b456c	-0.037908003
232	0x3d3d45c1	0.0462091
233	0xbd6676e3	-0.056265723
234	0x3dcc9d41	0.09990931
235	0x3d3782e3	0.044802558
236	0x3d48ec56	0.049053513
237	0xbd1681dd	-0.03674494
238	0x3cd87107	0.026421083
239	0x3d86373e	0.06553505
240	0xbb0a0668	-0.0021060947
241	0x3c83e093	0.016098296
242	0x3c9685d5	0.018374363
243	0xbd452be3	-0.048137557
244	0x3d4a0145	0.049317617
245	0x3db921c2	0.09039642
246	0x3d5ae1dc	0.053438053
247	0x3d89eb0f	0.06734287
248	0xbdf748c5	-0.120744266
249	0x3c96fca9	0.018431025
250	0x3be9229b	0.007114721
251	0x3d7b8642	0.061407335
252	0x3dbafd44	0.09130338
253	0xbddcd137	-0.10782092
254	0xbce7e626	-0.028307986
255	0x3dde42e5	0.10852603

action_head.bias f4 [5]
0	0xbc980474	-0.01855681
1	0x3c9f5536	0.019449811
2	0x3dc2d509	0.095132895
3	0xbdc6cb57	-0.09706753
4	0x3c8b4f24	0.01700551

value_head.weight f4 [1, 64]
0	0x3ab5b916	0.0013864364
1	0x3d72d034	0.05928059
2	0xbd950461	-0.07276226
3	0x3d08a58f	0.033361014
4	0x3d2ad512	0.041707106
5	0x3dbb5dbc	0.09148738
6	0xba5e8339	-0.00084881816
7	0xbcd2462e	-0.02566823
8	0x3cceff49	0.025268214
9	0x3d63e02e	0.055633716
10	0xbd5eff7d	-0.05444287
11	0x3d6a405a	0.057190277
12	0x3d0127d6	0.03153213
13	0xbdeae2a3	-0.11469009
14	0x3c235f10	0.009971395
15	0xbdb4ce2e	-0.08828388
16	0xbdad6418	-0.08466357
17	0xbc089357	-0.00833591
18	0xbd7c6c6a	-0.06162683
19	0xbd18e552	-0.037328072
20	0xbd077413	-0.03306968
21	0xbcf8b653	-0.030360376
22	0x3dcdffe8	0.10058576
23	0x3d86f87a	0.06590362
24	0xbd1f08a4	-0.0388266
25	0xbd5016dc	-0.05080305
26	0xbdc703f6	-0.09717552
27	0x3ccdf04f	0.025139002
28	0xbd7d1606	-0.06178858
29	0xbc6a3f4e	-0.01429732
30	0x3bf05a77	0.007335003
31	0xbd6d9146	-0.05799987
32	0x3d543c1f	0.05181515
33	0x3b2be8b9	0.0026231243
34	0xbd5f2eea	-0.0544881
35	0xbdad95f9	-0.08475871
36	0x3dc8230e	0.09772311
37	0xbd48ceda	-0.049025394
38	0x3df1133b	0.11771246
39	0xbc83b5ba	-0.016077865
40	0xbd76adec	-0.06022446
41	0x3c61f491	0.013791219
42	0xbcc5a413	-0.024126088
43	0xbc3fb03e	-0.011699734
44	0xbc650d5b	-0.013980235
45	0x3dae4d37	0.08510821
46	0x3d5340f6	0.051575623
47	0xbdade0d4	-0.08490148
48	0x3dea93d0	0.11453974
49	0x3b3f8681	0.0029224458
50	0x3dac9ea2	0.08428694
51	0x3d19362f	0.03740519
52	0x3d9a31df	0.075290434
53	0x3c8b31a2	0.01699144
54	0xbc88f65f	-0.016719041
55	0x3db401a9	0.08789379
56	0x3dbe5e6b	0.092953525
57	0x3def4fbd	0.11685131
58	0x3da994ba	0.082803205
59	0x3d65387b	0.055962067
60	0xbdf28ce0	-0.11843276
61	0xbd829a78	-0.06377119
62	0xbcf5932b	-0.029977402
63	0x3b7b6d2d	0.0038364634
