2022/20-华立民 指导老师-马里佳/code/tests/2-agents_domain-PredatorPrey-2_adversaryratio-0.0_RADAR_X_2022-11-30-22-57-39/adversary_model.pth (torch, 52943 bytes, 7 tensors)

fc_net.fc_net.0.weight f4 [64, 125]
0.08579747 0.08356056 -0.05283364 -0.0738185 -0.055259336 -0.02511996 -0.04721772 0.06890043
0.045511983 -0.017485023 -0.006894268 0.052282684 -0.033860967 -0.044323865 0.08693311 -0.081158675
0.033348747 0.00087048113 0.06933942 0.03233601 -0.07277193 0.03953751 0.019876488 0.08314272
0.043264247 -0.020178184 -0.005830519 -0.059337214 0.031108268 0.082241856 -0.024446703 0.05836714
-0.060726546 0.044550724 0.038739346 0.070584945 -0.009188272 0.018865727 -0.006056018 0.059129216
-0.07474027 0.063403495 -0.028489474 -0.0011131018 -0.08185719 0.04306952 0.07898139 -0.06317122
0.014706545 -0.03829848 -0.080869704 0.021288775 0.05268032 0.023083493 0.048775606 -0.05868363
0.0066275448 -0.04501636 0.031561367 -0.0781045 0.063942485 -0.025254019 0.042300694 0.06595165
-0.009159401 -0.06559087 0.017830737 0.010827668 0.019570947 0.052897595 -0.026942141 0.004841991
0.0088489875 0.06677546 0.074891396 0.0752796 -0.0042464584 0.041869633 -0.027385443 -0.07021256
-0.04730047 0.00044759363 -0.05408868 -0.022088386 -0.08383665 -0.08461799 0.08380862 0.0822941
0.08920454 -0.08170666 -0.06565885 -0.068860106 -0.01167801 0.044717364 0.024753496 0.039794885
-0.03279993 0.046789937 -0.0100382045 -0.0720997 0.017774187 -0.03671717 0.03525781 0.08131819
-0.01190979 0.032719515 0.04308348 0.035753466 0.030892171 -0.051180594 0.014527351 0.016302817
0.0105218515 -0.03186006 -0.001731053 -0.040166926 -0.05806069 0.048252203 0.049581014 -0.0563777
0.05352182 -0.07983717 0.0013224185 -0.04523838 0.08085092 -0.07145304 -0.05931282 -0.023133755
0.022092246 0.022961013 -0.047976315 0.06801518 -0.03195468 -0.026774384 -0.064450845 0.047364302
-0.02190873 -0.0683184 -0.015916035 -0.08076429 -0.012960441 -0.067466184 0.06135582 -0.07495235
-0.08251475 -0.08819551 0.0325647 -0.030126441 -0.06048471 -0.073668316 0.07923565 -0.07048285
0.010562062 -0.03999942 0.03869889 0.05965703 0.043860815 0.03559179 -0.06395057 0.03120038
0.025971718 -0.06971509 -0.052251663 -0.0022053719 0.086629145 0.011234961 -0.024302818 0.021755844
-0.022138424 0.025933482 0.03818754 -0.029812295 0.044650503 -0.008801512 -0.042550806 -0.051727947
0.066007294 0.044450782 0.08880722 0.018023 -0.046183817 -0.018127427 0.047736906 -0.060009778
-0.037033 0.035979636 0.0028056428 0.0060009286 0.078689806 -0.05225842 -0.015471317 -0.06258542
-0.07831419 0.06781577 -0.07458827 -0.030670349 0.08560226 0.0713466 -0.055919327 -0.016514517
0.08882847 -0.088967085 0.059075616 -0.012300372 0.06409461 0.024804108 -0.012736753 0.068282895
-0.010611258 0.025910288 -0.06113755 0.05448947 0.07523724 0.01795169 -0.045689784 -0.08254454
-0.044721544 -0.050595492 -0.061115798 0.031095996 0.020370267 -0.031410802 0.032526016 0.07638549
-0.022097595 -0.042826973 0.0487243 0.03320328 -0.05313565 0.020795986 0.032242924 -0.08796391
0.02864056 -0.03630831 0.026016682 0.03644239 0.031653166 0.02194222 -0.050259702 -0.010971442
-0.07117224 -0.007785119 0.003098324 0.06693082 -0.044169016 0.037829585 0.02841688 0.059017368
-0.003951542 -0.0099755 -0.052498166 0.020089686 -0.03517304 0.08513742 -0.044733398 0.07095549
00000000: 95b6 af3d cd21 ab3d 1668 58bd 272e 97bd
00000010: 9d57 62bd 60c8 cdbc 5e67 41bd ab1b 8d3d
00000020: c66a 3a3d c03c 8fbc 50e9 e1bb 5e26 563d
00000030: ccb1 0abd f18c 35bd fd09 b23d 8536 a6bd
00000040: b298 083d 0031 643a d301 8e3d c472 043d
00000050: 7309 95bd 16f2 213d 04d4 a23c bb46 aa3d
00000060: da35 313d b84c a5bc f00d bfbb 940b 73bd
00000070: c4d6 fe3c 6b6e a83d 7444 c8bc 6212 6f3d
00000080: 66bc 78bd d27a 363d 26ad 1e3d d78e 903d
00000090: 688a 16bc 4c8c 9a3c 9071 c6bb 7a31 723d
000000a0: 6d11 99bd b1d9 813d c262 e9bc 80e5 91ba
000000b0: bea4 a7bd aa69 303d ffc0 a13d ea5f 81bd
000000c0: b8f3 703c dede 1cbd 049f a5bd cc65 ae3c
000000d0: 52c7 573d 9819 bd3c eec8 473d 3f5e 70bd
000000e0: e02b d93b 1363 38bd 7e46 013d 41f5 9fbd
000000f0: 47f4 823d 84e1 cebc 7e43 2d3d a911 873d
00000100: 5011 16bc 8254 86bd c411 923c 8866 313c
00000110: 4053 a03c 26ab 583d c4b5 dcbc 90a9 9e3b
00000120: 58fb 103c 93c1 883d a960 993d 312c 9a3d
00000130: e025 8bbb 7e7f 2b3d 7057 e0bc 9acb 8fbd
00000140: 23be 41bd 00ab ea39 178c 5dbd b4f2 b4bc
00000150: 8db2 abbd 324c adbd dba3 ab3d cf89 a83d
00000160: dfb0 b63d d255 a7bd 2678 86bd 8706 8dbd
00000170: 2055 3fbc 8e29 373d d8c7 ca3c f6ff 223d
00000180: 3859 06bd cea6 3f3d 4877 24bc 02a9 93bd
00000190: 2c9b 913c be64 16bd 7e6a 103d 278a a63d
000001a0: 4821 43bc e604 063d 4e78 303d 3a72 123d
000001b0: 9411 fd3c bea2 51bd 2004 6e3c 7c8d 853c
000001c0: d863 2c3c b27f 02bd 80e4 e2ba 1386 24bd
000001d0: 0cd1 6dbd 1aa4 453d 7615 4b3d 4eec 66bd
000001e0: b239 5b3d ac81 a3bd 0055 ad3a e14b 39bd
000001f0: 2b95 a53d f955 92bd 00f2 72bd 0083 bdbc
00000200: ccfa b43c bc18 bc3c d082 44bd 8b4b 8b3d
00000210: e9e2 02bd f455 dbbc cefe 83bd 1201 423d
00000220: f079 b3bc 84ea 8bbd 5862 82bc c067 a5bd
00000230: 0858 54bc b62b 8abd 3e50 7b3d 9e80 99bd
00000240: 7efd a8bd d99f b4bd 9062 053d bacb f6bc
00000250: d1be 77bd 6adf 96bd 4d46 a23d 5059 90bd
00000260: 800c 2d3c 6fd6 23bd ba82 1e3d ee5a 743d
00000270: 66a7 333d b2c8 113d 84f8 82bd f097 ff3c
00000280: a4c2 d43c c9c6 8ebd d705 56bd 0088 10bb
00000290: 9f6a b13d d812 383c b416 c7bc 5039 b23c
000002a0: a45b b5bc 7472 d43c 8a6a 1c3d ea38 f4bc
000002b0: 72e3 363d 3834 10bc c149 2ebd afe0 53bd
000002c0: d52e 873d 0612 363d 8fe0 b53d f8a4 933c
000002d0: 3e2b 3dbd f87f 94bc c687 433d d0cc 75bd
000002e0: eaaf 17bd 625f 133d e0de 373b 70a3 c43b
000002f0: 1f28 a13d ed0c 56bd 687b 7dbc c92c 80bd
00000300: 3163 a0bd ffe2 8a3d bcc1 98bd 6240 fbbc
00000310: 3d50 af3d 2b1e 923d aa0b 65bd 7449 87bc
00000320: b3eb b53d 6034 b6bd 46f9 713d 8087 49bc
00000330: 0944 833d fc31 cb3c d0ad 50bc e7d7 8b3d
00000340: d8da 2dbc d041 d43c 5e6b 7abd 5a30 5f3d
00000350: fb15 9a3d 6c0f 933c 3625 3bbd 1d0d a9bd
00000360: f02d 37bd 383d 4fbd 8f54 7abd 08bd fe3c
00000370: 8cdf a63c 9da8 00bd 003a 053d ff6f 9c3d
00000380: 0406 b5bc 566b 2fbd 2293 473d 2a00 083d
00000390: c4a4 59bd 585c aa3c 2811 043d 6c26 b4bd
000003a0: 9c9f ea3c 06b8 14bd f020 d53c 9e44 153d
000003b0: c0a6 013d 2cc0 b33c 1edd 4dbd 90c1 33bc
000003c0: c0c2 91bd 501a ffbb 400d 4b3b 0713 893d
000003d0: 92ea 34bd 32f3 1a3d 84ca e83c 32bc 713d
000003e0: f07b 81bb 4870 23bc 5108 57bd 2093 a43c
000003f0: 9b11 10bd 875c ae3d 5e3a 37bd 1d51 913d

fc_net.fc_net.0.bias f4 [64]
-0.047551014 0.017652199 0.008372858 -0.06578078 -0.010587178 0.035384 0.011609077 0.0025649369
-0.027762521 -0.062049292 -0.07299293 -0.014355816 0.023195416 -0.014162421 0.06311039 0.017645553
0.03470043 -0.040295567 0.021565318 -0.03155435 0.0072103366 -0.024898745 0.024034552 -0.0775406
-0.04056969 0.054551564 0.06898246 -0.08587206 -0.032326553 0.04463937 -9.699911e-05 -0.03404742
-0.043098394 -0.071383476 0.029338107 -0.024313092 0.083043836 0.050699733 0.016289793 -0.08418235
0.022168554 -0.05385789 0.05744674 0.041709 0.07885634 0.05381515 -0.019805774 -0.060020223
-0.037548974 0.03688351 -0.023600273 -0.030348592 -0.06747372 -0.006196618 -0.03148198 -0.056155253
0.041333474 -0.044307094 0.011316694 -0.06904984 0.057202585 0.06690807 0.06630508 0.0031428635
00000000: dac4 42bd 589b 903c 502e 093c 13b8 86bd
00000010: d875 2dbc d0ee 103d 0034 3e3c 8018 283b
00000020: 3a6e e3bc 6627 7ebd 517d 95bd a834 6bbc
00000030: 5004 be3c 8009 68bc 0540 813d 688d 903c
00000040: 0a22 0e3d f70c 25bd c0a9 b03c 223f 01bd
00000050: b044 ec3b 74f8 cbbc 1ce4 c43c 9bcd 9ebd
00000060: 672c 26bd 7671 5f3d ad46 8d3d b1dd afbd
00000070: d968 04bd c6d7 363d 006c cbb8 4f75 0bbd
00000080: f187 30bd 8031 92bd 7856 f03c 402c c7bc
00000090: e312 aa3d 86aa 4f3d 2c72 853c cc67 acbd
000000a0: d49a b53c 179a 5cbd 464d 6b3d 0ed7 2a3d
000000b0: 6f7f a13d 466d 5c3d b83f a2bc c4d7 75bd
000000c0: f4cc 19bd 2a13 173d 5c55 c1bc 9c9d f8bc
000000d0: a92f 8abd 000d cbbb 40f3 00bd 0d03 66bd
000000e0: 4a4d 293d 5b7b 35bd a869 393c 016a 8dbd
000000f0: 424d 6a3d 1907 893d f5ca 873d 80f8 4d3b

fc_net.fc_net.2.weight f4 [64, 64]
0.07239622 -0.07225159 0.11976734 0.047770977 0.046753705 -0.029141456 -0.09839265 -0.024145082
0.12034528 0.054407835 -0.11586802 -0.07230385 -0.0855407 0.11526376 0.094197005 -0.11110912
-0.053320915 0.124058545 0.056690022 0.027118042 -0.11958486 -0.05575593 0.027455479 0.053638965
0.07063416 0.0043127835 -0.013918206 0.030129582 0.047170505 -0.10057546 0.12176685 -0.019244477
-0.014394432 -0.07662898 0.022017688 0.11091238 -0.12218717 -0.05325249 -0.085913 0.10230996
0.011348695 -0.06073469 -0.02525802 -0.051682413 0.00566186 -0.018226102 0.025565699 0.06737247
-0.064394906 0.0035366714 -0.032834098 0.07723805 -0.029879317 0.070010185 -0.007852182 -0.024803177
0.04674852 0.010836944 -0.026057512 0.05272214 0.1045797 -0.089538395 0.08364268 -0.107647896
0.103863806 0.032180533 -0.10337269 -0.018887326 -0.0920234 0.0014779121 -0.08543925 -0.09972668
0.09105146 0.10011484 0.1054669 -0.06629413 0.030174002 -0.06729977 -0.1176877 -0.0928773
0.05673994 0.05798711 -0.035938263 0.06410532 -0.07855299 0.07128967 0.11069842 -0.067294165
-0.08092418 0.010703132 0.12108736 0.11622441 0.024431467 0.05582191 0.10854924 -0.08422497
0.019865409 -0.03722021 0.023529112 -0.019529358 -0.03454292 -0.016840503 0.10723992 0.08280173
0.097688645 -0.03878559 -0.0031434447 0.09033659 -0.0052286834 0.10764246 0.0064236373 0.028215736
0.02225314 0.11584662 -0.0740045 -0.1248931 0.08676495 0.10194993 0.0858189 -0.027584463
0.03771442 -0.028300673 0.1181016 -0.0023333281 -0.10020611 -0.016236857 0.1232367 0.06998822
-0.0486262 -0.01734732 0.05044815 -0.095611915 0.09588364 0.0050337166 0.058181718 0.0128926635
0.105932266 -0.008540928 -0.08964099 -0.10637908 -0.013678998 0.07835682 0.11272971 0.07627739
-0.014026508 -0.045331016 0.00060905516 0.08833347 0.0937933 0.08557002 -0.05398494 -0.07270655
-0.026390478 0.11457755 0.03924352 -0.117167994 -0.12380293 -0.0076877326 0.11107537 -0.03261879
-0.03758429 -0.06079933 -0.12175824 -0.033506736 -0.052666828 0.0019792765 -0.096879765 -0.05961682
-0.0022488087 -0.096261665 0.12024288 0.032464355 -0.064175755 0.050346315 0.11263481 0.076572925
-0.06012322 -0.082779184 -0.0666704 -0.11757024 0.10332872 -0.058436945 0.05885881 -0.04983291
-0.074694216 0.083677664 -0.05895199 0.044883296 0.11998078 -0.10663891 -0.022687107 -0.08656734
-0.04504673 -0.060510367 0.03360021 -0.058369637 0.03683673 -0.038642496 0.022994623 -0.117161155
-0.022498995 -0.023317158 -0.10983765 -0.12261939 -0.113382116 -0.089659974 0.053430796 0.0061407983
-0.028538495 0.09054375 -0.020013422 -0.042754844 0.06303309 -0.07271995 -0.11715132 0.11899562
-0.09373614 -0.095014915 0.037454277 0.116586015 -0.09093544 0.06403041 0.04043071 -0.0127829015
-0.023158967 -0.051773578 -0.101720154 -0.10624744 0.03350027 -0.07961571 -0.09483814 0.077586845
0.035198003 -0.070134714 -0.08254729 0.02328968 -0.1047934 0.026170775 0.0101515055 0.033683687
0.07096392 0.113234505 -0.002272576 -0.10021114 0.041386783 -0.06900382 0.020614773 -0.08165093
-0.084958434 -0.02244778 -0.06240116 -0.091428965 -0.036397606 -0.043729246 0.09559636 -0.112008065
00000000: 7844 943d a4f8 93bd 9448 f53d 80ab 433d
00000010: d080 3f3d 10ba eebc 1682 c9bd e8cb c5bc
00000020: 9677 f63d c0da 5e3d 364c edbd 0a14 94bd
00000030: f62f afbd 680f ec3d 5cea c03d 2e8d e3bd
00000040: 0867 5abd 6812 fe3d cc33 683d a826 de3c
00000050: e8e8 f4bd 5460 64bd 50ea e03c 88b4 5b3d
00000060: a4a8 903d 4052 8d3b 3009 64bc 50d2 f63c
00000070: dc35 413d 82fa cdbd e660 f93d 98a6 9dbc
00000080: a0d6 6bbc a8ef 9cbd 705e b43c 0826 e33d
00000090: 443d fabd 481f 5abd 28f3 afbd e287 d13d
000000a0: e0ef 393c f0c4 78bd e8e9 cebc f0b0 53bd
000000b0: 2087 b93b e84e 95bc 286f d13c 94fa 893d
000000c0: 7ae1 83bd 80c7 673b 0c7d 06bd fc2e 9e3d
000000d0: 78c5 f4bc 8061 8f3d 70a6 00bc 0830 cbbc
000000e0: 607b 3f3d 708d 313c 9076 d5bc 2cf3 573d
000000f0: e22d d63d e85f b7bd da4c ab3d 8076 dcbd
00000100: 8cb6 d43d bccf 033d 10b5 d3bd 98b9 9abc
00000110: c476 bcbd 80b6 c13a c6fa aebd 803d ccbd
00000120: 3079 ba3d 0209 cd3d 08ff d73d 38c5 87bd
00000130: 782f f73c 76d4 89bd 4006 f1bd 7436 bebd
00000140: 2468 683d e483 6d3d 0034 13bd a649 833d
00000150: 64e0 a0bd 5200 923d dab5 e23d 86d1 89bd
00000160: 94bb a5bd 305c 2f3c a6fc f73d 1007 ee3d
00000170: 8024 c83c 84a5 643d 104f de3d 247e acbd
00000180: c8bc a23c 3874 18bd 20c0 c03c 08fc 9fbc
00000190: e07c 0dbd 18f5 89bc 9aa0 db3d f493 a93d
000001a0: fc10 c83d a4dd 1ebd 4002 4ebb 6402 b93d
000001b0: 6055 abbb a673 dc3d 607d d23b b024 e73c
000001c0: 384c b63c fe40 ed3d ac8f 97bd f4c7 ffbd
000001d0: d2b1 b13d 20cb d03d d2c1 af3d d0f8 e1bc
000001e0: 707a 1a3d d0d6 e7bc 40df f13d c0ea 18bb
000001f0: dc38 cdbd 2803 85bc 8663 fc3d fc55 8f3d
00000200: 442c 47bd f81b 8ebc b8a2 4e3d 2ed0 c3bd
00000210: a45e c43d e0f1 a43b f44f 6e3d c03b 533c
00000220: 04f3 d83d 40ef 0bbc b295 b7bd 46dd d9bd
00000230: e01d 60bc 8a79 a03d d6de e63d 5237 9c3d
00000240: 70cf 65bc 04ad 39bd 00a9 1f3a 2ee8 b43d
00000250: b416 c03d 563f af3d 501f 5dbd 2ce7 94bd
00000260: d830 d8bc a2a7 ea3d d0bd 203d c6f5 efbd
00000270: 648c fdbd 60e9 fbbb 7c7b e33d 489b 05bd
00000280: fcf1 19bd b808 79bd 625c f9bd 5c3e 09bd
00000290: 2cb9 57bd c0b6 013b e668 c6bd c430 74bd
000002a0: c060 13bb d624 c5bd e641 f63d 58f9 043d
000002b0: 946e 83bd f037 4e3d 14ad e63d 44d2 9c3d
000002c0: c443 76bd 2288 a9bd 7e8a 88bd aac8 f0bd
000002d0: 029e d33d 945b 6fbd f015 713d 981d 4cbd
000002e0: 48f9 98bd 325f ab3d a477 71bd 8cd7 373d
000002f0: 7cb8 f53d 8065 dabd 50da b9bc 384a b1bd
00000300: ec82 38bd b8d9 77bd 60a0 093d 0015 6fbd
00000310: 1ce2 163d 9847 1ebd 385f bc3c 30f2 efbd
00000320: d04f b8bc a003 bfbc 90f2 e0bd e01f fbbd
00000330: e234 e8bd a69f b7bd 40da 5a3d c038 c93b
00000340: 90c9 e9bc 006f b93d 30f3 a3bc b41f 2fbd
00000350: 7e17 813d 32ee 94bd 08ed efbd fab3 f33d
00000360: bcf8 bfbd 2e97 c2bd a869 193d a6c4 ee3d
00000370: 5c3c babd 6022 833d ac9a 253d 606f 51bc
00000380: e0b7 bdbc 8810 54bd a852 d0bd 4298 d9bd
00000390: 9437 093d 900d a3bd 803a c2bd dae5 9e3d
000003a0: c82b 103d caa2 8fbd 8e0e a9bd 00ca be3c
000003b0: ec9d d6bd 1864 d63c 8052 263c e8f7 093d
000003c0: 8855 913d 7ee7 e73d 80ef 14bb 803b cdbd
000003d0: 3085 293d e051 8dbd 50e0 a83c 9a38 a7bd
000003e0: b0fe adbd 68e4 b7bc 5c98 7fbd 1c3f bbbd
000003f0: a815 15bd 701d 33bd 06c8 c33d 7c64 e5bd

fc_net.fc_net.2.bias f4 [64]
0.100464225 0.007743627 0.0952999 -0.12180464 -0.10177903 0.072066024 -0.032122552 -0.016181082
0.026482701 -0.10122833 -0.11167821 0.03831996 -0.042144045 0.0131228715 -0.09626931 -0.11648126
-0.07783295 0.011382684 0.08931327 0.06782052 -0.08824062 0.017419368 -0.0002797842 -0.08799337
0.10045427 -0.11556326 0.06478876 -0.10810655 0.027314171 -0.061449334 -0.01352331 0.07192288
-0.044882298 -0.059303954 -0.012825966 0.03633827 -0.052388743 -0.12441267 -0.046229675 0.11834377
0.09846644 0.12222183 0.047903538 -0.059870824 0.06840335 0.095927075 0.10561998 -0.071217805
0.010405123 -0.10502513 -0.006427422 0.004170984 -0.023353696 0.11915922 0.08186838 -0.026055545
0.103573635 -0.10457593 -0.0065985173 -0.110661075 0.10904305 -0.016002491 0.012512043 -0.08637251
00000000: 30c0 cd3d 40be fd3b 982c c33d b674 f9bd
00000010: 8671 d0bd 5a97 933d f092 03bd 308e 84bc
00000020: 40f2 d83c cc50 cfbd 8cb7 e4bd 64f5 1c3d
00000030: 3c9f 2cbd 5001 573c d828 c5bd ba8d eebd
00000040: e266 9fbd 707e 3a3c e0e9 b63d 7ce5 8a3d
00000050: 80b7 b4bd 10b3 8e3c 00b0 92b9 de35 b4bd
00000060: f8ba cd3d 6eac ecbd f8af 843d f866 ddbd
00000070: f8c1 df3c 4cb2 7bbd e090 5dbc 4e4c 933d
00000080: 80d6 37bd b4e8 72bd 0024 52bc 70d7 143d
00000090: 9495 56bd 12cc febd 545b 3dbd 385e f23d
000000a0: c6a8 c93d 704f fa3d 8036 443d 1c3b 75bd
000000b0: 0e17 8c3d 6a75 c43d 4a4f d83d a4da 91bd
000000c0: 407a 2a3c 6a17 d7bd 209d d2bb c0ac 883b
000000d0: 4050 bfbc c009 f43d 9caa a73d 7072 d5bc
000000e0: 6a1e d43d e82b d6bd 6038 d8bb 46a2 e2bd
000000f0: f651 df3d a817 83bc 50ff 4c3c 12e4 b0bd

action_head.weight f4 [5, 64]
0.09314203 0.101214916 0.10238092 0.035677895 0.050944 -0.1198089 0.06657222 -0.037607595
-0.12478271 -0.02684629 -0.118527636 -0.09445314 0.019624844 -0.101610616 0.10059966 -0.03452824
-0.00828664 0.0032677352 -0.11007339 0.09283656 -0.063964024 -0.047975376 0.11965118 0.07220097
-0.023766577 -0.10240126 -0.08564763 -0.11411218 0.097838104 0.105649754 -0.0572017 -0.046293348
-0.076183334 0.121447116 0.118924245 0.019551232 -0.057600826 0.039917067 0.0601504 -0.03268957
-0.022771493 0.07517932 -0.08580068 -0.011340663 -0.067305386 0.044967845 -0.0027589202 -0.084175184
-0.11760934 -0.083546475 -0.02666831 -0.065790445 -0.06903826 -0.081256926 -0.009392679 0.11447239
0.037639856 0.0647669 0.09544109 -0.027280957 0.06640901 0.08499457 -0.11079194 -0.024220318
-0.048844695 -0.097615466 0.04268107 -0.11596885 -0.04104829 0.10257447 0.045123965 -0.061834827
0.07008332 0.09468643 -0.05119522 0.047370806 0.06620398 0.102008626 -0.045096308 -0.041177124
-0.055630207 0.03365247 0.076671645 -0.06749739 -0.079372674 0.09973721 -0.0066184103 0.02067566
-0.03939262 -0.075457886 0.08154294 0.0017569214 0.035941437 0.081333354 -0.083529964 -0.057767004
-0.030624583 0.006473586 -0.056309134 0.05877696 -0.106800005 0.06170945 -0.026487738 -0.1074771
-0.033263758 -0.011272743 -0.019759893 -0.05911699 0.026341856 0.10910921 -0.0783606 -0.020399556
-0.0195726 -0.08525176 -0.09179343 0.03764817 -0.07218315 -0.027463287 0.034796774 -0.102203205
-0.087147966 -0.12049359 -0.112738594 -0.07795474 -0.11503132 -0.1020596 0.0070027113 0.05940315
0.010270759 -0.07655561 0.103514254 0.015728354 -0.07089928 0.03310661 -0.11302395 -0.014816314
-0.041917548 -0.010679796 0.11982535 -0.06899908 0.063100845 0.08404644 0.09139368 -0.048945427
-0.076840386 -0.10247022 0.052974746 -0.020456344 0.013023391 -0.10693011 0.030382708 -0.08785686
0.11837058 -0.11205219 0.03944044 -0.073986754 -0.11526361 0.030471101 0.04641527 0.03940074
0.11281149 -0.11394459 0.07124615 -0.029594824 0.042110965 -0.03859617 0.094957486 -0.044254422
-0.08492172 -0.116428986 0.080015406 -0.034508288 -0.028047338 -0.064927176 -0.020265922 0.03755842
0.08503868 0.0005546659 -0.098670274 0.07625455 -0.045390025 -0.010134071 0.03972894 -0.009529725
0.07561009 -0.11766459 -0.046263084 -0.111971796 -0.08959967 -0.06061575 -0.09241414 -0.030635968
-0.03777875 -0.010957897 0.10027607 0.10973808 0.033768356 -0.11725028 0.08470987 0.089609295
0.037010804 0.08242567 -0.11966182 0.025329664 0.08762102 -0.10485168 -0.012363344 -0.029547855
-0.021392897 -0.06521529 -0.023321688 0.011761561 0.06519605 -0.051445886 0.08332169 0.064526126
-0.0019427687 -0.0114812255 -0.066312194 -0.10566902 0.10424696 -0.0035616308 -0.046059832 -0.048129663
-0.07571891 -0.10000421 0.025943458 -0.10763836 -0.0926283 -0.09277886 0.0039547533 -0.11614673
0.048984885 0.012943834 -0.10875665 0.07107267 0.014165208 0.07008511 -0.067466095 0.010056719
0.045548156 0.025821894 0.02074325 0.02598454 -0.015091762 0.065490514 -0.062071025 -0.08349663
-0.09623273 0.11141291 -0.069807544 -0.07007429 0.0116803795 0.06978682 0.047292992 -0.059654564
00000000: 40c1 be3d c449 cf3d 16ad d13d fc22 123d
00000010: a8aa 503d 5e5e f5bd 0457 883d 6c0a 1abd
00000020: 148e ffbd c0ec dbbc 9ebe f2bd a670 c1bd
00000030: 48c4 a03c 3a19 d0bd 3207 ce3d 7c6d 0dbd
00000040: b0c4 07bc 8027 563b 286e e1bd 1821 be3d
00000050: 92ff 82bd d481 44bd ae0b f53d 1ade 933d
00000060: 20b2 c2bc c0b7 d1bd 0668 afbd a6b3 e9bd
00000070: 585f c83d e65e d83d 544c 6abd 189e 3dbd
00000080: 0206 9cbd 44b9 f83d 8e8e f33d e829 a03c
00000090: d8ee 6bbd 1480 233d 4460 763d 80e5 05bd
000000a0: 488b babc 9ef7 993d 44b8 afbd 30ce 39bc
000000b0: 68d7 89bd 3430 383d 00cf 34bb 0a64 acbd
000000c0: 2add f0bd 6a1a abbd 8077 dabc 24bd 86bd
000000d0: ee63 8dbd 086a a6bd c0e3 19bc 8070 ea3d
000000e0: 402c 1a3d 82a4 843d 9e76 c33d 507c dfbc
000000f0: 7201 883d a211 ae3d e2e6 e2bd b069 c6bc
00000100: 6011 48bd 9eea c7bd 58d2 2e3d 1481 edbd
00000110: 4022 28bd 9012 d23d e8d3 383d 8446 7dbd
00000120: d887 8f3d f6ea c13d 14b2 51bd e407 423d
00000130: f495 873d e6e9 d03d e8b6 38bd 58a9 28bd
00000140: 80dc 63bd 2cd7 093d 0606 9d3d 123c 8abd
00000150: 248e a2bd 0643 cc3d 40df d8bb 0060 a93c
00000160: 285a 21bd aa89 9abd fcff a63d 8048 e63a
00000170: 5437 133d 1a92 a63d c211 abbd 189d 6cbd
00000180: 68e0 fabc 6020 d43b 68a4 66bd 1cc0 703d
00000190: f6b9 dabd 0cc3 7c3d d0fc d8bc f41c dcbd
000001a0: 943f 08bd 50b1 38bc 80df a1bc a824 72bd
000001b0: e0ca d73c a674 df3d 867b a0bd f81c a7bc
000001c0: b856 a0bc 7a98 aebd 32fe bbbd f834 1a3d
000001d0: c2d4 93bd b0fa e0bc 1087 0e3d ea4f d1bd
000001e0: a27a b2bd 58c5 f6bd 7ee3 e6bd bca6 9fbd
000001f0: 8a95 ebbd a004 d1bd 0077 e53b b850 733d
00000200: b046 283c 30c9 9cbd 48ff d33d c0d8 803c
00000210: a433 91bd cc9a 073d 1a79 e7bd 20c0 72bc
00000220: bcb1 2bbd 50fa 2ebc fe66 f53d 644f 8dbd
00000230: 043b 813d 8a20 ac3d 9c2c bb3d 007b 48bd
00000240: 7e5e 9dbd e8db d1bd 0cfc 583d 1094 a7bc
00000250: 1060 553c 2cfe dabd 28e5 f83c 4cee b3bd
00000260: 466c f23d 9e7b e5bd 4c8c 213d 5e86 97bd
00000270: 540f ecbd 889e f93c f01d 3e3d ac62 213d
00000280: b609 e73d c85b e9bd 80e9 913d d870 f2bc
00000290: 8c7c 2c3d 0417 1ebd 1279 c23d 2044 35bd
000002a0: 70eb adbd 5272 eebd 1edf a33d 9058 0dbd
000002b0: 88c3 e5bc 8af8 84bd b804 a6bc dcd6 193d
000002c0: c228 ae3d 0067 113a a413 cabd 582b 9c3d
000002d0: e4ea 39bd 6009 26bc d0ba 223d 9022 1cbc
000002e0: 76d9 9a3d 22fa f0bd 5c7e 3dbd 7851 e5bd
000002f0: 0880 b7bd 3848 78bd a043 bdbd 48f8 fabc
00000300: e4bd 1abd c088 33bc 8a5d cd3d 5cbe e03d
00000310: b050 0a3d ea20 f0bd 5e7c ad3d 1485 b73d
00000320: a498 173d cace a83d 4211 f5bd 2880 cf3c
00000330: a672 b33d 7abc d6bd a08f 4abc 580e f2bc
00000340: 2840 afbc 988f 85bd 200d bfbc 90b3 403c
00000350: 8285 853d ecb8 52bd 90a4 aa3d 4626 843d
00000360: 80a4 feba c01b 3cbc b0ce 87bd 0069 d8bd
00000370: 6e7f d53d 406a 69bb 3ca9 3cbd 9c23 45bd
00000380: 8412 9bbd 02cf ccbd 6087 d43c 8071 dcbd
00000390: e8b3 bdbd d802 bebd e096 813b 56de edbd
000003a0: 60a4 483d 6012 543c cebb debd 8c8e 913d
000003b0: 3015 683c c888 8f3d aa2b 8abd f0c4 243c
000003c0: b490 3a3d 7088 d33c c0ed a93c 88dd d43c
000003d0: 7043 77bc e41f 863d 303e 7ebd 4800 abbd
000003e0: aa15 c5bd 742c e43d 42f7 8ebd 1c83 8fbd
000003f0: 105f 3f3c 64ec 8e3d 4cb6 413d 5858 74bd

action_head.bias f4 [5]
0.06923619 -0.083834544 0.016650796 0.10139237 0.08573598
00000000: b4cb 8d3d 72b1 abbd 4067 883c cea6 cf3d
00000010: 5896 af3d

value_head.weight f4 [1, 64]
0.084518075 0.10431814 0.03043975 -0.098814815 -0.04629992 0.035452783 -0.09157662 -0.09479526
-0.010733679 -0.085905254 0.10771917 0.07633951 0.021530509 -0.06000662 0.06708659 -0.109809056
0.021677941 -0.07690999 0.014594525 0.07176435 -0.01897809 -0.0645825 -0.0687107 -0.032978624
-0.04725896 -0.062092975 0.096309885 0.07354997 -0.0708428 -0.12075935 0.0070596337 -0.10335821
-0.12432976 0.012385473 -0.04804407 0.036687836 -0.12463711 -0.049191386 0.00853093 -0.060722157
-0.061982706 0.03305477 -0.09625845 0.06916611 0.090429276 -0.0752272 -0.009014875 -0.041556448
0.07924138 -0.065147 -0.09927626 0.019893691 -0.04530616 0.05725448 -0.077808425 0.102984786
0.02143903 0.05988446 -0.008286089 0.037302688 -0.07028496 0.02857636 -0.04387127 -0.00019353628
00000000: d017 ad3d c0a4 d53d c85c f93c 6c5f cabd
00000010: fca4 3dbd f036 113d 868c bbbd 0424 c2bd
00000020: 50dc 2fbc 18ef afbd de9b dc3d e457 9c3d
00000030: c060 b03c 80c9 75bd b264 893d 92e3 e0bd
00000040: f095 b13c fc82 9dbd e01d 6f3c 30f9 923d
00000050: f077 9bbc d443 84bd 32b8 8cbd 9814 07bd
00000060: 9c92 41bd 3455 7ebd 1e3e c53d 5ea1 963d
00000070: 0816 91bd ae50 f7bd 8054 e73b 78ad d3bd
00000080: 9aa0 febd 70ec 4a3c dcc9 44bd fc45 163d
00000090: be41 ffbd e87c 49bd 50c5 0b3c ccb7 78bd
000000a0: 94e1 7dbd 7064 073d 2623 c5bd f6a6 8d3d
000000b0: fc32 b93d b810 9abd 20b3 13bc 1837 2abd
000000c0: 4e49 a23d ca6b 85bd 5a51 cbbd 18f8 a23c
000000d0: f492 39bd ac83 6a3d 065a 9fbd b0e9 d23d
000000e0: e8a0 af3c 6849 753d 60c2 07bc b4ca 183d
000000f0: 90f1 8fbd f818 ea3c 5cb2 33bd 00f0 4ab9
