2022/20-华立民 指导老师-马里佳/code/tests/2-agents_domain-PredatorPrey-2_adversaryratio-0.0_RADAR_X_2022-11-30-22-57-39/protagonist_model.pth (torch, 52943 bytes, 7 tensors)

fc_net.fc_net.0.weight f4 [64, 125]
00000000: 3801 ae3c 3e65 7cbd a4e4 85bd 6022 343c
00000010: 4ff2 a13d d6d6 93bd 82f4 7f3d 8094 733a
00000020: b000 1b3c 504b 5b3c 98bf 84bd 30cc b0bd
00000030: 7800 443c 420f 34bd 28ad 51bc b07c be3b
00000040: a473 83bc d59b 8d3d 002e 2c3a f64a 0b3d
00000050: 617b 923d 70f1 313c c7cf 913d 008b c3b9
00000060: a895 9f3c 9f3d eb3c f8f7 52bd 8100 a23d
00000070: 6af0 b4bd e147 8abd f06e 2abc f2d1 53bd
00000080: b8d2 01bc 352b 7c3c 7961 f63c 42bc 813d
00000090: e5e5 95bc 3140 913d 8322 6dba 7966 7f3d
000000a0: 2564 493d ab79 b63c e2c3 923d c7e9 ad3d
000000b0: c678 3abd be38 97bd a1d7 16bd 0713 9b3d
000000c0: dab1 523d 69d9 a7bd 5ce4 903d 2865 d83c
000000d0: 6ff1 4fbd 53b6 0f3c ed0e 30bd 5f6f d73b
000000e0: ae4c aabc f433 8a3c d921 a8bd 0bc5 b8bd
000000f0: 12b0 6a3d 5943 3bbd ad28 643d b2ab b1bc
00000100: f444 4abd 6141 62bc fb75 a4bd bcbc 09be
00000110: 7307 21bd e687 783c d1fc b83d 47bd f6bc
00000120: 6387 57bd d4e0 2a3d 0aca c6bd ce6d 8dbb
00000130: 006e d0bb 8ada 65bd 89db 04bd fe33 00bd
00000140: 79a3 92bd d0f3 573c df48 30bc b7fd a13d
00000150: fea4 b03d 5115 4ebd 9a80 153d f3f3 08bd
00000160: 6bf5 323d f802 dd3c 4e83 cb3a b297 90ba
00000170: a980 9f3d 7a2b 8c3d ced4 90bc a34e f43b
00000180: 575a d0bc f82c 91bd 0d8e 59bd 81f1 6cbd
00000190: a092 94bb 8ceb acbc e00f a9bb fc51 df3c
000001a0: f47a 93bd e0a9 ef3b f88a 053c 8a39 0b3d
000001b0: 1f46 883d ade8 a5bd a89b 393c d3f6 b3bd
000001c0: a81b 7ebc 1041 a8bc 019f 8b3d 54e8 71bd
000001d0: 2437 85bd 489e ea3c b6e8 283d 78b2 133c
000001e0: 032b b43d d084 4a3c a31a 1abd 40f4 80ba
000001f0: 0d22 b43d ae1a 283d 94db bfbc f06b cfbb
00000200: ea36 a8bd eeb7 533d d27a a2bd 0294 233d
00000210: 2863 e23c 4872 563c 928b 273d d929 8cbd
00000220: aac7 5e3d 383a f13c d83f b5bc 1237 a7bd
00000230: 9bdb 6bbd 405a a9bb 38ff 6a3c a4b4 a3bc
00000240: e436 b43c 88f5 423c 945c c7bc 180d 963c
00000250: b9bb 55bd 2c27 813c 147e 1d3d 87bf cf3c
00000260: abaf 85bc c7a4 273c 7d3a 733d 63a3 2b3d
00000270: 93d7 393c 343a 4dbc ad0d 38bd ae81 11bd
00000280: 2199 b5bc d116 103d cf51 393d e25a f83c
00000290: 6ab0 953d 194c 92bc aa4c 15bd 0db6 65bd
000002a0: ecbc 8cbd 8edc c6bc 696e 4a3d ee43 67bd
000002b0: 2217 7d3d 78db 443d 46de 79bb d964 4cbd
000002c0: f8da 593d 1dea 4abc 40ed 97bd d271 98bd
000002d0: 7ff0 5d3d 4648 8c3d 5fde 91bd 0b1d dabd
000002e0: 8ffb 89bc d1d9 c93d f9b6 91bc e35e ec3c
000002f0: 8184 90bd a890 a5bd d075 be3b 2a9e 20bd
00000300: 2961 9cbd c5b6 213c b486 88bd 45e3 3f3d
00000310: 643e 413c 2ea7 f13c 46d4 9d3d ca10 ce3c
00000320: cd51 bebc 09c2 79bc 7404 ab3c 2431 2fbd
00000330: d984 8abd 7883 bebd c23a 55bd f257 8cbd
00000340: a39e 3a3d 6e2f 8b3d 0354 e1bb 701b a1bd
00000350: a05a babb 64fa 173d 0f11 843d 241b 963c
00000360: 941a a23c 1cec ea3c 0f32 10bd a2aa a5bc
00000370: ec25 b9bd 34f7 013d fbd2 70bc 9c34 543c
00000380: 828e 14bd aaaa 25bd c17a 993d 7fba 843d
00000390: 832e b33d 102a 60bc 7241 333d 06a2 60bd
000003a0: ab67 23bd 180b 7abd 525a 73bd 020f 723d
000003b0: edec ab3d 623b 91bd 48b1 eb3c 88cf 3ebc
000003c0: ea57 7b3d 20ab ae3c f09d fd3b b3a7 b3bd
000003d0: 0943 85bd 957e 54bd 8fc7 b1bd baac 65bd
000003e0: 3016 46bc b890 96bc 98d5 32bd 6b99 963d
000003f0: 7fb6 923d 0a11 663d c0da 84ba 0083 ce3b
0.021240816 -0.06161999 -0.0653775 0.010994524 0.07907545 -0.07218711 0.06248904 0.00092918426
0.009460613 0.013384655 -0.06481856 -0.08632696 0.011963002 -0.043959863 -0.012797631 0.0058132038
-0.016046353 0.06914488 0.0006568134 0.034007035 0.07152439 0.010860786 0.071197085 -0.0003729686
0.019480541 0.028715907 -0.051506013 0.07910252 -0.08834918 -0.06751991 -0.010402426 -0.05171389
-0.007923774 0.015391161 0.030075775 0.063347355 -0.018298099 0.07092322 -0.0009045975 0.062353585
0.04916777 0.022274813 0.07166268 0.08491855 -0.045525335 -0.073838696 -0.036826733 0.075719886
0.051439144 -0.081957646 0.07074806 0.026415423 -0.05076736 0.008771497 -0.042982984 0.0065745558
-0.020788517 0.016870476 -0.08209581 -0.09021958 0.05729682 -0.045718525 0.055702854 -0.021688316
-0.049382165 -0.013809533 -0.080303155 -0.13450903 -0.039313745 0.015169119 0.09032596 -0.030119551
-0.05261935 0.04171832 -0.09706505 -0.0043160683 -0.0063607693 -0.05611662 -0.032435928 -0.031299584
-0.07160086 0.013180688 -0.010759561 0.079097204 0.0862522 -0.050313298 0.036499597 -0.033435773
0.04369108 0.026978955 0.0015526803 -0.0011031537 0.07788212 0.0684423 -0.017679598 0.0074556633
-0.025433702 -0.07088655 -0.053113986 -0.057847504 -0.0045340806 -0.021108411 -0.005159363 0.027260773
-0.07201186 0.007313952 0.0081508085 0.03399042 0.066539995 -0.0810102 0.011328615 -0.08787312
-0.015509523 -0.020538837 0.06817437 -0.059059456 -0.06504658 0.028639928 0.041237555 0.009014718
0.08797266 0.0123607665 -0.03762306 -0.0009838417 0.08795557 0.04104107 -0.023420133 -0.006330006
-0.08213599 0.05168908 -0.07933582 0.039936073 0.027635172 0.01308877 0.04090459 -0.06843919
0.054389633 0.029446706 -0.02212517 -0.08164801 -0.05758248 -0.0051682293 0.014343075 -0.019983597
0.02199883 0.0118993595 -0.024336137 0.01831679 -0.05218098 0.015765749 0.038450316 0.025359882
-0.016319117 0.010232157 0.05938195 0.041903865 0.011342901 -0.012526084 -0.044934917 -0.035524063
-0.022167744 0.03517801 0.045244034 0.030316774 0.07309039 -0.017858552 -0.036450066 -0.05608182
-0.068719715 -0.02427509 0.0494217 -0.056461267 0.06178964 0.048060864 -0.003812687 -0.049900863
0.05318734 -0.0123849185 -0.07418299 -0.074435845 0.054184433 0.068497226 -0.07122492 -0.10650071
-0.016843585 0.09855998 -0.017787443 0.02885384 -0.07056523 -0.080842316 0.005812384 -0.039213337
-0.07635719 0.009870236 -0.066663176 0.0468476 0.01179466 0.029498663 0.077065036 0.02515449
-0.023232365 -0.0152440155 0.020876147 -0.042771474 -0.0676362 -0.093024194 -0.05205799 -0.06852712
0.045561444 0.06796156 -0.00687647 -0.078665614 -0.005687073 0.037104025 0.06448566 0.018323489
0.019788064 0.028677039 -0.03520399 -0.020222966 -0.09040436 0.031729892 -0.014698739 0.012951996
-0.03626872 -0.04044596 0.074941166 0.06480884 0.08749106 -0.0136819035 0.043763585 -0.054842018
-0.039893787 -0.061045736 -0.059412308 0.059096344 0.083947994 -0.070914045 0.028771058 -0.011646159
0.06136314 0.021321833 0.007739775 -0.087722205 -0.065069266 -0.05187853 -0.08680641 -0.056072928
-0.012090251 -0.018379554 -0.04366073 0.07353481 0.071637146 0.056168593 -0.0010135993 0.0063022375

fc_net.fc_net.0.bias f4 [64]
00000000: c364 5c3d 4822 1e3a 11fd 383d 6ebc aebd
00000010: 5ea4 963d c5a4 443d 8256 33bc 42df 7bbd
00000020: c1d0 a23d 3b68 7bbd 833a f7bc 9d79 273d
00000030: 946e b4bc a4a3 373d 421b 3f3d 746b 323d
00000040: e053 7c3d a9c5 673d 9cea 3c3a 9cb7 a7b9
00000050: c7b6 3abd 6662 073d 4507 943c 8b5b a83c
00000060: 2e6a 3bbc 44f4 09bd 5598 80bd c5b5 833d
00000070: 37a8 413c a352 5abd 4979 623d 5182 113d
00000080: 8011 a23d 0026 1b3d f8d3 023d adf2 c13c
00000090: 3622 c4bc 73d7 a73d 41ea 723d 5ae3 af3c
000000a0: 7152 203d 9eeb 8e3d bd30 f63c 167c 2a3c
000000b0: 99fb b6bd 936d eabc f686 3f3d a163 203d
000000c0: a016 36bc 9732 60bc ce93 f7bb 2940 163d
000000d0: a10a a8bc 37f7 4d3a e081 82bc 579e 053c
000000e0: 1f6e b03d 2eb0 9f3d ec8d 3ebb fab6 b6bc
000000f0: 98da f2bc 043e 0f3c 599d ac3d 2c47 7d3d
0.05380703 0.000603233 0.045163218 -0.08532034 0.07355569 0.0480087 -0.010945918 -0.061492212
0.07949973 -0.0613787 -0.030179268 0.040887464 -0.022025384 0.044833794 0.046656854 0.043559507
0.061603427 0.056584988 0.00072065904 -0.00031989522 -0.045584466 0.033052824 0.018069873 0.020551464
-0.011438889 -0.033680215 -0.06279055 0.06431154 0.011819891 -0.053301465 0.055291448 0.03552467
0.07913494 0.037878036 0.03194043 0.023675287 -0.023942094 0.081953906 0.059305433 0.021470714
0.039141122 0.06978534 0.030052537 0.010405561 -0.08934707 -0.028616702 0.04675957 0.039157514
-0.011113793 -0.013683937 -0.0075554615 0.03668228 -0.02051288 0.0007856967 -0.01593107 0.008155427
0.08614754 0.077972755 -0.0029076291 -0.022304047 -0.02964525 0.008742813 0.08428449 0.061835453

fc_net.fc_net.2.weight f4 [64, 64]
00000000: f157 82bd e4ee 003e f83f d83d 6a76 313d
00000010: eaa7 d7bd ec7c bcbd bec7 9fbd 313f 2e3d
00000020: ee56 afbd f77f 673d 96db d83d d011 1fbe
00000030: 84cd 4abd 0d6b 893d 6182 4f3d 57a3 0f3d
00000040: 1971 59bd 774a e13d 00ec d23d 653e 11be
00000050: 6956 923b 65d5 8dbd b5aa e73d a3cd 95ba
00000060: 43fe 9ebd 2439 cbbd 8ece 613d 3460 40bb
00000070: c070 323d 079e 793c dc10 09be f89a 763d
00000080: 0636 673d 8260 f1bd d7db 863d df31 8f3d
00000090: e256 a83d 7fc7 debb d009 823d f70c adbd
000000a0: b2c4 543c 3d53 febc cd49 13be 1d7f 423d
000000b0: 448b b93d 7027 c33c 22ae f9bd 2450 13be
000000c0: 50c4 023e 0dea e5bd 4492 47bd 0dcf 693c
000000d0: 4d19 45bd 1804 8b3b 69f3 0bbd b7a2 c0bd
000000e0: c753 893d 6482 8cbd a597 923d b132 9e3d
000000f0: 2227 ff3c f638 bd3d ae54 7f3d 38f6 44bc
00000100: 4e55 a4bd 1ec8 7bbd d599 fabc 89aa 893d
00000110: 8971 87bd c4f5 b4bb 3997 a23d 6573 d8bd
00000120: 8872 9a3d 0cee 9bbd 7370 9cbc 2e07 d03d
00000130: 42e5 babd 0032 b7bd 699e 24bd 72b0 00be
00000140: e3a4 bf3c 2367 d9bc f76e 213d c144 c3bd
00000150: bdeb 993d a7ea aabd dc3c 413d cd08 b9bd
00000160: 5c4a a7bd eeec f23d 8688 5fbc 75a6 0cbc
00000170: e002 923d b0bf d0bd bb1d 923d 01a2 dfbd
00000180: 0737 133e 22fb d8bd e7e7 87bb 8f52 b5bd
00000190: 5589 8a3d 3938 92bd b506 8f3d 63e4 68bd
000001a0: 07df 7b3d 952d 293d db8f 91bd 5878 ed3c
000001b0: 916e 833d 9ede a9bd 889a 6abd 93d6 8b3d
000001c0: 3353 a73d 2190 023d fe58 0a3d 9e3d b3bd
000001d0: b769 903d 5c07 65bc 9f6b 35bd 4414 853d
000001e0: 878b bfbd 9054 beb9 2be9 bfbd 3c85 813c
000001f0: 6f08 853c a2f6 c5bc 0794 ebbc b18e 8a3d
00000200: e352 053e 1f3c d8bd 628b 0f3c 5495 383c
00000210: 6a4f c4bc 7f1f f1bd 8278 ccbd 0b4c ae3d
00000220: 70b1 c0bd 5d30 883d 076e 8f3d f57d 233d
00000230: 6e43 ac3c 2eec 913d 6695 95bd 1883 edbd
00000240: 494c 7cbd 523e 57bd 8128 2fbd d728 9c3d
00000250: f0d6 c63b 5082 02be 6df0 a63d f874 bdbd
00000260: 0892 32bd 05b5 2e3d 4298 98bd b48b d73d
00000270: 79d6 02be 630e 0bbd 1581 ccbd 68c3 a63d
00000280: 664d b43d ddd8 9d3d 008f 193d ce69 a7bc
00000290: d106 7cbd e95e 58bd c7ba ddbd 9a83 bc3c
000002a0: f146 1ebd 20a8 9abd 0498 153d a5c9 fd3d
000002b0: 1cc8 2d3d d18e d5bd 9387 0abd 8192 7fbd
000002c0: 4f28 d93d db2a 59bd 30c6 a7bd ace6 1abd
000002d0: 027e b33c f1e5 1f3d 2180 95bc a00d 9e3d
000002e0: 1b82 dd3c 003b efbd 23f4 b6bd fe24 ed3d
000002f0: c234 2f3d e345 b8bd c6ae fa3a e5b7 083e
00000300: c223 c83d 8fda 9fbd 9706 093e 09f6 bebd
00000310: ce3d aa3c 5d84 2f3e 6b61 42bc 64d6 5a3d
00000320: 09d0 893b 6190 03be b236 0bbd ee01 a6bc
00000330: c48a 83bb 200b f1bd d391 05bd 5cd8 fcbc
00000340: 8efd ab3d 325e 2f3d 5c45 f63d d86a 5dbd
00000350: 7927 6bbd 3ce9 8fbd 231e 8dbd 1dd7 d33d
00000360: f137 a0bb cf14 cbbc 8e77 cbbc 39a6 dc3b
00000370: 355d a13d b6ce b4bd e814 44bd a4b7 db3d
00000380: 75e7 623d b0f6 183b c359 543c 7d91 2ebd
00000390: 610d 12bd 0a5b e73b b15f 06ba ac3a eb3d
000003a0: 9cd1 003e 6e90 8dbd 3f38 a5bc ba81 b6bd
000003b0: bc28 833c c7bf 603c deba 913d 55ae 863c
000003c0: e6ed a63b 0540 25bc e8a9 96bd 1dfa 8c3c
000003d0: 326a 3cbd f126 f2bc a2f9 57bc 4581 0b3e
000003e0: 9a43 00bd e69e 123d bb9c a8bd 1ec5 523d
000003f0: 114b 03be 1eaf 27be 49ef f13d 491a 883c
-0.0636443 0.1259113 0.10559076 0.04332582 -0.10530074 -0.092035145 -0.0780177 0.042540733
-0.085615024 0.05651852 0.10588758 -0.15534139 -0.0495124 0.067098714 0.05066145 0.035067882
-0.053086374 0.11000531 0.1029892 -0.14183958 0.0044658673 -0.069254674 0.11311857 -0.0011429082
-0.0776334 -0.09923008 0.055128627 -0.0029354217 0.043564558 0.015235431 -0.13385338 0.060206383
0.056448005 -0.117859855 0.065849 0.06991934 0.082196966 -0.006798684 0.06349528 -0.084497385
0.012986349 -0.03104555 -0.14383622 0.047484506 0.09059766 0.023822516 -0.12191416 -0.1438604
0.127702 -0.11226282 -0.048723474 0.014270556 -0.04811983 0.0042424314 -0.03416768 -0.094060354
0.067054324 -0.068608075 0.0715783 0.07724512 0.03114659 0.0923938 0.062336616 -0.012021594
-0.08024083 -0.061470143 -0.030590931 0.0672198 -0.06613452 -0.0055224616 0.07939 -0.10568885
0.07541376 -0.07613763 -0.019096589 0.101576194 -0.09125759 -0.089450836 -0.040190134 -0.12567309
0.023394054 -0.026538437 0.039412465 -0.09534598 0.07515667 -0.08345538 0.04717718 -0.09034882
-0.0816848 0.11861597 -0.01364339 -0.008584608 0.071294546 -0.101928115 0.07134577 -0.10919572
0.1437646 -0.10594775 -0.004147518 -0.088536374 0.06764475 -0.0713963 0.06983701 -0.05685843
0.061491992 0.041303236 -0.071075164 0.028988048 0.06417573 -0.08294414 -0.05727628 0.06828036
0.08170166 0.031875733 0.033776276 -0.08751987 0.070514135 -0.013978805 -0.04429209 0.06498006
-0.093527846 -0.00036302628 -0.09370645 0.015810601 0.016239373 -0.024165455 -0.028757108 0.067654975
0.130199 -0.10558342 0.008761259 0.011266071 -0.023963649 -0.117735855 -0.099839225 0.08510598
-0.094088435 0.066498496 0.07003408 0.039915044 0.021028247 0.07125126 -0.07303886 -0.1159727
-0.06159619 -0.052549668 -0.042763237 0.07624977 0.006068103 -0.12745023 0.08151326 -0.09250826
-0.043596298 0.042653102 -0.07450916 0.10524693 -0.12777127 -0.033949267 -0.09985558 0.081427395
0.08803825 0.07707379 0.03748989 -0.020436194 -0.061529938 -0.05282489 -0.108266406 0.023011971
-0.038641874 -0.075515985 0.036521927 0.12391976 0.042427167 -0.10427631 -0.0338207 -0.062395576
0.106033914 -0.053019386 -0.08192098 -0.037817642 0.021910671 0.03903765 -0.018249573 0.077174425
0.027039578 -0.11681175 -0.08933284 0.11579321 0.042774923 -0.08997705 0.0019125573 0.133514
0.09772445 -0.078053586 0.1338142 -0.09324271 0.020781424 0.17140336 -0.011864047 0.053427115
0.004205708 -0.12848045 -0.03398771 -0.020264592 -0.004014345 -0.117697 -0.032609772 -0.030864887
0.08397971 0.04281444 0.12024948 -0.054056972 -0.05741069 -0.07026908 -0.06890514 0.10343764
-0.0048894812 -0.024790196 -0.024837282 0.0067336825 0.07879106 -0.088284895 -0.0478715 0.10728386
0.055396516 0.0023340397 0.012960854 -0.042619217 -0.03565729 0.0070604132 -0.00051259535 0.114858
0.1257996 -0.069123134 -0.020168422 -0.08911462 0.016010635 0.013717598 0.0711572 0.01644055
0.0050942777 -0.010086064 -0.07356626 0.017209107 -0.045999713 -0.029559584 -0.013182076 0.13623531
-0.03131447 0.03579607 -0.08233019 0.051457517 -0.12821604 -0.16375396 0.11813218 0.016614096

fc_net.fc_net.2.bias f4 [64]
00000000: 760f fabd ba08 9b3d f6df cfb9 2d5d 45bc
00000010: 0549 093d 9a74 af3d 77f5 87bd 59d1 1ebd
00000020: 197b 303d 5044 bd3d 7d87 b13d 62a8 9f3d
00000030: b5cf 043d e970 de3d 95fe 903d e854 303d
00000040: 54e0 27bd d7eb b03d f7a7 87bc a618 753d
00000050: f888 ca3d 5f12 9bbd 1d8f c63d 0b1f 683b
00000060: 53ed f83c 3cd4 63bd 5265 9ebd ced4 c3bd
00000070: 7dec f93c e55a f13d 13fa 383d a8c5 253d
00000080: e02b 313a 037b bc3d 25b9 bebd c503 873c
00000090: 3aaa f339 fe22 253d 953a bd3c 5a1c 063d
000000a0: ce5a 343d 1b39 82bc 479f 9d3c bddb c33d
000000b0: bc5d 963d 7d32 a3bd 7950 e43d 9af9 2dbd
000000c0: 3c93 acbd 4d61 b0bc 746a a7bd dd45 533c
000000d0: 4abe d03c a7ab 0bbd b118 7d3d 1d04 433d
000000e0: b04d 26bc 0e5b ca3c f333 813d 3b65 c2bd
000000f0: 6ac1 863d 2a0a 273d 186f 39bd d3ef 9abd
-0.1220998 0.07570024 -0.0003964898 -0.012046141 0.033516902 0.08567162 -0.066386156 -0.03877387
0.043086145 0.09241545 0.086684205 0.07795788 0.032424647 0.1086138 0.07079808 0.043049723
-0.04098542 0.08638733 -0.016559584 0.05983796 0.09889406 -0.075718634 0.096952654 0.0035418894
0.030386603 -0.055622324 -0.07734169 -0.09562074 0.030508274 0.11784915 0.045160364 0.040471703
0.0006758552 0.0920315 -0.09312657 0.01648129 0.000464754 0.040316574 0.023099223 0.032741882
0.04403191 -0.01589637 0.019240988 0.09563396 0.07342097 -0.07968614 0.111481614 -0.042474367
-0.0842652 -0.021530772 -0.08174601 0.012895075 0.025481362 -0.034099247 0.061791126 0.047611345
-0.010150358 0.024701621 0.06308737 -0.094919644 0.065798596 0.040781178 -0.045271963 -0.07565274

action_head.weight f4 [5, 64]
00000000: 1b80 e83d eb12 e53d 6f67 923d e608 d0bc
00000010: 2c33 b43d 36fa 693d 5bb7 283d 643c c13d
00000020: 01f6 a9bd 447d 54bd 0455 6ebc 3ced 943c
00000030: fcaf 6ebd 15a5 f03d f196 17bd 51d8 a5bd
00000040: 2fd8 633d e6fe 283a 42fd 44bd b374 1a3d
00000050: 0e4c 14bd 3fd2 ee3d b2fb 79bd 1515 c63d
00000060: 4aaa 05ba 274d 553d c9d4 9fbc 21f8 f8bd
00000070: 8a44 39bc 6c72 e4bc 4147 f73d e3f4 853d
00000080: c454 5b3d 1c79 c53d 57eb d43d 16f6 dc3d
00000090: 0413 75bd 6d93 613c 74b3 89bd e9c0 1bbc
000000a0: 7e03 88bd 6dde fdbd 576c a63c 15b5 0d3d
000000b0: f882 e73d 8f02 95bb 9f3f 6fbd 9ff8 f7bd
000000c0: 6bad babc fb5b fbbd f6b3 9abd 803c 093e
000000d0: e5e7 ba3d 51ab b9bd 974a 1f3e 28b0 ec3c
000000e0: 1449 953c 1cf9 123d ee97 c33d 9744 213d
000000f0: 040f abbd 375e 8dbd 6c27 b5bd cd33 c3bd
00000100: 5d77 60bd 1631 7ebd 3255 45bd 2dbf bb3d
00000110: 654b 1e3d 939f 443d 1ca5 b8bd ebb5 19be
00000120: 4757 ed3d 7eb9 1abd bb4f a8bd 0a6e 8dbc
00000130: 7c3f f73d 03cf 70bd 6501 9a3d e849 b8bd
00000140: 39c2 173e 150e ea3d 4427 f4bd fe9b 853c
00000150: 1240 23bd cbcf 983d f2c0 c93d 2ac7 953d
00000160: b3fc a13d 6310 d6bd 2120 5f3d 2bef 0c3e
00000170: 7195 04be 2c3c 60bd fd94 0bbe ea0d 373d
00000180: c21c a83d e7d0 65bd 7172 943d d47a 3d3c
00000190: beba 8abc dc5e 6cbd 2429 ba3d da09 42bb
000001a0: d10a 8fbc 4596 0f3e 4e62 033e fcbf e43c
000001b0: 6ff5 633c 8541 173e 0820 b9bd bb23 d43d
000001c0: bef4 a03d a153 ccbd 4e81 603d a991 36be
000001d0: c7af 2d3c c1cc 0f3e a1f8 01be a40f 1cbe
000001e0: f4bf e03d 86f5 e33d c074 2fbd 39c0 f43d
000001f0: b0bc 7dbd 614a 5a3d 2cce b53d bd72 86bc
00000200: f508 243e 8fb1 9fbd 1e71 ee3d f0cf f5bd
00000210: 524a b1bb f4cc dd3d e037 39bc d2d3 1f3e
00000220: 209a 1cbd 1c73 c9bc 2406 aabd fa54 35bd
00000230: 0f58 54bd 97cf f13d b5a9 99bd d4af 90bd
00000240: b1c6 b1bd 63d2 93bd 99a9 b0bd c139 503d
00000250: 9752 b6bd bb2e a5bd 4e98 b73b 1a21 b33d
00000260: 2971 21bc e55f 01bd 1932 023e 07ff 84bb
00000270: 4794 913d 7754 0ebe 28f1 163e 0cc1 1fbd
00000280: 78e6 803d 2307 8e3b 349f 443d 5f76 09be
00000290: 2160 aa3d e811 7dbd 8073 903b 8cc6 023e
000002a0: 86c8 c83d fb2f 0b3d 9226 15bd 827e 123e
000002b0: f9ac 15be 6e91 04be 0ab7 843d a250 01be
000002c0: 49ff 8f3d 1e9d f7b9 19fa a3bd ce57 d0bd
000002d0: 3097 523c 41c3 19bd 0cfb b9bd 7e79 b63d
000002e0: d9db 07be 06d5 413d 544d d53d a140 8a3d
000002f0: 6a11 bc3d ab25 ddbd b6b0 f4bd 17a6 023d
00000300: 3243 fbbd b9f7 ccbc 4286 c43d 4296 36bb
00000310: ba22 193d 546e 53b8 c3be e9bc af2c ecbd
00000320: 8f31 c13d 7aac b93b 6294 a4bd 1d0d a93d
00000330: 14b7 fcbb 5402 f63b 943b 943d ef9e 9b3c
00000340: a1a6 863d 7449 263d 8f4e fb3d a86c 0b3e
00000350: d1dc 85bd 2e91 023e 9c3b 173e 96ec c63d
00000360: 69c2 023e 2427 b3bd 74c8 8ebd 745c 7fbd
00000370: d1cc f9bc 8308 353d 55f0 c03d 3a4b 84bd
00000380: 9d0a 9f3d e624 b23d af67 823d 58be 51bd
00000390: 8c0f e43d 7f5a 2d3e 97fa f93d bdd2 c93d
000003a0: f7a9 983d 032f 01be f54c 093e 024b ea3d
000003b0: 8d97 09be 8510 7fbc f27d ca3d 04c0 f3bd
000003c0: be9c bebc c07c 0ebe 4a41 b13d 4e5f 803d
000003d0: b162 c5bb a34b 66bd c3f5 623b 2a69 d73c
000003e0: 3606 3a3d 3192 cebd 6f81 f8bc 575a 76bd
000003f0: 4855 bebd 649c 59bd 3644 a2bc 5eab 6b3d
0.11352559 0.11185249 0.07148635 -0.025394868 0.08798823 0.057123385 0.041190486 0.09435347
-0.08298875 -0.051877275 -0.0145466365 0.018179528 -0.0582733 0.11750237 -0.037009183 -0.080979
0.05562609 0.0006446674 -0.048093088 0.03770895 -0.036205344 0.11661195 -0.06103105 0.0967199
-0.00050989224 0.05207553 -0.019510644 -0.12156702 -0.011307845 -0.027886592 0.120741375 0.06540849
0.053547636 0.096422404 0.1039645 0.10789125 -0.059832588 0.013768059 -0.06723681 -0.009506443
-0.06641291 -0.1239594 0.020315332 0.03459652 0.11304277 -0.004547424 -0.058410283 -0.121079676
-0.02278777 -0.12273403 -0.07553856 0.13401985 0.091262616 -0.09065879 0.15555798 0.028892592
0.018223323 0.0358821 0.09550463 0.039372053 -0.083524734 -0.06902736 -0.0884541 -0.095313646
-0.054801334 -0.06205853 -0.04817695 0.09167323 0.03864612 0.048003744 -0.09015867 -0.15010802
0.115889125 -0.037774555 -0.082183324 -0.017264385 0.120726556 -0.05879117 0.07519797 -0.089984715
0.14820184 0.11428467 -0.11921552 0.016309734 -0.039856024 0.07461508 0.098512545 0.07313378
0.07909527 -0.10452344 0.054474 0.1376311 -0.12947632 -0.054744884 -0.13631053 0.044691004
0.0820861 -0.056107428 0.072483905 0.011564929 -0.016934749 -0.057707652 0.09089878 -0.0029607923
-0.017461212 0.14022167 0.12830469 0.027923577 0.013913496 0.14771087 -0.090393126 0.103583775
0.07859181 -0.099768884 0.054810815 -0.17829002 0.010600991 0.14042951 -0.126925 -0.15240341
0.10974112 0.11130814 -0.04283595 0.11950726 -0.061947525 0.05329359 0.08877215 -0.016412133
0.16019042 -0.077975385 0.11642669 -0.120025516 -0.005410471 0.10830107 -0.011304826 0.15608147
-0.038232923 -0.024591021 -0.083019525 -0.044270493 -0.05184179 0.11807173 -0.07503072 -0.070647866
-0.086804755 -0.072178625 -0.08626098 0.05083633 -0.089024715 -0.08065554 0.005602873 0.08746548
-0.00985364 -0.031585593 0.12714423 -0.004058722 0.0710836 -0.13899408 0.14740431 -0.039002463
0.062939584 0.004334347 0.04800339 -0.13424061 0.083191164 -0.061784655 0.0044083 0.12771052
0.09803872 0.033981305 -0.036413737 0.14306071 -0.14616765 -0.12946102 0.064802244 -0.12628415
0.07031114 -0.00047228573 -0.08006687 -0.101729974 0.012853429 -0.037539724 -0.090810865 0.089098915
-0.13267459 0.047322296 0.1041514 0.06750608 0.09183009 -0.107982 -0.119477674 0.031896677
-0.12268676 -0.025020467 0.0959592 -0.0027860557 0.037386633 -5.040907e-05 -0.028533345 -0.1153196
0.09433281 0.0056663128 -0.08036114 0.08254454 -0.0077122543 0.0075076018 0.07237926 0.018996684
0.06574751 0.040597394 0.12270843 0.13615668 -0.06536258 0.12750694 0.14768833 0.09713094
0.12769474 -0.087477 -0.06971827 -0.06234403 -0.030493172 0.04419757 0.0942084 -0.06459661
0.07765696 0.08698444 0.06367432 -0.051206917 0.11135778 0.16929053 0.12205999 0.09854648
0.07454293 -0.1261559 0.13408263 0.11440088 -0.13436718 -0.015567903 0.098873034 -0.119018584
-0.0232681 -0.13914776 0.08655031 0.06268178 -0.006023728 -0.056224477 0.0034631349 0.026295263
0.04541608 -0.100864775 -0.030335156 -0.06014475 -0.0929361 -0.05312766 -0.019807916 0.057536475

action_head.bias f4 [5]
00000000: c40d dbbd f23b 0a3d 68c9 ed3c 27c6 e7bc
00000010: 357a 3dbd
-0.10695985 0.033748575 0.029026702 -0.028292729 -0.046259124

value_head.weight f4 [1, 64]
00000000: 9a13 48bd fabe 883c caf2 a6bd 2d29 7f3c
00000010: 8d12 e13d 6ef4 a53d c43d fdbc edd0 87bd
00000020: b010 46bd 8f65 403c c298 c5bc 7912 8bbd
00000030: afd9 df3c a9fa 97bd e73b 793c d42c 8e3b
00000040: 09cc 623c 9077 793d d021 7a3c c279 5e3d
00000050: e06c e83d da7f ac3d 6b6a a33d 84a8 523b
00000060: 1afa b03d ad6d b93d dd87 20bd 370d 003d
00000070: 88c4 69bd 6668 d9bd 3b77 9dbc 6307 583d
00000080: d9f6 5dbd eed7 b63d 7156 003d f391 03be
00000090: 7bf3 48bd 0a31 bbbc faf8 cbbc 66b8 5ebd
000000a0: be85 07bc 5ea5 e03d a3c4 96bc 7305 8b3d
000000b0: 70ec ad3d 7058 ff3b bee7 c23d a2a3 d6bc
000000c0: d119 943d 036f 56bd 8ce4 c3bd bf71 253d
000000d0: 4259 fb3d 6235 953d 3a9f 013e 11a0 81bd
000000e0: 7bf4 01be 1db1 9e3c 5a96 e6bc 23d9 89bd
000000f0: a6ee dfbd 7805 cfbd 9a5b b43d 96de a1bd
-0.04884682 0.016692627 -0.08151777 0.015573782 0.109898664 0.08103262 -0.030913241 -0.06631646
-0.04835576 0.011742963 -0.024120692 -0.06790633 0.02732548 -0.074208565 0.015212036 0.00433884
0.013842591 0.06090504 0.015266851 0.054315336 0.11348891 0.08422823 0.07979282 0.00321439
0.08641453 0.09054122 -0.03919207 0.031262603 -0.057072192 -0.106156155 -0.019221893 0.05274142
-0.05419049 0.08927904 0.031332437 -0.12848644 -0.049060326 -0.022850532 -0.024898995 -0.054375075
-0.008271633 0.10969041 -0.01840431 0.06788149 0.084923625 0.007792525 0.095168576 -0.026201073
0.072314866 -0.052351963 -0.09565076 0.04039168 0.12272884 0.072855726 0.12658396 -0.06329358
-0.12690918 0.019371564 -0.028147865 -0.06730869 -0.109341905 -0.10108465 0.08806534 -0.07903783
