2022/20-华立民 指导老师-马里佳/code/output/2-agents_domain-PredatorPrey-2_adversaryratio-0.75_RADAR_X_2022-11-16-08-47-36/adversary_model.pth (torch, 52943 bytes, 7 tensors)

fc_net.fc_net.0.weight f4 [64, 125]
-0.06385587 0.08291126 -0.042809304 0.05070714 0.06963516 -0.015714183 -0.08843318 -0.015207797
0.07250845 0.06512616 -0.08498343 0.051757924 0.023291012 -0.034566306 -0.022045448 0.06641214
-0.08362332 0.0783596 0.024135448 0.030960932 0.038227804 -0.08364922 -0.07964923 -0.07194547
-0.006122075 -0.010763611 0.08764478 -0.07166381 0.014001184 0.0596884 -0.0473679 -0.030202687
0.08006783 -0.0025067045 0.042925548 0.034645308 0.02881123 -0.08193586 0.04714652 -0.07002483
0.095033735 -0.0101933405 0.036263943 0.06498973 0.05369251 -0.057031788 -0.02463067 0.034437336
0.088094205 -0.042219307 0.08802216 0.011632565 0.010876905 0.061405502 0.053947836 -0.03683995
-0.048805725 0.014386862 -0.071384214 0.035888445 0.08908209 0.013394363 0.05458959 -0.05268436
-0.06931857 -0.07020231 -0.0014750052 0.052084014 0.015795851 -0.046081644 -0.04821032 -0.039217647
-0.037313275 0.04778099 -0.06067613 0.06135191 0.048440937 0.08870893 -0.0037779894 0.073484376
0.030769954 -0.04638752 -0.054668494 0.032670833 0.0037079062 -0.0153644895 0.055826843 -0.047728393
0.031145249 0.00723262 -0.060171798 0.0753618 -0.0554434 0.016107561 0.0085120015 0.08721246
-0.026963381 0.04731892 -0.042967334 0.08985461 -0.0046490133 -0.023877226 -0.038500436 -0.06182873
0.057251103 -0.0074497685 -0.034793865 -0.086606264 -0.06610222 -0.046273563 0.084161915 0.08937531
-0.018489078 -0.005445875 -0.058154326 0.03876587 -0.016518004 0.063600145 -0.023049086 0.005240135
0.06422017 -0.009206273 -0.037850443 0.08362528 0.026124626 -0.051919293 0.07752282 -0.06952333
-0.015320264 0.015835382 0.050498478 -0.064155966 0.056992523 -0.04742361 0.034718983 0.0706233
-0.07145402 -0.028109653 -0.0517406 0.08045659 0.0014892295 -0.06160647 0.0025264248 0.020068519
0.08406418 -0.021539472 -0.025938474 -0.009076372 -0.00016200542 -0.0438946 0.073074594 0.03168313
-0.009296338 0.02915956 0.06747372 -0.028554572 -0.06141393 0.047928315 -0.075753786 -0.03313358
0.0460055 0.0424095 0.06905843 -0.058498856 0.047042374 -0.015438214 0.0761364 -0.029600011
-0.05096712 0.014190103 -0.022847706 -0.0062337574 0.06257211 -0.03592087 -0.07720275 -0.014640253
0.05404969 -0.036330234 0.077769995 0.010252371 -0.08818609 -0.04157081 0.024037184 -0.03234083
0.031566728 0.01905652 -0.01539856 -0.005165943 0.08501566 -0.03152832 0.051410954 0.043584395
0.018733839 0.03949148 0.059450842 0.0738829 -0.03264379 -0.061931305 -0.03643525 0.088067025
-0.046302583 0.012037829 -0.04360691 0.014614612 0.08147585 0.017354539 0.019687736 -0.0847883
0.012409532 -0.024999566 0.030342566 -0.021374727 -0.0633959 -0.090507664 -0.08978613 0.066336766
0.01185589 0.059541114 0.010686792 -0.053501736 -0.042995334 0.06727587 0.05842919 -0.08599533
0.007310347 -0.06623808 0.08186223 -0.07488243 -0.05942491 0.031553812 0.04719562 0.042377494
-0.024689533 0.047836713 0.03105463 0.08159163 -0.08026041 0.076586924 -0.023881398 -0.011186741
0.059056096 0.012849763 -0.052850027 0.055755757 -0.08286906 -0.031770837 -0.07402979 -0.030181766
-0.0027540475 -0.033208236 -0.06528814 0.043788932 -0.059534296 0.008525252 -0.05881947 -0.06926215
00000000: dec6 82bd 61cd a93d cf58 2fbd 4ab2 4f3d
00000010: e19c 8e3d 08bb 80bc 741c b5bd 202a 79bc
00000020: 4f7f 943d dd60 853d cb0b aebd 1e00 543d
00000030: cbcc be3c 6695 0dbd a898 b4bc 1703 883d
00000040: b442 abbd ff7a a03d b4b7 c53c c8a1 fd3c
00000050: c294 1c3d 4850 abbd 231f a3bd 2658 93bd
00000060: b09b c8bb db59 30bc 1b7f b33d 7ac4 92bd
00000070: 3965 653c d37b 743d d804 42bd a06b f7bc
00000080: 9afa a33d 8647 24bb b3d2 2f3d 3de8 0d3d
00000090: 8705 ec3c fdcd a7bd b61c 413d 2e69 8fbd
000000a0: 0ca1 c23d f801 27bc 8089 143d 5619 853d
000000b0: adec 5b3d 2a9a 69bd 42c6 c9bc 2a0e 0d3d
000000c0: bc6a b43d 27ee 2cbd f644 b43d 8496 3e3c
000000d0: 0c35 323c 5684 7b3d 68f8 5c3d 7de5 16bd
000000e0: 83e8 47bd dfb6 6b3c e331 92bd c3ff 123d
000000f0: ac70 b63d 0874 5b3c 5599 5f3d 8ecb 57bd
00000100: e5f6 8dbd 3bc6 8fbd f654 c1ba 0c56 553d
00000110: 4d66 813c 1bc0 3cbd 2f78 45bd afa2 20bd
00000120: ced5 18bd 00b6 433d 8987 78bd 244c 7b3d
00000130: 016a 463d 07ad b53d 2598 77bb fa7e 963d
00000140: 4511 fc3c d700 3ebd 12ec 5fbd dad1 053d
00000150: 5800 733b 57bb 7bbc b0aa 643d d97e 43bd
00000160: 5224 ff3c 9dff ec3b b476 76bd 4a57 9a3d
00000170: 9e18 63bd 01f4 833c ec75 0b3c 729c b23d
00000180: 4fe2 dcbc 7cd1 413d 84fe 2fbd b205 b83d
00000190: c056 98bb 2c9a c3bc a2b2 1dbd 1f40 7dbd
000001a0: 2280 6a3d 301d f4bb 0384 0ebd a05e b1bd
000001b0: 9a60 87bd 5989 3dbd 155d ac3d 670a b73d
000001c0: 6876 97bc 5073 b2bb 3b33 6ebd f6c8 1e3d
000001d0: c450 87bc cb40 823d 70d1 bcbc 70b5 ab3b
000001e0: dd85 833d e8d5 16bc 1109 1bbd bb43 ab3d
000001f0: 5003 d63c 53a9 54bd 49c4 9e3d 3f62 8ebd
00000200: d801 7bbc 34b9 813c 7ed7 4e3d 3464 83bd
00000210: fe70 693d 423f 42bd 7e35 0e3d f3a2 903d
00000220: 7c56 92bd 3746 e6bc f4ed 53bd 6dc6 a43d
00000230: 4032 c33a 1157 7cbd 6092 253b bc66 a43c
00000240: d729 ac3d 8c73 b0bc ec7c d4bc 10b5 14bc
00000250: 00e0 29b9 d3ca 33bd 22a8 953d 2bc6 013d
00000260: ab4f 18bc 08e0 ee3c a92f 8a3d 47eb e9bc
00000270: 2c8d 7bbd 7b50 443d cd24 9bbd 14b7 07bd
00000280: 4370 3c3d 95b5 2d3d 826e 8d3d 7f9c 6fbd
00000290: 81af 403d 90f0 7cbc 67ed 9b3d b97b f2bc
000002a0: e6c2 50bd 9b7d 683c 1d2b bbbc 8c44 ccbb
000002b0: ce25 803d c321 13bd 7a1c 9ebd acdd 6fbc
000002c0: 3563 5d3d 03cf 14bd e045 9f3d 90f9 273c
000002d0: e99a b4bd 2746 2abd a1e9 c43c d177 04bd
000002e0: 1d4c 013d 6b1c 9c3c 3e4a 7cbc 1247 a9bb
000002f0: b11c ae3d d723 01bd 4b94 523d 8d85 323d
00000300: b577 993c d1c1 213d ba82 733d eb4f 973d
00000310: 7fb5 05bd aeab 7dbd 213d 15bd 7c5c b43d
00000320: c7a7 3dbd 503a 453c 299d 32bd 2072 6f3c
00000330: cfdc a63d 1b2b 8e3c 2d48 a13c 7da5 adbd
00000340: 5a51 4b3c e4cb ccbc f990 f83c 0d1a afbc
00000350: b6d5 81bd 155c b9bd cae1 b7bd 92db 873d
00000360: 353f 423c 62e1 733d a817 2f3c a324 5bbd
00000370: e01b 30bd eec7 893d 7253 6f3d 521e b0bd
00000380: a38b ef3b d5a7 87bd 63a7 a73d f65b 99bd
00000390: 8967 73bd 923e 013d 3250 413d 0694 2d3d
000003a0: b441 cabc 6ef0 433d 4866 fe3c 8319 a73d
000003b0: 925f a4bd 9bd9 9c3d eca2 c3bc 9848 37bc
000003c0: cee4 713d d087 523c 4579 58bd 2660 643d
000003d0: 41b7 a9bd 2322 02bd ee9c 97bd c03f f7bc
000003e0: 407d 34bb 5c05 08bd cab5 85bd 065c 333d
000003f0: 3cda 73bd 80ad 0b3c afec 70bd 50d9 8dbd

fc_net.fc_net.0.bias f4 [64]
0.051709197 -0.024151405 -0.050450783 0.083875164 -0.056461938 0.034902636 0.005410272 0.013326631
-0.017277882 -0.057417687 0.06510402 -0.006884146 0.005558373 0.02972135 0.06346631 0.060749397
-0.05573854 -0.0026592335 -0.04937884 -0.08757665 0.05145312 0.07746808 0.005206458 -0.08326479
-0.018395837 -0.02814523 0.06386911 -0.010290717 -0.00035903242 0.03876042 -0.08396415 -0.073450126
-0.034390032 0.05107209 -0.08325452 -0.086770765 0.02133651 0.0040746867 0.046383608 -0.05377274
0.013788168 0.04195576 -0.043712877 0.040896345 -0.017422374 0.080657564 0.05622054 -0.05733232
-0.092653304 -0.048821542 -0.03661435 -0.032817114 0.003505312 -0.021440797 -0.08474111 0.017008191
0.016777279 -0.017274678 0.06897349 0.04128306 0.05916494 -0.011173386 0.046063468 0.022789447
00000000: 06cd 533d 2bd9 c5bc 7ba5 4ebd bec6 ab3d
00000010: a244 67bd 11f6 0e3d a748 b13b f157 5a3c
00000020: 588a 8dbc cf2e 6bbd 4255 853d 6794 e1bb
00000030: 0323 b63b 307a f33c a0fa 813d 5cd4 783d
00000040: 184e 64bd 8946 2ebb 7741 4abd 635b b3bd
00000050: 82c0 523d 96a7 9e3d ef9a aa3b bb86 aabd
00000060: deb2 96bc d390 e6bc cfcd 823d 659a 28bc
00000070: 843c bcb9 3fc3 1e3d 65f5 abbd 056d 96bd
00000080: 90dc 0cbd f830 513d 5981 aabd dfb4 b1bd
00000090: e8c9 ae3c f384 853b bdfc 3d3d ce40 5cbd
000000a0: c5e7 613c ced9 2b3d 460c 33bd ed82 273d
000000b0: 5eb9 8ebc cb2f a53d 8247 663d 4bd5 6abd
000000c0: 04c1 bdbd 19f9 47bd eef8 15bd 3d6b 06bd
000000d0: 60b9 653b 9ca4 afbc bf8c adbd c354 8b3c
000000e0: 8170 893c a083 8dbc f941 8d3d 6d18 293d
000000f0: f056 723d 9410 37bc 0cad 3c3d efb0 ba3c

fc_net.fc_net.2.weight f4 [64, 64]
-0.07196178 -0.047061544 0.11625315 -0.029145895 -0.11780181 0.02796921 0.015920475 -0.09813942
0.078926876 0.095197104 0.12011171 0.018527446 -0.04886273 -0.09579567 -0.0659486 0.11342357
0.02226158 0.120470986 0.08780095 0.068024874 -0.056903716 -0.032289002 -0.06657358 0.095067695
-0.09501757 0.041284237 0.104451954 -0.079888925 0.09309874 0.114272475 0.036448043 0.12296357
0.12661107 -0.08237552 0.088497534 -0.12457518 -0.1095437 -0.0013188893 -0.015304499 0.059236612
0.016071545 0.11431876 -0.10387438 0.08576641 0.056586657 -0.08077391 -0.07749584 -0.011943432
0.082825646 -0.030989718 -0.106371656 0.066396095 -0.048784174 0.11198691 -0.098249435 -0.12603083
-0.016495919 0.0693542 -0.025490563 -0.045679796 -0.108593486 0.012204862 -0.08784896 0.07768123
0.0034824791 -0.05708256 -0.0398897 0.1219396 -0.028465562 -0.04051491 0.01621088 -0.1135484
0.032719016 0.11152297 0.098276824 0.033756852 0.03255996 0.070837475 0.034447495 0.039698973
0.066516414 -0.08414926 0.12216468 -0.028840015 -0.013733191 -0.047151692 -0.077453904 -0.1162521
0.05305683 -0.08775208 0.050876174 -0.12574768 0.009728128 -0.04779053 0.07982619 0.11427824
0.07838088 -0.063508414 0.10591337 0.012948688 0.060905248 -0.070100635 0.12293913 -0.0032936104
0.072536595 -0.046877917 0.023921894 0.063121036 -0.06407005 -0.072871715 0.052835952 -0.005217021
-0.09676027 -0.06801648 0.021404669 0.07535775 0.091328576 0.09769527 -0.044189166 -0.06410874
0.061429486 0.11081049 0.033741448 0.031557955 -0.049170528 0.03710917 0.0764057 0.122292005
0.08594509 0.10471731 -0.005778811 0.096996754 -0.0942545 -0.12212423 0.110278174 0.09691233
0.117591225 -0.08355097 -0.025266506 -0.07486359 0.094534375 0.040574208 0.09134978 -0.028409282
0.09448423 0.06376794 -0.036129657 0.05960209 -0.0625274 0.008186827 0.11646919 0.01730985
-0.10956237 0.088190146 -0.018487057 0.0021092729 0.12707034 0.04995276 -0.03632241 -0.10654935
-0.068847924 -0.029781561 -0.013891641 0.042850263 -0.09573614 0.030690867 -0.042038836 -0.08665945
0.012449008 -0.051994525 -0.050718468 -0.051687766 -0.107879005 -0.068190515 -0.067817554 -0.075465865
0.10975307 0.007070323 -0.062378608 -0.047475167 -0.10061743 -0.015049429 0.070060536 0.035348836
0.12541108 -0.0014855246 0.06551694 -0.093583606 -0.108011566 0.0068586916 0.0039225994 0.049303807
0.051479377 -0.07817514 0.051238183 -0.075523354 0.07332761 -0.008950568 0.087060325 0.031317126
-0.026934624 -0.039404355 0.0016304426 -0.07129602 -0.09156604 -0.08624701 -0.08086413 -0.09141382
0.05316037 0.07041562 -0.0128280055 -0.051807072 -0.014080946 -0.08874229 0.09087788 0.048319098
-0.11244444 -0.10013055 -0.10893089 -0.02875827 -0.06780185 -0.0881481 -0.08898883 -0.0015846998
-0.05081103 0.056404375 0.022039704 0.027597899 0.010011391 -0.11862949 0.0020232897 0.08311607
-0.033841517 -0.012152386 0.08207867 -0.0038979359 -0.11544469 -0.11992885 -0.04654852 -0.028854856
0.09017163 -0.030978886 0.025059856 0.00067217625 0.01099133 0.010676928 0.10715861 -0.021388717
-0.010696477 -0.06536005 0.0253165 0.013816036 -0.010634265 -0.042148378 0.00024422142 0.03354278
00000000: b360 93bd 9bc3 40bd 2216 ee3d 5fc3 eebc
00000010: 1342 f1bd af1f e53c a86b 823c 52fd c8bd
00000020: 6aa4 a13d b3f6 c23d 21fd f53d dfc6 973c
00000030: 4924 48bd 8530 c4bd 0f10 87bd 9e4a e83d
00000040: eb5d b63c 7eb9 f63d fcd0 b33d a050 8b3d
00000050: df13 69bd 7941 04bd bb57 88bd dab2 c23d
00000060: 9298 c2bd a919 293d e8ea d53d ce9c a3bd
00000070: 8daa be3d b007 ea3d 8b4a 153d 53d4 fb3d
00000080: 55a6 013e 7fb4 a8bd 323e b53d 4621 ffbd
00000090: 7358 e0bd 95de acba b9bf 7abc 17a2 723d
000000a0: 79a8 833c f41f ea3d 17bc d4bd 4da6 af3d
000000b0: 69c7 673d cb6c a5bd 24b6 9ebd 62ae 43bc
000000c0: 7ea0 a93d 26de fdbc 62d9 d9bd adfa 873d
000000d0: ead1 47bd 6559 e53d 0037 c9bd 3a0e 01be
000000e0: 7322 87bc 9309 8e3d 96d1 d0bc bd1a 3bbd
000000f0: 4366 debd e7f6 473c 28ea b3bd 5617 9f3d
00000100: 4e3a 643b 67cf 69bd 6263 23bd 78bb f93d
00000110: 9c30 e9bc f6f2 25bd aecc 843c 108c e8bd
00000120: 6004 063d 2866 e43d 5c45 c93d a044 0a3d
00000130: 985d 053d 3d13 913d d118 0d3d 649b 223d
00000140: c239 883d 7256 acbd 7a31 fa3d e541 ecbc
00000150: 2e01 61bc 2222 41bd 27a0 9ebd 9515 eebd
00000160: 1e52 593d 5db7 b3bd 8963 503d 00c4 00be
00000170: ba62 1f3c 01c0 43bd ea7b a33d b60a ea3d
00000180: 2886 a03d b310 82bd 1ce9 d83d bc26 543c
00000190: c877 793d ec90 8fbd 83c7 fb3d 9dd9 57bb
000001a0: 118e 943d 0f03 40bd d9f7 c33c 9a45 813d
000001b0: 2937 83bd c43d 95bd 836a 583d 8bf3 aabb
000001c0: 402a c6bd 394c 8bbd d858 af3c 2a55 9a3d
000001d0: 7a0a bb3d 7514 c83d b3ff 34bd 714b 83bd
000001e0: 7c9d 7b3d 9cf0 e23d 7934 0a3d ea42 013d
000001f0: 0967 49bd c9ff 173d 977a 9c3d 3b74 fa3d
00000200: fb03 b03d 0776 d63d 2e5c bdbb 3ca6 c63d
00000210: 8108 c1bd 451c fabd 86d9 e13d f979 c63d
00000220: abd3 f03d c51c abbd b4fb cebc 1552 99bd
00000230: 3d9b c13d 2431 263d 9815 bb3d 95ba e8bc
00000240: f380 c13d c498 823d b1fc 13bd 5221 743d
00000250: 5e0e 80bd 0b22 063c 6687 ee3d 63cd 8d3c
00000260: 3c62 e0bd 099d b43d 2b72 97bc ba3b 0a3b
00000270: ba1e 023e 449b 4c3d cfc6 14bd 8c36 dabd
00000280: 2400 8dbd 76f8 f3bc c499 63bc c283 2f3d
00000290: 4f11 c4bd 6a6b fb3c ea30 2cbd 827a b1bd
000002a0: edf6 4b3c 36f8 54bd 2bbe 4fbd 8db6 53bd
000002b0: abef dcbd 78a7 8bbd eee3 8abd d98d 9abd
000002c0: 38c6 e03d 2bae e73b b680 7fbd 5275 42bd
000002d0: 8310 cebd e191 76bc e67b 8f3d f1c9 103d
000002e0: c36b 003e efb5 c2ba bf2d 863d c3a8 bfbd
000002f0: 2b35 ddbd e0be e03b 2689 803b caf2 493d
00000300: 0adc 523d 4a1a a0bd 21df 513d fdab 9abd
00000310: c92c 963d 67a5 12bc af4c b23d 6346 003d
00000320: 00a6 dcbc 7666 21bd 93b4 d53a a603 92bd
00000330: fa86 bbbd 46a2 b0bd 189c a5bd 2b37 bbbd
00000340: b0be 593d 1136 903d 8e2c 52bc a733 54bd
00000350: c5b3 66bc 85be b5bd 2f1e ba3d 3fea 453d
00000360: 4549 e6bd 3f11 cdbd 2917 dfbd 7796 ebbc
00000370: b2db 8abd fe86 b4bd c73f b6bd b4b5 cfba
00000380: 3a1f 50bd 4608 673d 9c8c b43c fd14 e23c
00000390: d106 243c 05f4 f2bd 2b99 043b c238 aa3d
000003a0: 679d 0abd cd1a 47bc dd18 a83d 8374 7fbb
000003b0: 446e ecbd 429d f5bd a9a9 3ebd 0561 ecbc
000003c0: e7ab b83d 6fc7 fdbc 544a cd3c fc34 303a
000003d0: fb14 343c 48ee 2e3c f975 db3d 6437 afbc
000003e0: 4740 2fbc 7ddb 85bd 8c64 cf3c a85c 623c
000003f0: 573b 2ebc c7a3 2cbd d80a 8039 2764 093d

fc_net.fc_net.2.bias f4 [64]
-0.1146363 0.107197985 0.11991705 -0.014522987 -0.042803723 0.07042487 -0.0826508 -0.09477833
0.031263202 0.11668923 -0.011212726 0.039902505 0.09733399 -0.09285542 -0.063881524 0.06265582
-0.03512099 -0.051392227 0.073470496 0.042625185 -0.047928963 0.092119046 0.0068613393 0.1031502
-0.029686531 -0.12698323 -0.07527094 0.11692454 0.015529765 0.06814726 -0.09526188 0.05573814
-0.015225422 0.07551745 0.06486505 -0.10359205 0.041554444 -0.08519303 -0.009682481 -0.05794639
0.061877176 -0.04802015 -0.012079085 0.070291094 0.03704243 0.09024473 -0.06928876 0.10601413
0.0695105 0.030029342 -0.089002855 0.052337237 0.057410847 -0.07883013 -0.070669115 -0.040405698
0.03142927 -0.087217934 0.037406236 -0.02154818 0.058148727 0.060176797 0.039930243 0.023236247
00000000: 70c6 eabd 9e8a db3d 1297 f53d d3f1 6dbc
00000010: f552 2fbd ea3a 903d d344 a9bd 241b c2bd
00000020: d80d 003d c3fa ee3d 95b5 37bc cf70 233d
00000030: 0b57 c73d fc2a bebd 51d4 82bd b251 803d
00000040: 07db 0fbd a880 52bd b377 963d bf97 2e3d
00000050: 2951 44bd e9a8 bc3d 16d5 e03b 6940 d33d
00000060: 2b31 f3bc e407 02be a727 9abd 2276 ef3d
00000070: 8e70 7e3c ca90 8b3d a918 c3bd ad4d 643d
00000080: 0c74 79bc e5a8 9a3d f8d7 843d 1228 d4bd
00000090: fe34 2a3d af79 aebd 45a3 1ebc 3259 6dbd
000000a0: ec72 7d3d c7b0 44bd 5be7 45bc c7f4 8f3d
000000b0: ceb9 173d 3bd2 b83d 44e7 8dbd f01d d93d
000000c0: 855b 8e3d 1800 f63c 2147 b6bd 925f 563d
000000d0: a327 6b3d b171 a1bd f8ba 90bd 7280 25bd
000000e0: fabb 003d 519f b2bd 4837 193d cf85 b0bc
000000f0: 5c2d 6e3d f27b 763d e58d 233d f159 be3c

action_head.weight f4 [5, 64]
0.08149706 -0.11694365 0.06937566 -0.11184934 0.031103497 0.0007416499 0.084770955 -0.034098394
-0.07007377 -0.1191771 -0.089304484 0.09394427 0.048076577 -0.07253891 0.113276936 -0.025613628
-0.074477926 -0.050019965 0.12190395 0.08038599 0.06368979 -0.003320074 0.03207778 0.035122074
-0.09562542 -0.014439477 -0.058475345 0.098293215 0.109222114 0.005977786 0.06851344 0.0026536572
-0.10791181 -0.021039527 0.066814005 0.059261102 -0.07403065 -0.084616266 -0.045233294 0.06547454
-0.013423302 -0.09558899 -0.06527631 -0.07470134 -0.12038052 0.091492 -0.08315531 -0.040818546
0.11064137 0.05253975 -0.105524115 0.011438068 0.12014999 0.00607076 -0.05727651 0.06693855
0.116683945 -0.09760092 -0.11454126 -0.07931527 -0.108547464 -0.0040559866 -0.124009 -0.025792202
0.011039243 0.009074362 0.07003966 0.040646214 -0.00026393277 0.060927827 -0.056247786 -0.071182445
0.09176824 -0.0046994416 0.085494265 -0.10575324 0.009528483 -0.08130009 -0.084168635 -0.010377155
-0.00088850653 -0.07628971 0.099299245 -0.041476145 0.09117247 -0.100080065 -0.037989657 -0.123420164
-0.09737494 -0.0751664 -0.116364405 -0.01486948 0.037707094 -0.03315739 0.033900574 0.01902289
-0.12541099 0.02824379 0.030077867 -0.12500188 0.04200506 0.103793904 -0.05497124 0.030934883
-0.09927316 -0.0326235 0.0069038672 0.07718368 0.12332654 -0.044655036 0.099628456 0.04710621
0.038049277 0.047128633 0.067211874 -0.031635124 0.07725343 0.09174597 -0.09550431 0.02818754
0.10229476 -0.047028054 -0.036889054 -0.1034563 0.0057609933 0.043048225 0.08390593 0.092170544
0.04245059 -0.0036741341 0.057196107 0.047126316 0.0116712935 -0.009998232 -0.08685069 -0.090945356
0.01775205 -0.018163 0.01894098 -0.085092664 0.11402755 0.022815756 -0.043281645 -0.089327686
-0.10110955 0.03829964 0.081637934 0.04907934 -0.10235949 -0.087936565 -0.061204933 -0.009052036
-0.11528863 -0.08240303 -0.08746591 0.061574295 -0.044443417 0.041645106 0.009561274 0.11684516
-0.07252726 0.061128356 -0.025444876 -0.12146186 -0.01657864 0.0723767 -0.026234258 -0.08122521
-0.04396746 0.09735244 0.06346538 0.07369809 -0.10553376 -0.08927847 0.042618714 -0.09665436
0.014377766 -0.12066088 -0.0024353059 0.06115269 -0.050940715 0.012152466 -0.0007519123 0.077973194
0.08518535 0.12714128 -0.08352418 -0.0919773 -0.026982019 0.10469546 -0.10788221 -0.0865723
-0.054796014 -0.0020168857 0.11979867 -0.08406432 0.012985527 -0.09424653 0.118255205 -0.10214785
0.1282453 -0.08222886 -0.07436827 0.04629647 -0.0940433 -0.028076986 -0.083575614 0.050370645
0.027700016 -0.015853431 0.11660973 0.040198345 0.09165158 0.10258601 -0.035210688 0.0008943587
0.055282503 -0.022205528 -0.0025365197 0.042841792 -0.050718866 -0.0152846575 -0.07863831 -0.12220109
-0.01741889 -0.11853726 -0.037535552 0.007253945 -0.09859582 -0.02052624 -0.12900716 0.11586692
0.11308573 0.07651178 0.020128608 -0.018588634 -0.066438004 0.02127926 -0.06400929 0.026236545
0.088283144 -0.049387075 -0.047258217 0.11107844 -0.030047318 0.03264712 0.034235142 0.093645856
0.093637995 -0.036418013 0.11671959 0.12653081 -0.051090628 -0.075943924 -0.03533166 -0.103583954
00000000: eee7 a63d 2780 efbd d314 8e3d 4411 e5bd
00000010: c3cc fe3c 486b 423a 659c ad3d c2aa 0bbd
00000020: d682 8fbd 2013 f4bd 45e5 b6bd da65 c03d
00000030: f2eb 443d 488f 94bd bdfd e73d acd3 d1bc
00000040: e287 98bd bce1 4cbd c7a8 f93d 69a1 a43d
00000050: cb6f 823d 9995 59bb fe63 033d 2adc 0f3d
00000060: 43d7 c3bd 8e93 6cbc d883 6fbd f44d c93d
00000070: d8af df3d 4ee1 c33b c650 8c3d fbe8 2d3b
00000080: de00 ddbd 165b acbc c8d5 883d c5bb 723d
00000090: 629d 97bd 4b4b adbd 8c46 39bd 8417 863d
000000a0: 69ed 5bbc 29c4 c3bd 96af 85bd 04fd 98bd
000000b0: 108a f6bd 2860 bb3d 554d aabd 5931 27bd
000000c0: f197 e23d ec33 573d 071d d8bd bc66 3b3c
000000d0: 3311 f63d 3aed c63b c69a 6abd 1417 893d
000000e0: fef7 ee3d fee2 c7bd 9c94 eabd 0b70 a2bd
000000f0: 224e debd 15e8 84bb 6ef8 fdbd 2b4a d3bc
00000100: f1dd 343c a2ac 143c f470 8f3d a57c 263d
00000110: 7560 8ab9 758f 793d 1464 66bd 1ac8 91bd
00000120: fdf0 bb3d c6fd 99bb 9e17 af3d 2895 d8bd
00000130: 5b1d 1c3c a980 a6bd 9b60 acbd f104 2abc
00000140: aaea 68ba c83d 9cbd 675d cb3d e4e2 29bd
00000150: a2b8 ba3d c7f6 ccbd 0b9b 1bbd b6c3 fcbd
00000160: 836c c7bd d7f0 99bd 7650 eebd 1f9f 73bc
00000170: c172 1a3d 0bd0 07bd 54db 0a3d e4d5 9b3c
00000180: bd6b 00be 855f e73c dc65 f63c 7e00 00be
00000190: 7f0d 2c3d e691 d43d 8629 61bd 276b fd3c
000001a0: ba4f cbbd 38a0 05bd d639 e23b 7a12 9e3d
000001b0: a092 fc3d 33e8 36bd 010a cc3d 71f2 403d
000001c0: 8fd9 1b3d f409 413d 61a6 893d d593 01bd
000001d0: 0c37 9e3d 50e5 bb3d c497 c3bd 8ee9 e63c
000001e0: ea7f d13d 7da0 40bd fa18 17bd e6e0 d3bd
000001f0: b7c6 bc3b 5653 303d dfd6 ab3d e9c3 bc3d
00000200: abe0 2d3d bec9 70bb 7746 6a3d 8607 413d
00000210: f438 3f3c a0cf 23bc c6de b1bd 8f41 babd
00000220: bf6c 913c 92ca 94bc 1d2a 9b3c 1045 aebd
00000230: 4787 e93d 1ce8 ba3c 1848 31bd 6ff1 b6bd
00000240: 8612 cfbd 15e0 1c3d ca31 a73d 6b07 493d
00000250: daa1 d1bd 1618 b4bd 06b2 7abd fe4e 14bc
00000260: 721c ecbd ebc2 a8bd 5421 b3bd 5435 7c3d
00000270: 4d0a 36bd 0f94 2a3d e4a6 1c3c 844c ef3d
00000280: 2c89 94bd ba61 7a3d c671 d0bc ffc0 f8bd
00000290: eecf 87bc 3c3a 943d 3ae9 d6bc 6759 a6bd
000002a0: 3917 34bd b760 c73d 23fa 813d 06ef 963d
000002b0: 1522 d8bd a1d7 b6bd f690 2e3d b9f2 c5bd
000002c0: b990 6b3c 0d1d f7bd a799 1fbb 3e7b 7a3d
000002d0: 36a7 50bd 231b 473c fb1b 45ba 69b0 9f3d
000002e0: a875 ae3d 5331 023e ba0e abbd 985e bcbd
000002f0: 6509 ddbc 936a d63d 59f1 dcbd d14c b1bd
00000300: c971 60bd ba2d 04bb 0159 f53d ea29 acbd
00000310: 3fc1 543c 5304 c1bd c92f f23d e432 d1bd
00000320: bc52 033e 9b67 a8bd 644e 98bd 5ea1 3d3d
00000330: c699 c0bd b501 e6bc b129 abbd 7351 4e3d
00000340: 25eb e23c 0edf 81bc 15d1 ee3d 05a7 243d
00000350: d3b3 bb3d 9d18 d23d 1539 10bd 6573 6a3a
00000360: e86f 623d 5ee8 b5bc bd3b 26bb e07a 2f3d
00000370: 96be 4fbd 806c 7abc 1f0d a1bd 9144 fabd
00000380: 0fb2 8ebc aac3 f2bd e1be 19bd 80b2 ed3b
00000390: 9bec c9bd a526 a8bc 741a 04be a34b ed3d
000003a0: 7e99 e73d 35b2 9c3d c0e4 a43c 3147 98bc
000003b0: a610 88bd d851 ae3c 4d17 83bd 06ee d63c
000003c0: cbcd b43d 1a4a 4abd d591 41bd 187d e33d
000003d0: cb25 f6bc fdb8 053d 263a 0c3d 66c9 bf3d
000003e0: 47c5 bf3d 0e2b 15bd ae0a ef3d 4b91 013e
000003f0: 6844 51bd 7d88 9bbd eeb7 10bd d323 d4bd

action_head.bias f4 [5]
-0.062450252 -0.02244293 -0.092732415 -0.03811026 0.022670155
00000000: d6cb 7fbd 3cda b7bc 7eea bdbd 8119 1cbd
00000010: c3b6 b93c

value_head.weight f4 [1, 64]
0.0009583093 0.078261815 0.067037515 -0.040210694 0.027645167 -0.017813424 -0.12134206 -0.1021706
-0.058203075 0.041923955 -0.05406698 0.09912922 0.11702862 -0.10149838 -0.02118256 0.0033892014
-0.055229384 0.07783653 0.067780554 0.10503264 0.08344114 0.04495159 0.017724585 -0.10774567
-0.03962108 -0.113523915 0.06506612 -0.0706774 0.071452804 -0.0039243815 0.043196455 0.024210919
0.054349765 -0.025264505 -0.017585656 -0.040058836 0.0486363 -0.04169454 0.09019629 0.11665348
-0.02594461 -0.046549536 -0.055331793 0.011634464 0.038038895 -0.10024261 0.0999527 0.045458935
-0.11131694 0.0062984475 0.07301963 -0.062138967 0.03703503 -0.014250936 0.05992467 -0.05278531
0.08838805 -0.045507602 -0.058066774 0.01391345 0.07444528 0.09512085 -0.07157809 -0.08172786
00000000: 0c37 7b3a bb47 a03d f74a 893d f8b3 24bd
00000010: 1e78 e23c 75ed 91bc 3082 f8bd d23e d1bd
00000020: 5966 6ebd 74b8 2b3d 5675 5dbd 4304 cb3d
00000030: b3ac ef3d 62de cfbd 0c87 adbc 5d1d 5e3b
00000040: 3538 62bd c268 9f3d 88d0 8a3d 5a1b d73d
00000050: 30e3 aa3d 291f 383d 2633 913c c3a9 dcbd
00000060: b749 22bd 3a7f e8bd 6341 853d 50bf 90bd
00000070: d955 923d 1998 80bb c4ee 303d fa55 c63c
00000080: dc9d 5e3d 82f7 cebc cb0f 90bc bc14 24bd
00000090: db36 473d e5c7 2abd d5b8 b83d 05e8 ee3d
000000a0: ca89 d4bc baaa 3ebd 97a3 62bd 7b9e 3e3c
000000b0: acce 1b3d ff4b cdbd 00b4 cc3d 2633 3a3d
000000c0: 23fa e3bd 3563 ce3b 518b 953d 6e85 7ebd
000000d0: 0bb2 173d c27c 69bc 9273 753d 6935 58bd
000000e0: cb04 b53d 2e66 3abd 6dd7 6dbd 3df5 633c
000000f0: c476 983d b8ce c23d 8997 92bd f060 a7bd
