2022/20-华立民 指导老师-马里佳/code/output/2-agents_domain-PredatorPrey-2_adversaryratio-0.75_RADAR_X_2022-11-16-08-47-36/protagonist_model.pth (torch, 52943 bytes, 7 tensors)

fc_net.fc_net.0.weight f4 [64, 125]
-0.05229217 -0.031492412 -0.06944823 -0.051747084 -0.046559304 -0.03707614 0.07412542 -0.043660387
-0.000998117 -0.08835975 -0.064571306 0.059765108 0.0042101173 -0.06635089 0.06170454 0.060002305
0.04023149 0.08171148 0.018861696 3.3460557e-05 -0.025492035 0.02082719 0.024750426 -0.005086988
0.067679666 -0.0541576 0.072167896 -0.063019015 0.06896854 0.015685475 0.07608629 0.08000729
-0.003860705 -0.0638939 -0.07501953 -0.08477529 -0.026088485 -0.044420294 0.03099443 0.01201955
-0.04277946 0.016532656 0.06404539 0.022897055 0.04507108 0.017331006 0.07150933 -0.04539567
0.0660403 -0.061575975 0.054041468 0.051396143 0.09279715 0.051922143 0.047066744 -0.07616463
-0.02904103 0.05272402 -0.07667038 0.016334575 0.07776214 0.027668262 -0.04985789 0.07657707
-0.016745204 -0.07255263 -0.07816355 -0.059038296 0.03909253 -0.06643675 -0.006825127 0.061315827
0.06883231 0.011700655 0.011280678 0.08255644 -0.029631812 -0.056947216 0.03258244 0.063681066
0.033794977 0.07830674 0.07758424 0.035195313 -0.07492789 -0.07060664 0.0365471 -0.042575892
0.033459574 -0.07769014 -0.042940527 0.03135995 0.047841392 -0.02426594 -0.08274385 -0.03846902
-0.06295396 -0.07482661 0.016185524 0.04341584 -0.053961985 0.08222277 0.06667704 0.01874055
-0.04668545 -0.06686227 -0.05991102 0.061144657 -0.036518306 -0.011679649 -0.016487367 -0.015276045
0.07302248 0.046703182 0.022304691 -0.022296794 0.08878509 0.026436888 -0.032809313 0.062449478
0.047158144 -0.065843806 0.008376159 0.08552293 0.054046042 -0.056063715 -0.068852335 0.03897106
-0.054552503 0.041059725 -0.04985111 -0.07618723 0.02816005 0.05653461 0.057461523 -0.08256399
0.0318171 0.080953114 0.032580584 -0.07673979 0.06531214 0.015996188 0.07088355 -0.068110794
0.081519864 0.011312194 -0.044104125 0.039818667 -0.020820849 -0.011621647 -0.08525416 -0.07332493
0.047900684 0.07404608 0.0059161265 0.07656662 -0.03247915 -0.05220642 -0.011946708 -0.03195366
0.073242776 -0.005647128 0.01750762 0.022636184 0.03909552 -0.08315437 -0.0026610228 -0.056630462
-0.02740792 -0.06753358 0.05387149 0.069078684 0.04724121 -0.018341849 -0.079299614 0.014680913
-0.0035882604 0.006184022 0.06274468 -0.06382821 -0.051522195 0.031153055 -0.047418255 0.014261916
-0.057862576 0.047377832 -0.014870575 -0.007566809 -0.065901294 -0.010226047 0.071214475 0.089293346
0.010943017 -0.013126656 -0.020705516 -0.07418599 -0.019046009 -0.010442638 0.08089021 -0.059549723
0.0824201 -0.081766315 0.07969566 -0.061045755 -0.006325364 -0.07845819 0.04900529 -0.066389635
0.06979598 0.021738814 -0.026931442 0.06543241 0.07915469 0.048725136 0.015828777 0.0895266
0.06448176 -0.042376135 0.0142668085 0.06335892 0.024570039 -0.04870552 0.009650259 -0.05539684
0.03973254 0.06757391 -0.009811074 -0.06306187 -0.008027703 0.019917928 -0.08344508 -0.051686212
0.055880018 -0.070937835 0.0591347 -0.0013676062 -0.0067452714 0.07548752 -0.07311627 -0.030536387
0.006921187 -0.038387448 -0.07411976 0.0017300472 0.0055916607 0.03650736 0.044122882 -0.056995016
-0.032508336 -0.027452 0.060295023 0.024782814 -0.0058738887 -0.086148284 0.06523872 -0.012722239
00000000: 5030 56bd 30fe 00bd e03a 8ebd c0f4 53bd
00000010: f8b4 3ebd 27dd 17bd 11cf 973d 3cd5 32bd
00000020: 40d3 82ba f5f5 b4bd f63d 84bd 42cc 743d
00000030: 06f5 893b fae2 87bd e6bd 7c3d fac4 753d
00000040: c6c9 243d 5958 a73d d883 9a3c 0058 0c38
00000050: acd4 d0bc c89d aa3c 68c1 ca3c c0b0 a6bb
00000060: a39b 8a3d 5cd4 5dbd c3cc 933d 1d10 81bd
00000070: 613f 8d3d d37e 803c 21d3 9b3d ddda a33d
00000080: e203 7dbb ceda 82bd d7a3 99bd ab9e adbd
00000090: 85b7 d5bc 0ef2 35bd 08e8 fd3c a6ed 443c
000000a0: 8439 2fbd 7e6f 873c 3b2a 833d 9b92 bb3c
000000b0: 749c 383d c1f9 8d3c 7c73 923d cff0 39bd
000000c0: 2340 873d 1737 7cbd 965a 5d3d c384 523d
000000d0: 6f0c be3d 50ac 543d 0fc9 403d 34fc 9bbd
000000e0: 74e7 edbc 24f5 573d 5c05 9dbd 16d0 853c
000000f0: c241 9f3d 8da8 e23c c937 4cbd 70d4 9c3d
00000100: 3d2d 89bc 7996 94bd 3614 a0bd 24d2 71bd
00000110: 7d1f 203d fe0f 88bd 51a5 dfbb 4e26 7b3d
00000120: f4f7 8c3d 1bb4 3f3c 98d2 383c 5a13 a93d
00000130: 6abe f2bc 7c41 69bd 2a75 053d 386b 823d
00000140: 9a6c 0a3d 495f a03d 7ce4 9e3d f628 103d
00000150: cb73 99bd 379a 90bd 69b2 153d 0f64 2ebd
00000160: e80c 093d 021c 9fbd 68e2 2fbd 4a73 003d
00000170: 56f5 433d 5dc9 c6bc 9c75 a9bd b191 1dbd
00000180: 01ee 80bd b23e 99bd 8197 843c cfd4 313d
00000190: 3e07 5dbd 6964 a83d f98d 883d c885 993c
000001a0: 3e39 3fbd 16ef 88bd 4265 75bd d272 7a3d
000001b0: 3894 15bd 005c 3fbc 8410 87bc 6048 7abc
000001c0: cf8c 953d d64b 3f3d 54b8 b63c c4a7 b6bc
000001d0: f5d4 b53d 2c92 d83c 0f63 06bd 06cb 7f3d
000001e0: e628 413d 1ed9 86bd 283c 093c a526 af3d
000001f0: 625f 5d3d 11a3 65bd 7402 8dbd 1ea0 1f3d
00000200: 7272 5fbd 3e2e 283d ad30 4cbd 0d08 9cbd
00000210: e8af e63c d690 673d c65c 6b3d 4f17 a9bd
00000220: a652 023d bfca a53d 3873 053d c029 9dbd
00000230: 5fc2 853d 700a 833c 652b 913d ac7d 8bbd
00000240: e3f3 a63d c856 393c 87a6 34bd e618 233d
00000250: 7c90 aabc b868 3ebc bc99 aebd 622b 96bd
00000260: 8233 443d 79a5 973d 11dc c13b f6ce 9c3d
00000270: db08 05bd 66d6 55bd 20bc 43bc d7e1 02bd
00000280: 4f00 963d 8b0b b9bb 246c 8f3c 856f b93c
00000290: a022 203d d74c aabd 8e64 2ebb 58f5 67bd
000002a0: 9386 e0bc 0c4f 8abd 5aa8 5c3d 2079 8d3d
000002b0: 0080 413d a541 96bc d667 a2bd 3688 703c
000002c0: 0529 6bbb 56a3 ca3b 4880 803d 5db8 82bd
000002d0: f008 53bd b134 ff3c a539 42bd d0aa 693c
000002e0: 4f01 6dbd 420f 423d b6a3 73bc fff2 f7bb
000002f0: 42f7 86bd 268b 27bc e5d8 913d 6edf b63d
00000300: 574a 333c 3011 57bc 9d9e a9bc d3ee 97bd
00000310: 6006 9cbc 9917 2bbc c4a9 a53d 69ea 73bd
00000320: dfcb a83d 1975 a7bd 7a37 a33d 1d0b 7abd
00000330: 0045 cfbb b0ae a0bd c5b9 483d 4af7 87bd
00000340: 32f1 8e3d 9915 b23c 549f dcbc 6d01 863d
00000350: db1b a23d 0294 473d 5aab 813c b959 b73d
00000360: 030f 843d 9992 2dbd 55bf 693c 52c2 813d
00000370: 1b47 c93c 707f 47bd 1f1c 1e3c cce7 62bd
00000380: 96be 223d 3164 8a3d a0be 20bc 9526 81bd
00000390: a086 03bc ec2a a33c 41e5 aabd ecb4 53bd
000003a0: 72e2 643d db47 91bd 3a37 723d 4041 b3ba
000003b0: 7007 ddbb 3399 9a3d fcbd 95bd 7227 fabc
000003c0: 20cb e23b 283c 1dbd 1acc 97bd c0c2 e23a
000003d0: 403a b73b be88 153d 32ba 343d 9b73 69bd
000003e0: 7627 05bd 04e3 e0bc eaf7 763d 5405 cb3c
000003f0: c079 c0bb 836e b0bd e19b 853d f070 50bc

fc_net.fc_net.0.bias f4 [64]
-0.08428683 0.07233945 0.06415433 0.08686067 -0.04843159 0.0044358796 0.012840773 0.07520152
0.030840995 0.002020046 -0.08007618 0.00023713941 0.07679721 0.032436572 -0.08336572 0.07664614
-0.019364242 0.06590403 0.046438526 -0.06740601 -0.078505635 0.07655596 -0.026877848 -0.03029876
-0.042687558 0.030151824 -0.01686109 0.07375298 -0.051641334 0.029973783 0.022551447 -0.07183052
-0.019195072 0.034092877 -0.060683187 0.072480135 0.00389474 -0.07086918 -0.042168323 -0.078821965
-0.0042177555 -0.08354984 -0.02720271 -0.018614942 -0.07740064 0.0812434 0.031091325 0.08538494
0.041426975 0.07798475 -0.056667954 0.057374436 0.06281597 -0.0494956 -0.022085309 -0.0006909016
0.0740911 0.015013907 -0.07465864 -0.024444662 -0.029597215 -0.015132103 -0.071346074 -0.086829074
00000000: 939e acbd b526 943d 5863 833d 02e4 b13d
00000010: 3460 46bd db5a 913b 1b62 523c 4103 9a3d
00000020: 41a6 fc3c c062 043b fbfe a3bd a0a8 7839
00000030: db47 9d3d 36dc 043d a6bb aabd a7f8 9c3d
00000040: c2a1 9ebc b1f8 863d 5336 3e3d 2a0c 8abd
00000050: 90c7 a0bd 5fc9 9c3d ef2e dcbc 1b35 f8bc
00000060: 26d9 2ebd f500 f73c 4520 8abc cd0b 973d
00000070: dd85 53bd 948b f53c d0bd b83c e11b 93bd
00000080: fc3e 9dbc f9a4 0b3d ef8e 78bd 7770 943d
00000090: e53e 7f3b dc23 91bd b1b8 2cbd 696d a1bd
000000a0: 1935 8abb 2e1c abbd 38d8 debc 5d7e 98bc
000000b0: 3a84 9ebd f162 a63d 3cb3 fe3c 4dde ae3d
000000c0: 55af 293d 78b6 9f3d a81c 68bd 7501 6b3d
000000d0: a9a5 803d e6bb 4abd 40ec b4bc 9f1d 35ba
000000e0: 13bd 973d e4fc 753c a1e6 98bd 2c40 c8bc
000000f0: dc75 f2bc a4ec 77bc e41d 92bd 71d3 b1bd

fc_net.fc_net.2.weight f4 [64, 64]
-0.11180897 0.087275274 -0.009207137 -0.088745184 -0.095843874 0.08526641 -0.039003614 -0.02660025
-0.018929696 -0.044223513 -0.10523294 -0.0963863 0.09424976 -0.092071965 -0.033730306 0.021201642
-0.030231351 0.081807606 -0.07446933 0.11268474 -0.11519478 -0.06963418 -0.02902781 0.033274725
0.075740926 -0.03643342 0.081574924 0.095211916 -0.10547423 -0.06832166 -0.07934019 -0.12762952
-0.112815805 0.037707224 0.08070242 -0.12936836 -0.111950494 -0.07844862 0.099635154 -0.023403442
-0.12596186 0.04009066 0.029167747 -0.058654502 0.03586445 0.107909076 -0.11554975 0.044957828
-0.034859966 -0.090196945 0.09294482 -0.04428342 0.030772388 0.09227486 -0.019856399 -0.047567427
0.047015008 0.014166568 -0.06441773 0.119757235 -0.054935936 -0.053364635 -0.062413447 0.11399357
-0.07311523 -0.03176284 0.023763506 0.0020612215 -0.0648463 -0.059834946 -0.08533378 -0.0036871058
0.0070517096 0.02018786 0.067086354 0.018186888 -0.10866358 -0.10950739 -0.022823004 0.015327325
-0.10537853 0.03845977 -0.059018895 0.101706624 -0.0510867 -0.10407601 0.063650355 0.094037615
0.094015986 0.11133505 0.063545085 -0.09054225 -0.022753494 0.11371142 -0.10238635 -0.02933381
0.012840086 0.058061603 0.0024075736 -0.08824906 0.01252999 -0.10491757 0.019806722 0.003480825
0.108993486 -0.058155008 -0.006207082 0.045760326 -0.09928953 -0.11870521 -0.055055626 -0.1019606
-0.092653364 0.05431377 -0.12731782 -0.09246771 0.0039191297 -0.070956655 0.08586502 0.10087105
-0.036824383 0.03671517 0.07935485 0.021061616 0.03746501 0.036860563 -0.061455864 -0.01411878
-0.112324014 -0.021577938 0.004811854 -0.0501086 0.06401755 -0.09387439 -0.03456483 -0.093856566
-0.0732773 -0.096512355 0.113254026 -0.10588628 0.023505738 -0.089121684 0.05051848 0.10491113
0.10238662 -0.10937624 -0.045270797 0.12230516 -0.120925896 -0.05569975 -0.025351813 -0.024973586
0.10702078 0.03684744 0.024510458 -0.06635028 0.10112095 -0.06419511 0.05545822 -0.09530081
-0.12021367 0.041522283 0.12345954 0.050279062 0.11090393 0.05594553 0.06506547 0.092703804
-0.022884618 0.048032306 0.020515852 0.09031156 0.04861656 0.09649601 0.07266283 0.059200283
0.08101385 -0.011953299 -0.050722092 -0.02957727 -0.088303305 0.0162409 0.06485682 0.09234977
0.10728556 0.05934372 0.050066456 0.10921592 -0.03390384 -0.084683694 0.008679073 0.060442105
0.11587968 -0.11070785 0.0784823 -0.045508612 0.014604237 0.015365774 0.11481038 0.058183726
-0.060054813 -0.06262877 -0.03534408 -0.016842477 0.07697961 -0.023295315 0.03804108 0.03980221
-0.07560538 0.114290446 0.096694574 -0.095406726 0.04582957 -0.023301652 -0.045318395 0.07963863
-0.056802303 0.06354305 -0.015308287 -0.07999516 -0.07406236 -0.09785317 0.08322774 0.08401179
-0.069308035 0.031568956 -0.0017266457 -0.113110565 -0.12270984 0.085988894 0.07744801 -0.10399372
0.030279176 0.07861217 -0.10872689 -0.0048369872 -0.08606071 -0.017830813 -0.08215766 0.09141031
0.11360656 0.064689696 -0.02625342 -0.039316166 -0.08677098 0.045626145 -0.11494989 0.093393885
-0.071549185 0.10187517 -0.118521065 -0.0364452 -0.0138789425 0.0030509555 0.12302813 -0.005985869
00000000: 1afc e4bd 61bd b23d 88d9 16bc 09c0 b5bd
00000010: cb49 c4bd 28a0 ae3d 41c2 1fbd c4e8 d9bc
00000020: 7312 9bbc b723 35bd 5e84 d7bd 2e66 c5bd
00000030: 0506 c13d 3a90 bcbd ca28 0abd 11af ad3c
00000040: bda7 f7bc bf8a a73d 6083 98bd 42c7 e63d
00000050: 3eeb ebbd 5d9c 8ebd bbcb edbc 144b 083d
00000060: 0f1e 9b3d 363b 15bd c110 a73d 77fe c23d
00000070: e002 d8bd 3aec 8bbd 1c7d a2bd 50b1 02be
00000080: f90b e7bd e472 1a3d 4f47 a53d 2479 04be
00000090: 4d46 e5bd aca9 a0bd 840d cc3d 93b8 bfbc
000000a0: 25fc 00be 1b36 243d 33f1 ee3c b43f 70bd
000000b0: 9ae6 123d 6fff dc3d 59a5 ecbd b325 383d
000000c0: 53c9 0ebd 2db9 b8bd db59 be3d 8862 35bd
000000d0: 6016 fc3c 9afa bc3d e3a9 a2bc 10d6 42bd
000000e0: cf92 403d e51a 683c 71ed 83bd 4843 f53d
000000f0: 8104 61bd e094 5abd 3ea5 7fbd 7675 e93d
00000100: 70bd 95bd c019 02bd afab c23c 8f15 073b
00000110: 23ce 84bd 7d15 75bd 7ac3 aebd 5fa3 71bb
00000120: 0712 e73b 0361 a53c 9264 893d abfc 943c
00000130: 038b debd 6945 e0bd 4ff7 babc 761f 7b3c
00000140: b3d0 d7bd fe87 1d3d ccbd 71bd 904b d03d
00000150: 4a40 51bd ce25 d5bd 1e5b 823d cb96 c03d
00000160: 748b c03d a103 e43d ed23 823d 376e b9bd
00000170: 8965 babc 88e1 e83d efaf d1bd 754d f0bc
00000180: 395f 523c 01d2 6d3d 62c8 1d3b ecbb b4bd
00000190: 964a 4d3c 06df d6bd b541 a23c 8e1e 643b
000001a0: fa37 df3d f233 6ebd c764 cbbb 2e6f 3b3d
000001b0: 4f58 cbbd b81b f3bd 0282 61bd b8d0 d0bd
000001c0: 0cc1 bdbd 1e78 5e3d 9a5f 02be b65f bdbd
000001d0: 0b6c 803b b951 91bd 00da af3d 7b95 ce3d
000001e0: 2ad5 16bd a562 163d cc84 a23d 6989 ac3c
000001f0: e974 193d 1afb 163d 25b9 7bbd 7552 67bc
00000200: 220a e6bd 37c4 b0bc c2ac 9d3b ad3e 4dbd
00000210: a21b 833d 3741 c0bd da93 0dbd df37 c0bd
00000220: 6912 96bd 45a8 c5bd baf1 e73d e8da d8bd
00000230: 1b8f c03c 6e85 b6bd 77ec 4e3d a6db d63d
00000240: 14b0 d13d a600 e0bd df6d 39bd 217b fa3d
00000250: ffa7 f7bd 6c25 64bd 9bae cfbc 6895 ccbc
00000260: b62d db3d 57ed 163d 28ca c83c a8e2 87bd
00000270: 8018 cf3d ba78 83bd 2928 633d 122d c3bd
00000280: 9632 f6bd 4513 2a3d 5bd8 fc3d 6bf1 4d3d
00000290: 9a21 e33d 2427 653d 0c41 853d 7edb bd3d
000002a0: 8678 bbbc 86bd 443d dc10 a83c 44f5 b83d
000002b0: 2822 473d b39f c53d 40d0 943d ff7b 723d
000002c0: 97ea a53d c5d7 43bc f8c1 4fbd 084c f2bc
000002d0: 5dd8 b4bd a30b 853c a7d3 843d e021 bd3d
000002e0: 88b8 db3d 6712 733d 7c12 4d3d 99ac df3d
000002f0: c1de 0abd a56e adbd ac32 0e3c 2492 773d
00000300: 5352 ed3d ccba e2bd 54bb a03d 3d67 3abd
00000310: 9c46 6f3c bac0 7b3c b421 eb3d 0f52 6e3d
00000320: 09fc 75bd 8343 80bd f4c4 10bd 3cf9 89bc
00000330: 7ca7 9d3d d1d5 bebc f7d0 1b3d a407 233d
00000340: fed6 9abd 1c11 ea3d ce07 c63d 9a64 c3bd
00000350: cab7 3b3d 1be3 bebc c89f 39bd 9419 a33d
00000360: 88a9 68bd dc22 823d 9ccf 7abc 81d4 a3bd
00000370: 02ae 97bd 3e67 c8bd 4e73 aa3d 600e ac3d
00000380: 5ff1 8dbd 734e 013d 9e50 e2ba 83a6 e7bd
00000390: 4c4f fbbd f21a b03d 109d 9e3d a9fa d4bd
000003a0: 090c f83c 6bff a03d 34ac debd 977f 9ebb
000003b0: 9940 b0bd ed11 92bc 4642 a8bd 5435 bb3d
000003c0: 8eaa e83d 087c 843d 6a11 d7bc fd09 21bd
000003d0: fcb4 b1bd 7be2 3a3d d96a ebbd 4b45 bf3d
000003e0: 6188 92bd eea3 d03d 2cbb f2bd 9047 15bd
000003f0: 8164 63bc 8af2 473b 2cf6 fb3d 1c25 c4bb

fc_net.fc_net.2.bias f4 [64]
-0.044603225 -0.102736205 0.047551487 0.043456912 -0.0010528093 0.066732146 -0.09284472 0.12383985
0.018579306 0.117969476 0.038841706 -0.07763492 0.11780023 0.12783803 -0.07721026 0.08446599
0.1068397 0.07965814 0.1079023 0.12694846 0.022137303 -0.092468016 0.078950234 0.06646108
-0.100350685 -0.060016178 -0.0018696074 -0.118069775 0.06448122 0.01212798 -0.005979457 0.027947973
-0.09203941 0.11369443 0.1005978 -0.017382534 0.09017784 0.010783415 -0.077936 0.086980365
-0.06728025 -0.060996205 0.016315758 -0.021146456 -0.039099433 0.023464207 -0.06285742 -0.07759444
0.11463652 0.12017331 0.027971992 0.09968513 -0.12015588 -0.03162045 0.10953184 -0.048321713
0.06072374 -0.042577103 0.08300518 0.11048771 -0.03762072 0.03881318 -0.004396446 0.033474237
00000000: dfb1 36bd 5c67 d2bd 59c5 423d e0ff 313d
00000010: 6bfe 89ba ddaa 883d 5f25 bebd bf9f fd3d
00000020: a133 983c fb99 f13d 7b18 1f3d 0fff 9ebd
00000030: 3f41 f13d f9e7 023e 6a20 9ebd 81fc ac3d
00000040: c6ce da3d cf23 a33d e2fb dc3d c7fe 013e
00000050: 4a59 b53c df5f bdbd a9b0 a13d bf1c 883d
00000060: a984 cdbd 86d3 75bd 9d0d f5ba 91ce f1bd
00000070: bb0e 843d 6fb4 463c 52ef c3bb 26f3 e43c
00000080: 287f bcbd a0d8 e83d 3806 ce3d d165 8ebc
00000090: 29af b83d ecac 303c e99c 9fbd c322 b23d
000000a0: 3aca 89bd 28d7 79bd a0a8 853c 553b adbc
000000b0: ba26 20bd 0238 c03c 64bb 80bd d5e9 9ebd
000000c0: 8dc6 ea3d 6d1d f63d 8525 e53c b827 cc3d
000000d0: 4914 f6bd 7284 01bd 3b52 e03d fdec 45bd
000000e0: 75b9 783d 5465 2ebd 9ffe a93d 6147 e23d
000000f0: 2f18 1abd 92fa 1e3d 1010 90bb 481c 093d

action_head.weight f4 [5, 64]
0.0039531076 0.003657357 -0.10076677 -0.11969971 0.01328434 -0.05869438 0.08324901 -0.025242537
-0.057369504 0.012992626 0.09848229 -0.019036388 0.08992206 -0.057256002 0.016695073 -0.022953132
-0.037081227 -0.0717748 0.026123289 -0.07092885 0.09676748 0.11988834 -0.067591935 -0.021596836
0.002915276 0.06341664 0.0036804099 -0.067471005 0.11677495 0.087427534 -0.104619116 0.0032313045
-0.03295834 0.10010731 0.10994774 0.08122157 0.066878825 -0.09733445 -0.10156156 0.028728744
-0.0811619 -0.032607242 -0.0024123467 -0.028708117 0.12690252 0.08184451 -0.05324654 0.07045828
0.10893385 -0.008258227 -0.056559023 0.020796448 0.06956849 -0.0067021544 0.031452894 0.06111272
-0.046645522 -0.122592844 0.09179863 -0.053262014 0.08523978 0.09905734 -0.059744716 0.1069309
-0.0015222569 0.06352804 -0.051242787 0.06085809 0.031363837 0.028394412 -0.1059208 0.08140115
0.09341838 0.06586749 0.04384007 -0.02186779 -0.036997974 -0.03756054 0.044668153 0.09205163
0.00013395955 -0.039944045 0.10522362 -0.0759747 -0.062200464 -0.0055191964 -0.039966878 0.0011884426
0.018941218 -0.115177244 0.01670927 -0.024072858 -0.10378248 0.09074635 -0.10666761 -0.024081185
-0.074411534 0.08513171 0.061003413 -0.025648106 -0.1297911 0.08675225 -0.04553551 -0.0696202
0.11562213 0.041248802 0.013539402 -0.063889645 -0.036048613 0.044204317 -0.09870124 0.10509692
0.041594315 -0.121182874 0.07084151 -0.12661026 0.05056863 0.04402324 -0.07237947 0.095982
0.003331824 -0.07570339 0.11571314 0.05708315 -0.11034581 -0.07509917 0.07333823 -0.07972474
0.018133415 0.07724527 0.06701259 0.043230217 0.11657383 -0.09450331 0.056776576 -0.08635246
-0.08533206 -0.013605558 -0.123026006 -0.08955938 0.0022076096 0.063448764 -0.010919088 -0.0604375
-0.064849176 0.017479554 -0.006105387 -0.006820928 -0.048820063 0.033770755 -0.07396848 -0.02367833
-0.08898056 -0.014522475 0.11151801 0.005401025 -0.03782125 0.075561784 0.120560005 -0.0770808
0.05013825 -0.104847066 0.11693708 0.06970095 -0.1275084 -0.09510718 -0.010459604 0.0039113234
-0.037058458 0.112461194 -0.04123014 0.03803657 -0.06681953 -0.010119761 0.12635516 -0.006479669
0.029591428 0.008158655 -0.023284102 0.01826832 0.0030256833 0.088542506 0.086940885 -0.10741588
-0.0068776924 -0.11754009 -0.02336492 -0.0535385 -0.11876053 0.09907768 -0.07754467 0.07930981
-0.04222583 -0.054090817 -0.008267362 0.009479027 -0.09817601 -0.06523047 -0.043618996 -0.0651756
0.0027999866 -0.107184455 -0.023856508 -0.10069304 0.07119541 0.036849752 0.004696322 0.06371604
-0.06721373 -0.039579228 0.08705719 0.09608289 0.07324296 0.10833632 0.041018587 0.10759556
0.072692506 0.07726279 -0.006857096 0.042154618 0.06978399 0.088110074 -0.069195986 -0.055565193
-0.110738255 -0.10069007 -0.112190925 0.040512577 -0.03928663 -0.030010136 -0.06820036 0.05846604
-0.116307646 0.09752741 -0.10834435 -0.09476199 -0.07086286 0.0018616024 0.05412057 0.037877236
0.04077869 0.08578665 0.055562783 0.005152449 0.048103284 0.11787338 0.0020936928 0.084754206
0.021169871 0.119658045 0.06771943 0.12105627 -0.019407457 -0.051316377 0.05933213 0.047882434
00000000: 1289 813b 45b0 6f3b cf5e cebd 1f25 f5bd
00000010: 8fa6 593c 8569 70bd 757e aa3d 70c9 cebc
00000020: 49fc 6abd 06df 543c 15b1 c93d 33f2 9bbc
00000030: 0f29 b83d 4585 6abd 1bc4 883c 3508 bcbc
00000040: 7ce2 17bd abfe 92bd 8200 d63c 2543 91bd
00000050: 072e c63d 0588 f53d a46d 8abd d9eb b0bc
00000060: 370e 3f3b 95e0 813d 0833 713b 3d2e 8abd
00000070: b427 ef3d 350d b33d 8c42 d6bd 4bc4 533b
00000080: 53ff 06bd 1005 cd3d 482c e13d 7f57 a63d
00000090: c4f7 883d 4957 c7bd 82ff cfbd 8b58 eb3c
000000a0: 3638 a6bd 2c8f 05bd 7618 1ebb 492d ebbc
000000b0: bcf2 013e 189e a73d 0b19 5abd 6e4c 903d
000000c0: b618 df3d 844d 07bc 6faa 67bd 505d aa3c
000000d0: ed79 8e3d bf9d dbbb c0d4 003d 5551 7a3d
000000e0: 600f 3fbd f511 fbbd ec00 bc3d 4529 5abd
000000f0: 3292 ae3d 93de ca3d e0b6 74bd 96fe da3d
00000100: 7786 c7ba fd1a 823d f5e3 51bd 5546 793d
00000110: 5e77 003d 669b e83c 01ed d8bd a5b5 a63d
00000120: 2352 bf3d 89e5 863d a591 333d 1424 b3bc
00000130: 308b 17bd 15d9 19bd f4f5 363d 9185 bc3d
00000140: 7e77 0c39 5e9c 23bd 7b7f d73d a098 9bbd
00000150: eac5 7ebd 60da b4bb 4fb4 23bd 84c5 9b3a
00000160: 9d2a 9b3c 0ce2 ebbd e1e1 883c 7134 c5bc
00000170: e98b d4bd 39d9 b93d 8c74 dabd e845 c5bc
00000180: 1365 98bd 8959 ae3d b7de 793d fa1b d2bc
00000190: f5e7 04be 2aab b13d 7183 3abd 0995 8ebd
000001a0: 4ccb ec3d 81f4 283d 5ed4 5d3c 93d8 82bd
000001b0: b6a7 13bd 960f 353d e023 cabd 0e3d d73d
000001c0: cd5e 2a3d ba2e f8bd 5b15 913d 1fa6 01be
000001d0: 0d21 4f3d b751 343d b03b 94bd 3692 c43d
000001e0: bb5a 5a3b 610a 9bbd 03fb ec3d 05d0 693d
000001f0: fcfc e1bd 98cd 99bd 5b32 963d b946 a3bd
00000200: 878c 943c c532 9e3d e63d 893d 2b12 313d
00000210: 43be ee3d f48a c1bd 8e8e 683d 8fd9 b0bd
00000220: 93c2 aebd d9e9 5ebc 0ff5 fbbd e96a b7bd
00000230: 8bad 103b 6df1 813d f9e5 32bc 508d 77bd
00000240: a5cf 84bd 4831 8f3c b30f c8bb 1782 dfbb
00000250: 8cf7 47bd 3453 0a3d c97c 97bd 0ff9 c1bc
00000260: 713b b6bd adef 6dbc 8e63 e43d 15fb b03b
00000270: 74ea 1abd 23c0 9a3d 2ae8 f63d 8adc 9dbd
00000280: c45d 4d3d 0fba d6bd b57c ef3d 5fbf 8e3d
00000290: 9091 02be 8ec7 c2bd c25e 2bbc 8f2a 803b
000002a0: 9cca 17bd 0e52 e63d efe0 28bd 3ccc 1b3d
000002b0: aed8 88bd 5bcd 25bc 3f63 013e 6753 d4bb
000002c0: b969 f23c e1ab 053c 4dbe bebc 72a7 953c
000002d0: 8b4a 463b c655 b53d 100e b23d dbfc dbbd
000002e0: 445e e1bb dcb8 f0bd ca67 bfbc 304b 5bbd
000002f0: b938 f3bd 3de9 ca3d bdcf 9ebd 2f6d a23d
00000300: fef4 2cbd 558e 5dbd d473 07bc ec4d 1b3c
00000310: 8110 c9bd 8d97 85bd d5a9 32bd c97a 85bd
00000320: fb7f 373b 8683 dbbd b96e c3bc 2738 cebd
00000330: e6ce 913d c4ef 163d 9be3 993b 8e7d 823d
00000340: 5aa7 89bd d41d 22bd 0a4b b23d 1bc7 c43d
00000350: 6800 963d 6fdf dd3d 1b03 283d 105b dc3d
00000360: cfdf 943d f43b 9e3d 7eb1 e0bb 52aa 2c3d
00000370: e9ea 8e3d 0e73 b43d a0b6 8dbd 5498 63bd
00000380: bdca e2bd 9836 cebd 5bc4 e5bd 84f0 253d
00000390: 04eb 20bd d1d7 f5bc a1ac 8bbd 167a 6f3d
000003a0: b432 eebd 73bc c73d a4e3 ddbd 9312 c2bd
000003b0: 8c20 91bd 0301 f43a 88ad 5d3d 2925 1b3d
000003c0: 8e07 273d e9b0 af3d cd95 633d e0d5 a83b
000003d0: f307 453d 9967 f13d 5636 093b 9d93 ad3d
000003e0: 706c ad3c 470f f53d 7cb0 8a3d 5aec f73d
000003f0: 63fc 9ebc 1f31 52bd 3f06 733d 5f20 443d

action_head.bias f4 [5]
-0.0068758526 0.051186506 0.021459747 0.02965459 -0.09641907
00000000: d54e e1bb f1a8 513d 5acc af3c 2fee f23c
00000010: 5d77 c5bd

value_head.weight f4 [1, 64]
0.020958168 0.12020578 -0.032484904 -0.09121044 0.09521938 -0.03852721 -0.026205327 0.1187662
-0.09062953 -0.083218105 -0.022607595 -0.1098193 -0.0017922429 0.0058870143 0.051147368 0.11052253
-0.09390949 0.09800359 -0.09724167 0.022854466 -0.08748618 -0.030664528 -0.105369784 -0.11153677
-0.051595982 -0.11556495 0.07319891 -0.04438613 -0.09533501 -0.055180132 0.085698105 0.1025407
-0.077370755 -0.039524484 -0.08678883 -0.08980665 -0.024207223 0.07819778 0.026936185 -0.06370967
-0.08736697 -0.044153977 0.061653316 -0.053769037 0.05752918 0.11796309 -0.04429714 0.06712316
0.06556767 -0.090633616 0.012573751 0.10635976 0.043261994 0.011552851 0.036959644 0.0050975345
-0.07603232 0.10022303 -0.06026055 0.040607333 0.017795667 0.094593 0.092938825 -0.025421742
00000000: 77b0 ab3c 732e f63d e40e 05bd 8acc babd
00000010: 6102 c33d b5ce 1dbd 8eac d6bc b23b f33d
00000020: fa9b b9bd 416e aabd 9033 b9bc f1e8 e0bd
00000030: b1e9 eaba dbe7 c03b e77f 513d a359 e23d
00000040: 9e53 c0bd 1bb6 c83d a426 c7bd 4a39 bb3c
00000050: f42b b3bd 2d34 fbbc 1dcc d7bd 646d e4bd
00000060: 4f56 53bd 51ad ecbd 4fe9 953d 3bce 35bd
00000070: 003f c3bd 9004 62bd 7d82 af3d dc00 d23d
00000080: 8f74 9ebd 6de4 21bd 58be b1bd 8dec b7bd
00000090: 3a4e c6bc 2826 a03d 46a9 dc3c 377a 82bd
000000a0: 74ed b2bd cdda 34bd 3088 7c3d ec3c 5cbd
000000b0: b8a3 6b3d a296 f13d eb70 35bd de77 893d
000000c0: 5848 863d 1e9e b9bd 2202 4e3c 25d3 d93d
000000d0: 7d33 313d 2b48 3d3c ff62 173d 3809 a73b
000000e0: d5b6 9bbd bb41 cd3d c4d3 76bd e053 263d
000000f0: 38c8 913c fab9 c13d b656 be3d 4241 d0bc
