2022/20-华立民 指导老师-马里佳/code/tests/2-agents_domain-PredatorPrey-2_adversaryratio-0.25_RADAR_X_2022-11-30-23-01-34/adversary_model.pth (torch, 52943 bytes, 7 tensors)

fc_net.fc_net.0.weight f4 [64, 125]
0	0xbd664ae8	-0.05622378
1	0xbd46e1b7	-0.048555102
2	0xbcaedf78	-0.021346793
3	0xbd8baf9a	-0.06820603
4	0x3d6c434e	0.057681374
5	0xbb683fc0	-0.0035438389
6	0xbdb4a0b8	-0.08819717
7	0xbc439d48	-0.011939354
8	0x3d5ab4ce	0.053395085
9	0xbd6d6338	-0.05795595
10	0x3d97e723	0.07417133
11	0x3d54f35a	0.05198989
12	0x3dc21720	0.09477067
13	0xbd2c2d43	-0.042035352
14	0xbd1b34df	-0.03789222
15	0xbd256b1b	-0.040385347
16	0x3d6899b2	0.0567872
17	0x3b97e240	0.0046351254
18	0xbda949e9	-0.0826605
19	0x3db26127	0.087099366
20	0xbd915e41	-0.07098056
21	0x3da55bc9	0.08074147
22	0xbd87ac88	-0.066247046
23	0x3d8afe7b	0.067868195
24	0xbccbde20	-0.02488619
25	0xbcb51438	-0.022104368
26	0xb9eb2b1e	-0.00044854818
27	0xbcc4d26e	-0.024026122
28	0xbd342786	-0.043983005
29	0xbd458b67	-0.048228648
30	0xbd7e6283	-0.062105667
31	0xbd5f82ab	-0.054567974
32	0x3c8692ec	0.01642748
33	0xbdbc9bea	-0.09209426
34	0xbcda82aa	-0.026673634
35	0x3ccba741	0.024860026
36	0xbd06bd9d	-0.032895673
37	0xbc6c0ee0	-0.014407843
38	0xbb9a6e0e	-0.0047128266
39	0x3cb45e29	0.022017555
40	0xbd35851e	-0.044316404
41	0x3d7de437	0.06198522
42	0x3d97f9ae	0.074206695
43	0x3da76011	0.0817262
44	0xbd82e9f2	-0.06392278
45	0xbdb53b60	-0.088492155
46	0xbcfd2ad2	-0.030904207
47	0x3d8c3c8b	0.06847485
48	0x3ce46685	0.027880916
49	0xbd55b681	-0.052176002
50	0x3d892e91	0.06698335
51	0xbd879519	-0.06620235
52	0x3d545d0f	0.05184656
53	0xbd5275a0	-0.051381707
54	0xbd270e4d	-0.040785123
55	0xbd712d2c	-0.05888097
56	0x3ce84c5b	0.028356722
57	0xbde45f33	-0.1115097
58	0xbd0366e4	-0.032080546
59	0xbdb597b1	-0.088668235
60	0x3cf62cd5	0.030050674
61	0x3db58550	0.08863318
62	0xbd13754f	-0.036000546
63	0x3d14f612	0.036367483
64	0xbce04da3	-0.02738077
65	0x3c37d660	0.011220545
66	0x3d021c69	0.031765375
67	0xbc4c1a13	-0.012457388
68	0xbd694120	-0.056946874
69	0xbd5cf93f	-0.053948637
70	0xbb913bf6	-0.0044321967
71	0xbccc9ee3	-0.024978107
72	0x3d6fe8f8	0.058571786
73	0x3d6d6a87	0.05796292
74	0x3d13ff4c	0.036132142
75	0x3ca8c029	0.020599442
76	0x3d438379	0.047732804
77	0xbb7a933b	-0.003823473
78	0xbab85d84	-0.0014065956
79	0x3d8cffd0	0.0688473
80	0x3dcd42db	0.10022517
81	0x3d83dce9	0.0643862
82	0xbd066df9	-0.03281972
83	0x3d32127d	0.043474663
84	0x3deb4c93	0.11489215
85	0xbc8c5625	-0.01713092
86	0xbd4e86ae	-0.05042141
87	0x3d3ee7e6	0.046607874
88	0x3d9dc695	0.07703892
89	0x3db546d1	0.08851398
90	0xb932b636	-0.00017043282
91	0x3d33945e	0.043842666
92	0xbd5a150e	-0.053242736
93	0x3db0be3b	0.086300336
94	0x3da75413	0.08170333
95	0xbd84f7b1	-0.06492556
96	0xbd8fb094	-0.070161015
97	0xbd2549e5	-0.040353674
98	0x3cbfa92f	0.023396103
99	0x3d6e2115	0.05813702
100	0x3c9ffb1c	0.019528918
101	0x3daa1c1b	0.08306142
102	0xbc8b4190	-0.016999036
103	0x3d3b2e0e	0.045698218
104	0xbca855b0	-0.020548671
105	0xbc311930	-0.010809228
106	0x3d24ce46	0.04023578
107	0xbd7bc7b4	-0.06146975
108	0xbda6e831	-0.08149756
109	0x3d7dfae6	0.062006854
110	0x3d2aeb4e	0.04172831
111	0xbd2a1067	-0.04151955
112	0x3d83f1bf	0.06442594
113	0x3d1de1b2	0.038545318
114	0xbd30584d	-0.04305296
115	0x3b564ec0	0.0032700747
116	0x3daf4b7b	0.08559319
117	0x3dafebdb	0.08589908
118	0x3c6e0ec8	0.014529891
119	0x3d1b24f2	0.03787703
120	0x3d4890ba	0.048966147
121	0xbd7e14e8	-0.062031657
122	0x3d17406e	0.03692668
123	0x3d4de97a	0.05027149
124	0x3a237e00	0.0006236732
125	0xbca28fc8	-0.01984395
126	0x3da658a3	0.08122375
127	0xbcb23a0c	-0.021756195
128	0x3d7e49b2	0.062082
129	0xbcf724a6	-0.030168843
130	0xbdb28f75	-0.087187685
131	0x3d145eaa	0.03622309
132	0x3dab2e3f	0.0835843
133	0xbdaac9e2	-0.08339287
134	0xbc4be450	-0.012444571
135	0x3c92c738	0.01791726
136	0x3da7ec69	0.081993885
137	0xbda35e9d	-0.079770304
138	0x3d4ae2a6	0.049532555
139	0x3d8dbb2d	0.069204666
140	0xbd87aea5	-0.06625108
141	0xbd6ee72e	-0.05832594
142	0x3c8a5cdc	0.016889982
143	0x3cbfa000	0.023391724
144	0xbd940f15	-0.07229439
145	0x3d79e19e	0.06100618
146	0x3b852240	0.004062921
147	0xbd0b5aca	-0.03402213
148	0xb9c15d00	-0.0003688112
149	0x3d17dfb6	0.03707858
150	0x3cb6885a	0.022281814
151	0xbd65e7d4	-0.05612929
152	0x3caae3e5	0.020860622
153	0x3bebd8ed	0.0071974904
154	0xbd28da52	-0.04122383
155	0xbd4bd4ac	-0.049763367
156	0xbdae64dd	-0.08515332
157	0xb937e7f8	-0.00017538655
158	0xbcd2b31c	-0.025720172
159	0x3d6e1262	0.058123
160	0x3d2496ba	0.040182807
161	0x3cf6f71c	0.030147128
162	0xbd88f151	-0.066866525
163	0x3da9c489	0.08289439
164	0x3c965941	0.018353106
165	0xbbd705cc	-0.0065619703
166	0xbaae789b	-0.001331109
167	0x3be8aac1	0.0071004336
168	0xbd435677	-0.04768988
169	0xbda23f7f	-0.07922267
170	0xbd1933ee	-0.03740304
171	0xbdb5e904	-0.08882335
172	0xbd7a246b	-0.061069887
173	0xbda426bb	-0.080152
174	0xbd03a65f	-0.032141086
175	0x3d43cf3e	0.047805063
176	0xbc485ed1	-0.012229637
177	0x3db8a7ba	0.09016366
178	0x3da14ee1	0.07876373
179	0xbcf9f977	-0.030514462
180	0xbd8095a4	-0.06278542
181	0xbd7270ae	-0.05918949
182	0x3dd81605	0.10551075
183	0xbd92f089	-0.07174785
184	0xbcf92b97	-0.030416293
185	0x3d024bfc	0.031810746
186	0xbcc6ffe5	-0.024291942
187	0xbda996df	-0.082807295
188	0x3ca91477	0.020639641
189	0xbd06bd8a	-0.032895602
190	0xbd84cb1c	-0.064840525
191	0xbca65e76	-0.020308714
192	0xbd88625e	-0.06659387
193	0x3d37a05d	0.04483067
194	0xbc8c5887	-0.017132057
195	0xbd9fc4df	-0.07801222
196	0xbd807fa9	-0.06274349
197	0xbd92dc7d	-0.07170961
198	0xbcce2ac4	-0.025166877
199	0x3bcee505	0.0063139223
200	0xbd307311	-0.043078486
201	0xbd3fb6a9	-0.046805058
202	0x3c8d8dae	0.017279472
203	0xbd28510a	-0.04109291
204	0x3c056ce4	0.008143637
205	0x3d9e201c	0.07720968
206	0x3d6ccb2b	0.057810944
207	0x3cb426db	0.021991184
208	0xbc8e5504	-0.017374523
209	0x3cd8a22e	0.02644452
210	0x3c83e515	0.016100446
211	0x3c888b63	0.016668027
212	0x3b944d50	0.004525818
213	0xbce4fbea	-0.027952153
214	0xbd0a3e81	-0.033751015
215	0xbd75639c	-0.059909448
216	0xbd76290e	-0.060097747
217	0xbb8c4d3f	-0.0042816694
218	0x3daa911a	0.08328457
219	0x3c41ed72	0.0118363965
220	0xbca6a23a	-0.020341028
221	0x3dde6ae8	0.108602345
222	0xbd762192	-0.06009061
223	0x3a0f4f14	0.00054668006
224	0xbd49da65	-0.049280543
225	0x3d4364ea	0.04770366
226	0xbc91a24c	-0.017777584
227	0x3c4af2e0	0.0123870075
228	0x3c5d8048	0.013519354
229	0x3da62b4b	0.08113726
230	0xbd1508c4	-0.036385313
231	0x3c9d2f00	0.01918745
232	0x3db0d3ed	0.08634172
233	0x3d45763a	0.048208453
234	0x3d8a1c3f	0.06743669
235	0x3d5bcbd2	0.053661175
236	0xbc0f8380	-0.008759379
237	0xbd4ba1ea	-0.04971496
238	0xbc7f9db8	-0.015601568
239	0xbd7a7a5c	-0.061151847
240	0xbd9d752e	-0.07688366
241	0x3da007dd	0.07814
242	0x3db57697	0.0886051
243	0x3b3ebe20	0.0029105023
244	0x3dabf307	0.08395963
245	0x3d86670f	0.065626256
246	0xbb1a44c0	-0.0023539513
247	0x3ca20c64	0.019781299
248	0x3d98cbef	0.07460772
249	0xbbe68820	-0.0070352703
250	0xbd26aa17	-0.040689554
251	0xbd4c7939	-0.049920294
252	0x3d4d59ca	0.050134458
253	0x3d2155a6	0.03938832
254	0xbc8120e4	-0.015762754
255	0xbb3d3fe0	-0.0028877184

fc_net.fc_net.0.bias f4 [64]
0	0x3d4acab2	0.04950971
1	0xba5d9755	-0.0008453031
2	0x3d6656bc	0.05623506
3	0x3de3c651	0.1112181
4	0xbd616561	-0.055028323
5	0xbdae7424	-0.08518246
6	0x3d901f26	0.07037191
7	0x3c08b3a9	0.008343616
8	0xbd91b876	-0.07115261
9	0xbccba585	-0.0248592
10	0x3bde594a	0.0067855464
11	0x3d954ec3	0.07290413
12	0xbcdcee67	-0.026969148
13	0x3b2dea22	0.002653726
14	0x3d9a4ce3	0.07534196
15	0xbdbb6560	-0.09150195
16	0xbca9b997	-0.020718379
17	0x3d3ea20c	0.04654126
18	0xbd563773	-0.052298974
19	0x3d9eba56	0.077503845
20	0xbd642aaf	-0.05570477
21	0x3b0deaa1	0.0021654742
22	0xbbc708b3	-0.006074035
23	0x3d2ba82c	0.041908428
24	0xbd6d85f7	-0.057989087
25	0xbc11647c	-0.008874055
26	0x3d87b545	0.06626371
27	0x3c81171b	0.015758088
28	0x3d84ec63	0.064904
29	0x3db80a71	0.089863665
30	0x3d6dcc93	0.058056425
31	0x3d63fc6d	0.055660654
32	0xbdb46ab1	-0.08809412
33	0x3c8f1d4d	0.017470026
34	0xbd4bb39a	-0.04973183
35	0x3d3fb1bf	0.04680037
36	0x3d5fd451	0.05464584
37	0x3ccec271	0.025239201
38	0x3da5cb32	0.08095397
39	0xbd8540d5	-0.06506506
40	0x3d6962f5	0.05697914
41	0xbb273c58	-0.0025518145
42	0x3d2a01d1	0.04150564
43	0xbdd20f39	-0.1025681
44	0x3b948a33	0.004533076
45	0xbd9b0837	-0.07569926
46	0x3c29ef39	0.0103719765
47	0x3d015b0e	0.031580977
48	0xbba118d6	-0.0049162908
49	0xbca9f047	-0.020744456
50	0x3cfc742f	0.03081712
51	0x3d3b00c6	0.045655034
52	0xbb7d6681	-0.0038665833
53	0xbd55c364	-0.052188292
54	0xbcd33834	-0.025783636
55	0xbd947524	-0.07248905
56	0x3de5c081	0.11218358
57	0xbdb7eff6	-0.08981316
58	0xbd35e40d	-0.04440694
59	0xbdbc18ab	-0.091843925
60	0x3d3f7625	0.04674353
61	0xbc3ac59e	-0.011399655
62	0xbd43483d	-0.047676314
63	0x3d8b4812	0.06800856

fc_net.fc_net.2.weight f4 [64, 64]
0	0xbdb78920	-0.089617014
1	0x3d1691a4	0.036759987
2	0xbd804d34	-0.06264725
3	0xbdc3f980	-0.09569073
4	0x3d9b3ecb	0.07580336
5	0x3d0fdc70	0.035122335
6	0x3d95afaf	0.073088996
7	0xbca83f5d	-0.020538026
8	0x3dd9d2b3	0.10635891
9	0x3e0be99c	0.13663334
10	0x3b65156e	0.00349554
11	0x3caa42ee	0.020783868
12	0x3cb01c3e	0.021497842
13	0x3b5c6646	0.0033630296
14	0x3db12e9a	0.08651467
15	0x3a85d913	0.0010211788
16	0xbcb1e9c6	-0.021717917
17	0x3cbe5663	0.023234552
18	0xbd4af152	-0.049546547
19	0xbdd2a4d9	-0.102853484
20	0x3d5f3d9e	0.054502122
21	0x3d9b2036	0.07574503
22	0xbc3afa78	-0.0114122555
23	0x3daa0a22	0.08302714
24	0xbce02a52	-0.02736393
25	0xbc9a589c	-0.01884108
26	0xbdb308b2	-0.08741893
27	0xbd8798e0	-0.066209555
28	0x3d2f96ce	0.042868428
29	0xbd52fd37	-0.051511016
30	0x3c2876ce	0.0102822315
31	0x3d8a20cb	0.06744536
32	0x3a41a804	0.0007387402
33	0xbcfb165c	-0.03065031
34	0x3dac3a8b	0.08409604
35	0x3d9f0aba	0.07765718
36	0x3dd4a683	0.10383322
37	0x3dfd5a00	0.12370682
38	0xbe126724	-0.14297158
39	0x3d9cced7	0.07656639
40	0xbd5ac16f	-0.05340713
41	0xbd181582	-0.037129886
42	0x3df83a00	0.121204376
43	0xbcc9df8d	-0.02464273
44	0x3df95f31	0.121763594
45	0x3cc8538d	0.024453903
46	0x3db9cd50	0.090723634
47	0xbc20e89a	-0.0098210815
48	0xbc84a61b	-0.016192487
49	0x3cdca688	0.026934877
50	0xbc88e7c0	-0.01671207
51	0xbda69ba4	-0.08135155
52	0xbd5167a8	-0.051124245
53	0xbdcc877a	-0.099867776
54	0x3d34f14a	0.044175424
55	0xbe003195	-0.12518914
56	0xbbc3fb9b	-0.0059809214
57	0xbdf2a5aa	-0.11848004
58	0xbdaee653	-0.085400246
59	0xbdf2176b	-0.11820873
60	0xbd0a93fd	-0.03383254
61	0xbdfa9dde	-0.12237142
62	0xbd756a13	-0.059915613
63	0xbdffed30	-0.12496412
64	0x3d3d6e07	0.04624751
65	0x3dab05bc	0.08350703
66	0x3d837633	0.06419029
67	0x3df58f57	0.119902305
68	0x3dca4cf6	0.098779604
69	0xbb6dc046	-0.0036277934
70	0x3c8efe71	0.017455311
71	0xbbe5c7c4	-0.0070123393
72	0xbd2e175f	-0.042502757
73	0x3d73c28b	0.059511703
74	0x3d0b603e	0.03402733
75	0xbdf8271e	-0.12116836
76	0xbdd972b5	-0.10617582
77	0x3dbafe9f	0.09130596
78	0xbd5e0313	-0.05420215
79	0xbdee7040	-0.11642504
80	0x3d85cf7f	0.06533717
81	0xbdc40199	-0.09570617
82	0xbdca7124	-0.09884861
83	0x3d10c15e	0.03534066
84	0x3db4a303	0.088201545
85	0xbdc1be3e	-0.09460114
86	0x3d51776a	0.051139273
87	0xbdcfe6b7	-0.10151427
88	0x3d317165	0.043321032
89	0x3d34c379	0.04413173
90	0x3d8f7127	0.07004004
91	0xbe059d3a	-0.13048258
92	0x3cf0c19e	0.029389199
93	0x3d2c6003	0.04208375
94	0xbd95078f	-0.07276832
95	0x3d45b7a5	0.04827084
96	0x3d16a650	0.0367797
97	0x3daaa134	0.08331528
98	0x3d604da4	0.054761544
99	0xbc0296da	-0.007970536
100	0x3d99e8fe	0.07515143
101	0x3c8eb4c6	0.017420184
102	0x3db392f7	0.08768266
103	0x3d16a4a8	0.036778122
104	0xbcbf1c4c	-0.023328923
105	0x3dd71e15	0.105037846
106	0xbca58754	-0.020206131
107	0x3d2c9c03	0.042140972
108	0xbdbb4f6d	-0.09146009
109	0xbdb35e2b	-0.087581955
110	0xbc0eb056	-0.008709034
111	0x3d8cb5b0	0.06870592
112	0xbdc64962	-0.096819654
113	0xbce16947	-0.02751602
114	0xbdb6cc1d	-0.0892565
115	0xbdab6462	-0.08368756
116	0xbda77343	-0.08176281
117	0xbb97e5e2	-0.0046355585
118	0x3d8293e2	0.06375863
119	0x3db0dc08	0.08635718
120	0x3c3d467f	0.011552452
121	0xbd94c1e6	-0.07263546
122	0xbd300b02	-0.042979248
123	0x3d16b9e2	0.036798365
124	0x3b4d8342	0.0031358753
125	0xbdc6ec43	-0.09713032
126	0x3cac065d	0.020999128
127	0xbd2bfea3	-0.041990887
128	0x3dcaf413	0.09909835
129	0x3d85c013	0.06530776
130	0xbaf2daca	-0.0018528339
131	0x3dd29ca6	0.102837846
132	0x3cd6d830	0.026226133
133	0x3d4125f6	0.047155343
134	0x3d57b90c	0.05266671
135	0x3dd5150c	0.10404405
136	0xbd9abb7e	-0.075552925
137	0xbe09e446	-0.13465986
138	0x3d979cd6	0.07402961
139	0x3c7fcc5c	0.015612688
140	0xbd993750	-0.07481253
141	0xbdbcf14d	-0.09225712
142	0x3ba83e78	0.0051344
143	0xbdf632cb	-0.12021407
144	0xbe105d82	-0.1409817
145	0x3ccbf6f2	0.024898026
146	0x3d9a66bb	0.075391255
147	0xbd91624e	-0.07098828
148	0xbde796d8	-0.11308068
149	0x3d228a3f	0.039682623
150	0x3cfcd0c8	0.030861273
151	0x3de22544	0.11042264
152	0x3e1820ab	0.14856212
153	0xbdd895a4	-0.10575417
154	0xbdc93cdc	-0.09826061
155	0xbdbf49bf	-0.09340238
156	0xbc52a53e	-0.01285678
157	0x3e0ab658	0.13546121
158	0x3ddafac6	0.106923625
159	0xbd5aa749	-0.05338219
160	0xbc31180a	-0.010808954
161	0x3daacf3f	0.0834031
162	0xbd472784	-0.04862167
163	0x3c37e451	0.0112238685
164	0xbbc1f479	-0.005919036
165	0x3d23d6a1	0.039999608
166	0xbb8c9865	-0.004290628
167	0x3dc2892c	0.0949882
168	0x3d3478a3	0.04406036
169	0x3d41d85a	0.04732547
170	0xbd758a84	-0.059946552
171	0xbe05c691	-0.13064028
172	0x3daac803	0.083389305
173	0xbd5b775b	-0.053580623
174	0xbc8c3e80	-0.017119646
175	0xbdc465f3	-0.09589758
176	0x3afcfb66	0.0019300997
177	0xbd3a37c8	-0.045463353
178	0xbd3b10ba	-0.04567025
179	0x3d9bd767	0.07609444
180	0xbdb24c5e	-0.08705972
181	0x3dc750df	0.09732222
182	0x3da381d4	0.07983747
183	0xbdf67d39	-0.12035603
184	0x3d32220f	0.043489512
185	0x3cc01cc7	0.023451222
186	0x3d45c403	0.048282634
187	0xbe0dba2b	-0.13840549
188	0xbd86b6a4	-0.06577805
189	0xbd92113d	-0.07132194
190	0xbb6fdbf2	-0.0036599603
191	0xbd3bca41	-0.04584718
192	0x3df5f469	0.12009508
193	0xbd5e86b7	-0.054327693
194	0xbc217d46	-0.009856528
195	0x3bd34994	0.00644798
196	0xbdaafda1	-0.08349157
197	0x3de845e0	0.113414526
198	0x3ddcff8c	0.10790929
199	0x3e0654f4	0.13118345
200	0x3dd1e5b4	0.102488905
201	0x3d01001f	0.031494256
202	0x3de17b04	0.110097915
203	0xbb844903	-0.004037024
204	0xbd916056	-0.07098453
205	0xbe11059e	-0.14162299
206	0xbc1cfd05	-0.009581809
207	0x3ba99656	0.005175392
208	0xbd946be1	-0.07247139
209	0x3dd00847	0.10157829
210	0x3da7335b	0.08164092
211	0x3e10f180	0.14154625
212	0x3da32ab6	0.07967131
213	0x3d037e62	0.03210295
214	0xbb2e5613	-0.0026601597
215	0xbc273b97	-0.010207078
216	0x3d3570d4	0.044297054
217	0xbd19b8d2	-0.037529774
218	0xbc2d43a1	-0.010575206
219	0x3cce50f4	0.025185086
220	0xbdea9671	-0.11454476
221	0xbc97420d	-0.018464113
222	0xbd6d2cf2	-0.05790419
223	0xbe25f725	-0.1620756
224	0xbd7195d6	-0.058980785
225	0xbd63c179	-0.05560443
226	0x3da6f981	0.08153058
227	0xbd660be4	-0.056163684
228	0x3dcbd46e	0.09952627
229	0x3dea3db5	0.11437551
230	0xbdcd00b7	-0.10009902
231	0x3db38c19	0.08766956
232	0xbd12e6e5	-0.03586473
233	0x3c135310	0.008991972
234	0x3c49d99e	0.01231995
235	0xbca63a3a	-0.020291436
236	0xbd9588b7	-0.07301467
237	0xbd013c0c	-0.031551406
238	0x3e11d88a	0.1424276
239	0xbcfdeae7	-0.0309958
240	0xbdc66582	-0.0968733
241	0x3d5a0cdb	0.053234916
242	0x3de6ff2b	0.11279138
243	0xbc354dd8	-0.011065923
244	0xbe0bb4eb	-0.13643233
245	0xbc8c1eb2	-0.01710448
246	0x3dbb9e2a	0.09161027
247	0xbdaf259c	-0.08552095
248	0x3e06a5e7	0.13149224
249	0x3d25dd54	0.040494278
250	0x3d1a7584	0.037709728
251	0x39858e7a	0.0002547389
252	0x3e107157	0.14105736
253	0xbddf83bd	-0.10913799
254	0xbd3451d1	-0.04402334
255	0x3c855f6c	0.016280852

fc_net.fc_net.2.bias f4 [64]
0	0xbd408279	-0.04699943
1	0x3d0d97db	0.03456865
2	0x3d649c3a	0.05581305
3	0x3d0617b2	0.03273744
4	0xbc052661	-0.008126826
5	0x3d2c2f4c	0.042037293
6	0x3bdb1ca6	0.006686765
7	0xbca61702	-0.020274643
8	0x3d9ee39b	0.07758256
9	0x3d317bd2	0.043330975
10	0x3d32c077	0.04364058
11	0xbb82a8cb	-0.003987407
12	0xbdd111ec	-0.102084965
13	0x3dad570e	0.0846387
14	0x3db5c87b	0.08876129
15	0x3d6e78b5	0.058220584
16	0x3dd76ba0	0.10518575
17	0x3da0fdcb	0.07860907
18	0x3d33b97d	0.043878067
19	0xbdf81a62	-0.12114407
20	0xbbe39409	-0.0069451374
21	0xbd85fdc0	-0.065425396
22	0x3ceea8de	0.029133257
23	0xbd50464a	-0.050848283
24	0xbd807b1b	-0.062734805
25	0xbda5e497	-0.08100241
26	0x3de651d9	0.1124608
27	0xbc183952	-0.00929101
28	0xbdb53cbb	-0.08849474
29	0x3cc6d6f6	0.024272423
30	0x3de32fd3	0.11093106
31	0x3dff7e19	0.12475223
32	0x3dafb81a	0.085800365
33	0x3cfcc48f	0.030855445
34	0xbd8f6454	-0.07001558
35	0x3d27b141	0.040940527
36	0x3dbb98ba	0.0915999
37	0xbbb0bb5b	-0.0053934283
38	0xbd185292	-0.03718812
39	0xbd2c8308	-0.04211715
40	0xbcd66fa2	-0.026176278
41	0x3deb4964	0.114886075
42	0xbc2342a2	-0.009964617
43	0x3c275cf8	0.010215037
44	0xbd338090	-0.04382378
45	0x3b85c1a3	0.004081921
46	0x3dc402f8	0.09570879
47	0x3d8d453e	0.068979725
48	0x3db5ffc0	0.08886671
49	0xbdcca1e8	-0.09991819
50	0xbc959749	-0.018260615
51	0xbdfb4875	-0.122696795
52	0xbbd3260c	-0.0064437445
53	0x3d386990	0.045022547
54	0xbd8b3a96	-0.06798284
55	0xbc3879c8	-0.011259504
56	0x3dc3e0ff	0.09564399
57	0xbd45fa1e	-0.048334233
58	0x3d1c4c03	0.038158428
59	0xbdd563f6	-0.10419457
60	0x3d2df0fa	0.04246614
61	0x3cf40f29	0.029792385
62	0x3cd37048	0.025810376
63	0xbde28442	-0.110603824

action_head.weight f4 [5, 64]
0	0x3de84f3e	0.11343239
1	0xbd8502ee	-0.064946994
2	0xbd2e360f	-0.042532023
3	0x3e06b4b2	0.13154867
4	0x3b109543	0.0022061623
5	0x3c960a7a	0.018315542
6	0x3daaeb23	0.0834563
7	0x3db6598f	0.08903801
8	0xbd4c15f4	-0.049825624
9	0x3cb66030	0.022262663
10	0x3c94fac3	0.018185979
11	0xbd1de986	-0.038552783
12	0xbda21dfa	-0.07915874
13	0xbda86f42	-0.08224346
14	0xbccaace2	-0.02474064
15	0x3c862157	0.01637332
16	0x3c6e4ac4	0.014544193
17	0xbd52bbd0	-0.051448643
18	0xbd524965	-0.051339526
19	0xbdc90eb1	-0.09817255
20	0xbe0789d6	-0.13236174
21	0x3dc007b2	0.09376468
22	0x3b26356d	0.0025361434
23	0x3daeff77	0.0854482
24	0xbdbed815	-0.09318558
25	0xbd689026	-0.056778096
26	0xbdc092b0	-0.094029784
27	0x3d94fd7b	0.0727491
28	0xbd9a8a46	-0.07545905
29	0xbde77248	-0.11301094
30	0x3d08f897	0.0334402
31	0xbd5cfff1	-0.053955022
32	0x3dd8fab3	0.10594692
33	0x3d0a1ead	0.03372066
34	0xbd919a59	-0.071095176
35	0x3e02f269	0.12787785
36	0x3e0a3aa2	0.13498929
37	0x3d8dfc04	0.06932834
38	0x3dce34d6	0.100686714
39	0x3dd76b07	0.10518461
40	0x3c528537	0.012849144
41	0x3df65861	0.12028576
42	0xbd789954	-0.0606931
43	0x3d1c276a	0.038123526
44	0xbdc8c50b	-0.09803208
45	0xbda85e57	-0.08221119
46	0x3e1dbb1e	0.15403411
47	0x3d95ac1f	0.0730822
48	0x3d556ca2	0.052105553
49	0xbdb296bf	-0.08720159
50	0x3ca2297d	0.019795174
51	0x3ceeea04	0.029164322
52	0x3dbf6fb6	0.09347479
53	0x3aee6db4	0.0018190653
54	0xbd5a32bf	-0.05327105
55	0x3dcd3eae	0.10021721
56	0x3e11ffdb	0.14257757
57	0xbda30bce	-0.07961236
58	0x3c3b5ed9	0.011436188
59	0x3d2a63e5	0.041599173
60	0xbc50d8d8	-0.012747012
61	0x3e19b395	0.15009911
62	0x3e014ff0	0.1262815
63	0x3d4ae72a	0.04953686
64	0x3d8ce7f3	0.06880178
65	0x3d1600a4	0.036621705
66	0x3cc6d8ff	0.024273394
67	0x3c05dc12	0.008170145
68	0xbd94bc7f	-0.07262515
69	0x3da4eab1	0.08052576
70	0x3daa5a9b	0.08318063
71	0x3d805129	0.0626548
72	0x3dceb9fe	0.10094069
73	0x3d3ddb4c	0.046351716
74	0x3d18149c	0.03712903
75	0xbdafa1b6	-0.08575766
76	0xbcb4f494	-0.02208928
77	0x3dddfa14	0.10838714
78	0xbd803aa8	-0.06261188
79	0xbdb63165	-0.0889614
80	0x3de012c3	0.109410785
81	0x3b9949d7	0.004677992
82	0x3d668b90	0.05628544
83	0xbda59f4d	-0.08087025
84	0xbd1b69f2	-0.037942834
85	0x3cb34ea9	0.021888094
86	0xbbf2e2b3	-0.0074122786
87	0x3d3f6961	0.046731357
88	0x3d39394e	0.045220666
89	0xbd0d97fe	-0.03456878
90	0x3d679048	0.05653408
91	0x3d73fc7c	0.05956696
92	0xbd2b3d3c	-0.041806445
93	0xbcc1d5ff	-0.023661612
94	0x3de2bebf	0.11071538
95	0x3d7f8273	0.062380265
96	0xbdd3c6cf	-0.10340654
97	0xbd8d56ba	-0.069013074
98	0xbc99e400	-0.018785477
99	0x3c94f4f7	0.018183215
100	0xbc14fd36	-0.009093573
101	0xbd8e53e9	-0.06949598
102	0x3c505018	0.012714408
103	0xbd05f228	-0.03270164
104	0x3b0d794e	0.0021587196
105	0x3d60ba31	0.054865066
106	0xbc6b2f67	-0.014354563
107	0xbcbc231f	-0.022965966
108	0xbd9da6cc	-0.076978296
109	0xbd0378fc	-0.0320978
110	0x3d8d0388	0.06885439
111	0xbdda0074	-0.10644618
112	0x3d91d841	0.07121325
113	0xbbe340a9	-0.0069351983
114	0xbcf241cc	-0.02957239
115	0xbd402834	-0.04691334
116	0xbdc8ee86	-0.0981112
117	0x3dabe146	0.08392577
118	0x3d3e30d4	0.046433285
119	0x3df51421	0.1196673
120	0x3daf2694	0.0855228
121	0x3d3a6680	0.045507908
122	0x3d9e7418	0.07736987
123	0xbdaafbf8	-0.083488405
124	0x3cc1a078	0.023636088
125	0x3dec998c	0.11552724
126	0x3ced6be0	0.028982103
127	0xbe028e2b	-0.12749545
128	0x3df6f565	0.12058524
129	0xbda25735	-0.0792679
130	0xbe2b7742	-0.16744712
131	0xbdc70527	-0.097177796
132	0xbdc0fd28	-0.09423286
133	0x3dcc208c	0.09967145
134	0x3d18abc8	0.0372732
135	0xbc7d11b9	-0.01544612
136	0xbdfe4942	-0.124163166
137	0x3caaf078	0.020866618
138	0x3daf9326	0.08572988
139	0xbdc36fd3	-0.09542813
140	0xbe13fe58	-0.14452493
141	0x3daee021	0.08538843
142	0xbe15f079	-0.14642514
143	0x3d07e19d	0.033174146
144	0xbdd48fc3	-0.10378983
145	0x3d891c22	0.06694819
146	0xbdaaedc0	-0.083461285
147	0x3ddd756b	0.10813411
148	0xbd1f6a49	-0.03891972
149	0xbe167a7b	-0.1469516
150	0xbd18b259	-0.03727946
151	0x3e0e909a	0.13922349
152	0x3d4ce450	0.050022423
153	0x3d6d4713	0.05792911
154	0xbdd74f0e	-0.10513125
155	0xbd56f459	-0.05247912
156	0x3d5f415d	0.054505695
157	0x3ba02767	0.0048875096
158	0xbe08c44d	-0.13356133
159	0x3d8e1bb2	0.06938876
160	0xbd7c60ab	-0.061615627
161	0xbe09eb9e	-0.13468787
162	0x3daa33ec	0.083106846
163	0xbca54876	-0.020176154
164	0xbc247d58	-0.01003965
165	0x3cecdc17	0.02891354
166	0xbd5b8adb	-0.05359922
167	0x3e0ea629	0.13930573
168	0xbe0f59d5	-0.13999112
169	0xbd1ce219	-0.03830156
170	0xbe00d52a	-0.12581316
171	0xbb50d792	-0.0031866771
172	0x3ddd0adf	0.10793089
173	0x3e14eaa3	0.14542632
174	0xbdf235ca	-0.11826666
175	0x3c8bc8bb	0.01706349
176	0x3d90e3da	0.07074709
177	0xbdec87dc	-0.115493506
178	0xbc8360e1	-0.016037406
179	0x3df6522c	0.12027392
180	0x3ca94c54	0.020666279
181	0x3c45e09e	0.012077479
182	0x3cd6cae7	0.026219798
183	0xbdbffb06	-0.09374051
184	0xbe162a1e	-0.14664504
185	0xbd05fd72	-0.032712407
186	0x3deb29d6	0.11482589
187	0x3e0a19cf	0.13486408
188	0xbe096280	-0.13416481
189	0x3d848f15	0.06472603
190	0xbce7f53e	-0.028315183
191	0x3d0c9f6c	0.034331724
192	0x3d96fdda	0.07372637
193	0xbd23c178	-0.039979428
194	0x3d52456a	0.05133573
195	0x3e043115	0.12909348
196	0x3dec4083	0.11535742
197	0x3c393dad	0.011306209
198	0x3dc741ad	0.097293235
199	0x3bd13ebc	0.0063856523
200	0x3dda9ca6	0.106744096
201	0xbd54530e	-0.05183702
202	0x3d676e9b	0.056501966
203	0x3d533381	0.05156279
204	0x3dd69c1c	0.10478994
205	0xbdbedd90	-0.093196034
206	0x3caf475a	0.021396328
207	0xbb9059c7	-0.0044052335
208	0xbd9fd3fb	-0.07804104
209	0xbd19453f	-0.037419554
210	0xbdf7d93e	-0.121019825
211	0xbd1b3666	-0.037893675
212	0xbcca6140	-0.024704576
213	0xbdbc32bb	-0.091893636
214	0x3dcd85a1	0.10035253
215	0x3cf2776a	0.029597957
216	0xbcd1aadf	-0.025594173
217	0xbc740c4b	-0.014895509
218	0x3dd0ef22	0.10201861
219	0x3d4e13f1	0.050311986
220	0x3e0722d0	0.13196874
221	0xbdda402e	-0.106567726
222	0xbd81dd54	-0.06341043
223	0xbd809729	-0.062788315
224	0x3d606362	0.05478228
225	0x3e18e8bf	0.14932536
226	0x3cdcbf92	0.026946817
227	0x3d35f689	0.044424567
228	0x3d9122ea	0.070867375
229	0xbd1e9626	-0.03871741
230	0xbdc1eb28	-0.094686806
231	0x3d871fb3	0.06597843
232	0x3e0dbfd5	0.1384271
233	0x3d70aa92	0.05875642
234	0x3dbdbcce	0.09264527
235	0xbd67c35c	-0.056582794
236	0x3d38e83e	0.04514336
237	0x3cedbd9b	0.029021075
238	0x3df7f449	0.121071406
239	0x3d0ab73f	0.033866163
240	0xbd25ccf0	-0.040478647
241	0xbbbbc55d	-0.0057303146
242	0x3ce1303a	0.027488817
243	0xbdda4f21	-0.10659624
244	0xbd8794d3	-0.06620183
245	0xba8e69d0	-0.0010865275
246	0xbccbb635	-0.024867157
247	0xbdb37afc	-0.08763692
248	0xbd88e738	-0.066847265
249	0xbd9d09f5	-0.07667915
250	0xbcfdc7f9	-0.030979143
251	0xbdbfa8ae	-0.09358345
252	0x3e1283b1	0.14308049
253	0x3e07daf0	0.13267112
254	0x3c4e92b3	0.012608218
255	0x3c1b9b97	0.009497545

action_head.bias f4 [5]
0	0x3d6ac1b7	0.057313647
1	0x3d6e4f38	0.058181018
2	0xbd2d29be	-0.042276137
3	0x3d85d057	0.06533878
4	0x3d5b6180	0.05355978

value_head.weight f4 [1, 64]
0	0x3c97e928	0.018543795
1	0x3de54160	0.1119411
2	0xbb6248e2	-0.0034528305
3	0x3d899a0a	0.06718834
4	0xbc19bb34	-0.009383012
5	0x3bb31f53	0.0054663806
6	0x3cb6956b	0.022288045
7	0x3e011be2	0.12608293
8	0xbcd1a7af	-0.025592653
9	0xbd0e546a	-0.034748472
10	0x3d036230	0.03207606
11	0xbaf10c27	-0.0018390463
12	0x3d5a0c03	0.05323411
13	0xbc7493ee	-0.014927847
14	0xbcf6adfc	-0.03011226
15	0xbd039c9b	-0.032131772
16	0x3d8f8823	0.07008388
17	0x3dd4db99	0.103934474
18	0x3d79c24d	0.060976315
19	0x3d148036	0.036255084
20	0x3d673c32	0.05645389
21	0x3c983da2	0.018584076
22	0x3d1f18c9	0.038841996
23	0xbd9189d8	-0.0710637
24	0x3d20032e	0.039065532
25	0xbd856c54	-0.065148026
26	0x3db6659a	0.08906098
27	0xbd96199f	-0.073291056
28	0xbd680d0c	-0.056653067
29	0xbd9e74c6	-0.077371165
30	0xbb283f38	-0.0025672447
31	0x3cefbba4	0.029264279
32	0x3d53c6ec	0.05170338
33	0x3a48adb3	0.0007655278
34	0x3de44518	0.11145991
35	0x3dbe8705	0.09303097
36	0x3d3199d6	0.0433596
37	0xbdf44478	-0.11927122
38	0xbd980e2d	-0.07424579
39	0x3ce44872	0.027866576
40	0x3de0343f	0.10947465
41	0x3d2d5660	0.0423187
42	0xbdb75369	-0.08951456
43	0x3bb89cef	0.0056339423
44	0xbd491b82	-0.0490985
45	0xbd254bea	-0.0403556
46	0xbcbd6e2b	-0.023123821
47	0x3d48e049	0.04904202
48	0xbda132a2	-0.078709856
49	0x3d6ad77b	0.057334404
50	0x3c2e6d07	0.010646111
51	0xb869f1ae	-5.577661e-05
52	0x3ddb9c1a	0.107231334
53	0xbd978345	-0.073980846
54	0xbd56a5ae	-0.0524041
55	0xbd9dd979	-0.07707495
56	0xbde07b55	-0.10961024
57	0xbd8d0b76	-0.068869516
58	0x3d5c0938	0.05371973
59	0xbd548b61	-0.051890735
60	0xbd956f0d	-0.07296572
61	0x3d4f9e6f	0.050688203
62	0xbd44e275	-0.04806753
63	0x3de5c418	0.112190425
