2022/20-华立民 指导老师-马里佳/code/tests/2-agents_domain-PredatorPrey-2_adversaryratio-0.25_RADAR_X_2022-11-30-23-01-34/protagonist_model.pth (torch, 52943 bytes, 7 tensors)

fc_net.fc_net.0.weight f4 [64, 125]
0	0x3c4244a8	0.011857189
1	0x3cb8479c	0.022495084
2	0xbd4861eb	-0.048921507
3	0x3d76b21a	0.060228445
4	0xbc2b7ae8	-0.010466315
5	0x3cac28f4	0.021015622
6	0x3d86380b	0.06553658
7	0xbd8a00d3	-0.067384385
8	0x3cfea2b0	0.031083435
9	0x3c5c3a88	0.013441689
10	0xbd9334f4	-0.071878344
11	0xbd5d005b	-0.053955417
12	0xbd1718a4	-0.036888734
13	0x3bb8a480	0.0056348443
14	0xbd4a5c18	-0.049404234
15	0xbcf49ae0	-0.029859006
16	0xbc866504	-0.01640559
17	0xbd6ee9e5	-0.058328528
18	0x3cc88104	0.024475582
19	0xbd33a009	-0.043853793
20	0xba491780	-0.0007671043
21	0xbc911888	-0.017711893
22	0xbbdd7a60	-0.006758973
23	0xbcb1119c	-0.021614842
24	0x3d1db152	0.038499184
25	0x3d9688a9	0.073502846
26	0x3d4756b2	0.048666663
27	0xbd0383d8	-0.032108158
28	0xba3df965	-0.00072469405
29	0xbd87bd71	-0.0662793
30	0x3d50540f	0.050861415
31	0xbd9bcde2	-0.076076284
32	0x3d75d750	0.06001979
33	0xbc6c7bd7	-0.014433823
34	0xbda6f9eb	-0.08153137
35	0x3cd3936f	0.025827138
36	0x3bf15814	0.007365236
37	0xbc65962e	-0.014012856
38	0xbcc8a738	-0.024493799
39	0x3d78b996	0.060723864
40	0xbdb83e39	-0.08996243
41	0xbd98d8eb	-0.07463249
42	0x3c866b37	0.016408546
43	0xbd3fc2b1	-0.04681653
44	0x3c9f65cf	0.019457726
45	0x3d1da1cd	0.038484383
46	0x3d3f657a	0.046727635
47	0xbcf7f8a6	-0.030269932
48	0xbbf5d969	-0.007502724
49	0xbce2c5b6	-0.027682167
50	0x3de9607b	0.11395355
51	0x3d76940e	0.06019979
52	0x3adeab67	0.0016988338
53	0xbd68d61c	-0.056844816
54	0x3c1b824b	0.0094915135
55	0x39e0d766	0.00042885094
56	0x3dc40b19	0.09572429
57	0x3d92e2b9	0.0717215
58	0x3cfee4a8	0.031114891
59	0xbd93940b	-0.07205971
60	0x3d948d81	0.07253552
61	0xbbf8105d	-0.00757031
62	0x3dce8690	0.100842595
63	0x3d10fec7	0.035399225
64	0x3d01cede	0.031691425
65	0xbbc99771	-0.0061520864
66	0xbdc1be1c	-0.094600886
67	0xbccd5e1a	-0.025069285
68	0x3d36c9ac	0.044625923
69	0x3d86e169	0.06585962
70	0x3b58c461	0.0033076035
71	0x3c0347a5	0.008012687
72	0x3d06bd0b	0.03289513
73	0x3d08e4d1	0.03342134
74	0xbc168778	-0.009187572
75	0xbdb3663e	-0.087597355
76	0xbbc1e0b5	-0.0059166797
77	0xbdd1f09f	-0.10250973
78	0xbda500d7	-0.08056801
79	0x3d197748	0.03746727
80	0xbd9ed3a1	-0.07755209
81	0x3d57dc81	0.052700523
82	0x3d56a80d	0.05240636
83	0xbd6e0a0e	-0.058115058
84	0xbd9077ba	-0.07054086
85	0xbcc21ac2	-0.0236944
86	0x3cdb75a6	0.026789498
87	0xbcae8eb4	-0.02130828
88	0x3cc55e10	0.024092704
89	0x3d81e2f6	0.063421175
90	0xbd4b9c1a	-0.049709417
91	0x3dc1a45b	0.094551764
92	0xbcd786cf	-0.026309399
93	0x3ab77a81	0.0013998301
94	0x3d2e911c	0.042618856
95	0xbd97fc36	-0.07421152
96	0x3c6ed46a	0.014577011
97	0x3ddce8c7	0.10786586
98	0x3d93a778	0.072096765
99	0xb9d80a63	-0.0004120647
100	0xbd5271d8	-0.0513781
101	0x3d56d23e	0.052446596
102	0xbd75f072	-0.06004376
103	0x3d9a8ae9	0.07546026
104	0x3db2adc5	0.0872455
105	0x3c25ea90	0.010126725
106	0xbc820b08	-0.0158744
107	0xbd556789	-0.052100692
108	0x3c805834	0.015667059
109	0xbb989140	-0.004655987
110	0xbcc7b304	-0.024377353
111	0xbd7eea8a	-0.062235393
112	0xba9092c0	-0.0011030063
113	0x3d960017	0.07324236
114	0xbd924dc0	-0.07143736
115	0xbc1a3100	-0.009411097
116	0x3d247c9a	0.04015789
117	0xbd0f7f61	-0.035033587
118	0xbcb60ca4	-0.022222824
119	0x3cfc12b4	0.030770637
120	0x3da65e5f	0.081234686
121	0xbc06ea08	-0.008234508
122	0x3d4769be	0.048684828
123	0x3cbfd0cc	0.023414992
124	0x3cbb160c	0.022837661
125	0xbdaf7c4d	-0.0856863
126	0xbd9f5774	-0.07780352
127	0x3db27ae3	0.08714845
128	0xbcff8af8	-0.031194195
129	0x3d9db2d3	0.07700124
130	0x3d434a1a	0.04767809
131	0x3d50459e	0.050847642
132	0xbdacd05b	-0.08438178
133	0x3db0a405	0.08625034
134	0x3cd78e74	0.026313044
135	0x3c1af3a8	0.009457506
136	0x3d8c0e67	0.068386845
137	0x3d9012df	0.070348494
138	0xbd210020	-0.03930676
139	0xbd4be73b	-0.049781065
140	0xbc1ecfc8	-0.009693094
141	0x3d967b9f	0.073477976
142	0xbd394bb4	-0.04523821
143	0xbd7b1f0e	-0.061308913
144	0x3b020c80	0.0019843876
145	0xbda5b688	-0.08091456
146	0x3ce775d0	0.02825442
147	0xbb766d80	-0.0037601888
148	0x3c1143f8	0.008866303
149	0x3d5daaee	0.05411809
150	0xbd9e5687	-0.077313475
151	0xbd3fac6f	-0.046795305
152	0xbd8a8693	-0.06763949
153	0xbd807457	-0.0627219
154	0x3d269620	0.040670514
155	0xbda63e89	-0.081173964
156	0xbcdf7c39	-0.027280914
157	0xbda08368	-0.07837564
158	0xbd1e5ac2	-0.038660772
159	0xbd2f879f	-0.042853948
160	0x3d17db0e	0.03707414
161	0xbd24f1a6	-0.040269516
162	0x3da81128	0.08206397
163	0xbd0953a1	-0.03352702
164	0x3c8a2829	0.016864853
165	0xbd246eb7	-0.04014465
166	0xbd32c0a6	-0.043640755
167	0xbb9c0d19	-0.0047623035
168	0x3c634d06	0.013873344
169	0x3d965033	0.073395155
170	0x3d9625ac	0.07331404
171	0xbd43e6eb	-0.047827642
172	0x3da34fe5	0.07974223
173	0xbc4ec97d	-0.012621281
174	0x3d351dc5	0.044217844
175	0x3d3da51e	0.046300046
176	0xbd43630a	-0.047701873
177	0x3d0a4431	0.03375644
178	0xbd3c2116	-0.04592999
179	0x3c183562	0.009290071
180	0x3b94ffcb	0.0045470945
181	0xbc5bb9f0	-0.01341103
182	0xbd9792c5	-0.07401041
183	0x3d4993b6	0.049213134
184	0x3c0d625c	0.008629408
185	0x3d3010d5	0.042984802
186	0x3b8eea35	0.0043614157
187	0xbd3dab52	-0.046305962
188	0x3e1900db	0.14941733
189	0x3cb0692e	0.021534529
190	0xbd365732	-0.04451675
191	0xbd644be4	-0.055736437
192	0x3bedf7ae	0.0072621917
193	0xbd22d93f	-0.039757963
194	0xbd53136d	-0.051532198
195	0x3da9c7cb	0.082900606
196	0xbc192779	-0.00934779
197	0x3b1945f2	0.0023387638
198	0xbdadba4a	-0.084827974
199	0xbd6df7f2	-0.058097787
200	0xbc873ecd	-0.016509438
201	0x3da1fb11	0.07909215
202	0x3cfb1a64	0.030652232
203	0x3d1cfa30	0.038324535
204	0xbd352889	-0.04422811
205	0x3dd906f2	0.10597028
206	0x3d5ae0ba	0.053436972
207	0xbc23d111	-0.009998576
208	0xbd30adb3	-0.043134402
209	0x3be8aa11	0.0071003516
210	0x3d423c97	0.047421064
211	0x3c1980d8	0.009369098
212	0x3ced3bb4	0.028959133
213	0xbcbd9b4a	-0.023145337
214	0x3db1ed4c	0.08687839
215	0x3d23015e	0.039796226
216	0x3d4ce25d	0.050020564
217	0xbdbae78b	-0.091261946
218	0xbd874f35	-0.066069044
219	0xbd494874	-0.049141362
220	0xbc418795	-0.01181211
221	0x3cac475f	0.021030126
222	0x3c960215	0.01831154
223	0xbd590c6f	-0.052990373
224	0x3d93b954	0.07213083
225	0xbdb63ffe	-0.08898924
226	0xbd92376d	-0.07139478
227	0x3c6c6ac0	0.014429748
228	0xbd90aab6	-0.070638105
229	0x3ca70a64	0.020390697
230	0xbc79c630	-0.0152450055
231	0xbd65dc58	-0.05611834
232	0x3cf2bdfc	0.029631607
233	0xbd87c59c	-0.06629488
234	0xbdb147f8	-0.08656305
235	0x3d8aafa7	0.06771784
236	0x3d25249a	0.04031811
237	0x3cbd4e4c	0.023108624
238	0xbc3f7f28	-0.011688031
239	0x3d060a0a	0.032724418
240	0x3d92c0ab	0.07165655
241	0xba333a80	-0.0006837025
242	0xbc41b458	-0.011822782
243	0x3d97328f	0.0738269
244	0xbcbaaeb8	-0.02278839
245	0x3da6b5a3	0.08140113
246	0x3cadfae0	0.02123779
247	0xbce75a56	-0.028241318
248	0x3b96f800	0.0046072006
249	0xbd9cb240	-0.07651186
250	0x3d647efe	0.05578517
251	0x3d61728a	0.055040874
252	0xbd182ca5	-0.03715195
253	0xbd8c13ae	-0.06839691
254	0x3d855ea7	0.06512194
255	0x3cdea210	0.027176887

fc_net.fc_net.0.bias f4 [64]
0	0x3ce3a6a7	0.027789427
1	0xbc912516	-0.01771788
2	0x3db192e5	0.08670596
3	0xbd4a9c9f	-0.04946577
4	0x3b7438bc	0.0037265262
5	0x3c41dc6f	0.011832341
6	0x3d3be1eb	0.04586975
7	0xbcda3e74	-0.026641108
8	0xbd767132	-0.060166545
9	0x3bdef608	0.0068042316
10	0xbd115f3b	-0.03549121
11	0xbca39bfe	-0.019971844
12	0x3c56b4c4	0.013104621
13	0x3a22bcd4	0.0006207947
14	0x3d703398	0.058642954
15	0x3d2613fc	0.040546402
16	0xbc74bfce	-0.014938308
17	0x3d74dc5a	0.059780456
18	0xbd5754d5	-0.052571137
19	0x3c40562f	0.011739298
20	0x3d51d2ee	0.05122655
21	0x3dbf8b90	0.09352791
22	0xbc8408a9	-0.01611741
23	0xbdc2524c	-0.09488353
24	0x3d182cc3	0.037152063
25	0xbcda8235	-0.026673416
26	0x3dae2b70	0.08504379
27	0x3c755262	0.014973255
28	0xbd0b51a5	-0.03401341
29	0xbd63afce	-0.055587582
30	0x3cb2c825	0.021823952
31	0x3d20754d	0.039174367
32	0x3db64048	0.088989794
33	0xbd27829e	-0.04089605
34	0x3d3a76e0	0.045523524
35	0x3bc922b8	0.006138172
36	0xbca90973	-0.020634389
37	0x3bd19fa5	0.006397205
38	0xbda2ca8a	-0.079487875
39	0xbd731cec	-0.059353754
40	0x3d1242ef	0.035708364
41	0xbd75b794	-0.059989527
42	0xbc6d2369	-0.0144737745
43	0xbd3de038	-0.04635641
44	0x3c12c36a	0.008957723
45	0x3d699201	0.057024006
46	0xbd4ce1bf	-0.050019976
47	0x3d365d3a	0.0445225
48	0x3d72613b	0.059174757
49	0xbd81b0c6	-0.06332545
50	0xbd5dcb9c	-0.054149255
51	0x3d4808a2	0.048836358
52	0x3c7cd9d9	0.015432798
53	0x3d1d5c6b	0.038418215
54	0x3d931391	0.07181466
55	0x3d134ee9	0.035963926
56	0x3988a2e3	0.00026061301
57	0xbd77ce66	-0.06049957
58	0xbc4da368	-0.012551166
59	0x3d25dd60	0.040494323
60	0x3d5eb5b9	0.054372523
61	0x3db87151	0.090059884
62	0xbd588529	-0.052861366
63	0x3d83b0eb	0.06430229

fc_net.fc_net.2.weight f4 [64, 64]
0	0xbdd742b5	-0.1051077
1	0xbd789dc5	-0.060697336
2	0x3d46398c	0.048394725
3	0x3e0b977d	0.13632007
4	0x3d3378f9	0.04381654
5	0xbc841e63	-0.01612777
6	0xbd9be8ab	-0.07612737
7	0xbd18b51b	-0.03728209
8	0x3d0094c7	0.031391885
9	0xbd787424	-0.060657635
10	0xbd8f5c78	-0.07000059
11	0x3e129218	0.14313543
12	0x392efd68	0.00016688334
13	0xbdbdcd43	-0.09267666
14	0x3dc498b8	0.09599441
15	0x3d9c87ec	0.076431125
16	0xbc9fdf7a	-0.019515742
17	0x3d83dc5f	0.06438517
18	0xbe0a29ce	-0.1349251
19	0xbaab2eed	-0.001306025
20	0x3dc3233c	0.09528205
21	0xbcd02c43	-0.02541173
22	0xbd4d3c24	-0.050106183
23	0xbda22526	-0.07917242
24	0xbdd1f1c2	-0.1025119
25	0x3c9093cd	0.017648602
26	0x3d35635e	0.044284217
27	0xbdf6ec2d	-0.12056766
28	0x3e059e4a	0.13048664
29	0xbd0506dd	-0.03247725
30	0x3cc50695	0.02405099
31	0xbdd1a11d	-0.10235808
32	0x3dae602e	0.085144386
33	0x3cc45cde	0.023970064
34	0xbca9fb38	-0.020749673
35	0xbdb7730f	-0.089574926
36	0xbd2f7112	-0.04283244
37	0x3daeb291	0.085301526
38	0x3d6d0933	0.0578701
39	0xbdd1976e	-0.10233961
40	0xbdbc2ed4	-0.09188619
41	0xbdb35b89	-0.08757693
42	0xbd791be5	-0.060817618
43	0xbd7c1c94	-0.06155069
44	0x3d2f1517	0.042744722
45	0x3cf17cbb	0.029478421
46	0x3da7e1c9	0.08197362
47	0x3c42d6e8	0.011892058
48	0xbbded76e	-0.0068005836
49	0x3dff42ea	0.12463935
50	0xbd6aea49	-0.057352338
51	0x3c05de4e	0.008170677
52	0xbd9c80c7	-0.0764175
53	0xbda2e178	-0.07953161
54	0xbddaf735	-0.10691682
55	0xbd82fd9b	-0.06396028
56	0xbdb03a35	-0.08604852
57	0x3d9fd0f4	0.078035265
58	0x3cd218bc	0.02564656
59	0xbdacd902	-0.084398285
60	0xbdbc7bb1	-0.0920328
61	0xbdadf5a1	-0.084941156
62	0x3cf1b6c9	0.029506104
63	0xbdce09b5	-0.10060445
64	0xbd4db721	-0.050223473
65	0xbd732d9a	-0.05936966
66	0xbce4e6ea	-0.02794214
67	0xbd1a9b2c	-0.03774564
68	0x3dbedef3	0.09319868
69	0x3dc8944c	0.097939104
70	0xbdc22634	-0.09479943
71	0x3d2e7e9b	0.04260121
72	0xbda8d022	-0.08242823
73	0x3db7929a	0.08963509
74	0x3d0c30f6	0.03422638
75	0x3dc680ff	0.09692573
76	0xbbb74f70	-0.0055941865
77	0xbd1bcd87	-0.038037803
78	0x3daf5272	0.08560647
79	0xbdb31b89	-0.08745486
80	0xbdfbe448	-0.122994006
81	0x3d8c0629	0.068371125
82	0x3b60bc42	0.0034291898
83	0x3e1727c9	0.1476127
84	0xbded6b3a	-0.115927175
85	0xbba8ac27	-0.0051474753
86	0x3d409752	0.04701931
87	0xbe06128a	-0.1309301
88	0xbc9bf722	-0.01903874
89	0xbd4f362a	-0.050588764
90	0xbd9848ec	-0.07435784
91	0xbb7ca06f	-0.0038547774
92	0x3ddd7139	0.10812611
93	0x3ca2c603	0.01986981
94	0x3d3efd0a	0.046628036
95	0x3d92813e	0.07153557
96	0x3db0395b	0.0860469
97	0xbd662de3	-0.056196105
98	0xbcb8a19c	-0.022537999
99	0x3b67e6c1	0.0035385343
100	0x3dca07d8	0.09864777
101	0xbdf05aea	-0.117360905
102	0x3de4a109	0.111635275
103	0xbc39bdaa	-0.011336723
104	0xbd73b34d	-0.059497166
105	0x3d84d034	0.06485024
106	0x3dc70453	0.09717622
107	0x3d9c5485	0.07633308
108	0x3dd6f68b	0.10496243
109	0x3d3aceb0	0.04560727
110	0x3d6af1e4	0.05735959
111	0xbe0d5887	-0.13803302
112	0xbce5e965	-0.028065393
113	0xbd1b82cf	-0.037966546
114	0x3def2fd9	0.11679048
115	0x3d9459d9	0.072436996
116	0x3ddf7fcf	0.109130494
117	0x3aaba982	0.0013096782
118	0xbc9045d7	-0.017611427
119	0x3e04fcca	0.12987056
120	0x3d467c27	0.048458245
121	0x3dbb39b9	0.09141869
122	0x3dcce5ce	0.10004769
123	0x3dc1b920	0.09459138
124	0x3d8dac82	0.06917669
125	0x3d5a41ce	0.053285412
126	0x3dd0522d	0.10171924
127	0x3d1a49a6	0.037667893
128	0xbd054e06	-0.032545112
129	0x3d876ae7	0.06612187
130	0xbc76cdc1	-0.015063704
131	0x3dac4a2b	0.08412584
132	0xbe017523	-0.1264234
133	0xbd812030	-0.063049674
134	0xbdc25b50	-0.09490073
135	0xbe0faf33	-0.14031677
136	0xbc5d6955	-0.013513883
137	0x3d60d25c	0.054888114
138	0x3c9d6b5e	0.019216236
139	0x3c9cfe4c	0.019164227
140	0xbc2cbeb9	-0.010543519
141	0xbbbf7ae1	-0.0058435057
142	0x3dc303df	0.09522223
143	0x3d55b868	0.052177817
144	0x3d7150a4	0.058914796
145	0x3d14ba57	0.03631052
146	0x3d7e481b	0.062080484
147	0x3dabdfcb	0.083922945
148	0xbb4ebdb7	-0.0031546184
149	0x3d21b472	0.039478727
150	0xbde69bd1	-0.11260188
151	0xbc424187	-0.011856443
152	0xbbf9264b	-0.007603442
153	0xbd577c07	-0.052608516
154	0x3d444969	0.047921572
155	0xbd6e7f2b	-0.058226746
156	0xbdd82802	-0.10554506
157	0x3d9225c0	0.071361065
158	0x3c6af067	0.014339543
159	0xbd9a0592	-0.07520594
160	0xbce42e1e	-0.027854022
161	0x3ca50a5e	0.020146545
162	0xbce44d81	-0.027868988
163	0x3e2267b3	0.1585987
164	0x3cc39e46	0.023879182
165	0xbd83348f	-0.06406509
166	0x3db0b2ca	0.08627851
167	0x3ca53aaa	0.020169575
168	0xbd33abbd	-0.043864954
169	0x3c90bf06	0.017669212
170	0x3d9f7884	0.077866584
171	0xbdc00c5d	-0.09377358
172	0x3d1f7d15	0.038937647
173	0xbcf46dd7	-0.029837532
174	0xbde87dbc	-0.11352107
175	0x3e15a262	0.14612725
176	0xbd64a37d	-0.055819977
177	0xbc236fde	-0.009975402
178	0x3d174637	0.036932196
179	0x3d4c94a8	0.049946457
180	0x3d8e0612	0.069347516
181	0x3d1106a8	0.03540674
182	0xbd0d36b0	-0.034475982
183	0xbd626e98	-0.05528125
184	0x3d859dfb	0.06524273
185	0x3d1fe16b	0.039033335
186	0x3d88af0f	0.06674015
187	0x3c6dd031	0.014514969
188	0xbdb75865	-0.08952407
189	0xbd6b6a83	-0.057474624
190	0xbce685cf	-0.028139977
191	0xbd929e52	-0.071591035
192	0x3d1de2bd	0.038546313
193	0xbaee51e0	-0.001818236
194	0x3d166005	0.036712665
195	0xbde8b2cb	-0.11362227
196	0x3bd1df38	0.0064047836
197	0xbc3763ac	-0.011193197
198	0x3d41fd95	0.047360975
199	0xbd765790	-0.0601421
200	0xbd543264	-0.05180587
201	0x3de73b06	0.11290555
202	0xbd8d3ec2	-0.06896736
203	0x3c4b4dc7	0.01240868
204	0xbd550ef0	-0.0520162
205	0x3cffbead	0.031218851
206	0x3de6105f	0.11233591
207	0x3bb7e396	0.005611847
208	0x3da2a163	0.07940938
209	0x3d5c4b6c	0.053782865
210	0xbc502e1e	-0.012706308
211	0x3dd0df6a	0.10198863
212	0x3cd74de4	0.026282258
213	0x3dd46102	0.10370065
214	0x3c02a83a	0.007974679
215	0xbdb3671d	-0.08759902
216	0xbd237734	-0.039908603
217	0xbd930112	-0.071779385
218	0xbe0be675	-0.13662131
219	0xbdea623f	-0.1144452
220	0xbd014fb0	-0.031570137
221	0x3de17cc2	0.11010124
222	0x3e09ffc2	0.1347647
223	0xbdb75ac7	-0.08952861
224	0x3d18f7cb	0.03734569
225	0x3db87ad4	0.090078026
226	0xbc806de7	-0.015677406
227	0x3db37560	0.08762622
228	0x3d55f694	0.05223711
229	0x3d7e5442	0.062092073
230	0xbd301ba9	-0.04299513
231	0x3d9d3aef	0.07677256
232	0xbdcffd5a	-0.10155745
233	0xbd3e565f	-0.04646909
234	0xbd9f8131	-0.07788313
235	0xbdfd0689	-0.12354762
236	0x3da125eb	0.078685604
237	0x3dbe4b24	0.09291676
238	0x3d93f701	0.07224847
239	0x3c4e8382	0.012604596
240	0x3db296f1	0.08720196
241	0x3ccad5e2	0.02476019
242	0xbd5b7e5f	-0.053587314
243	0x3dc38153	0.09546151
244	0x3b672373	0.0035268932
245	0xbe0b1c0a	-0.13584915
246	0xbd84e9cb	-0.06489905
247	0x3c5fc3ae	0.0136574935
248	0x3d906fc6	0.07052569
249	0x3c41614e	0.011802984
250	0xbd0bf457	-0.034168568
251	0xbcc76fd0	-0.024345309
252	0x3c9b037b	0.018922558
253	0x3cb5de64	0.02220077
254	0x3c568f6d	0.013095719
255	0x3cbd9ed8	0.023147032

fc_net.fc_net.2.bias f4 [64]
0	0x3cf39486	0.029733907
1	0xbdddf975	-0.10838596
2	0x3dd10a6d	0.10207067
3	0xba803c4a	-0.0009783593
4	0xbcc5ae6a	-0.024131019
5	0x3d0e60e2	0.034760363
6	0x3da9e242	0.082951084
7	0xbdb71e8a	-0.08941372
8	0x3c5aed56	0.013362249
9	0xbc3fd9f1	-0.011709676
10	0x3d936214	0.07196441
11	0x3d6dbdbb	0.05804227
12	0x3de1ba2b	0.11021837
13	0xbdb06998	-0.086138904
14	0xbd8f9b4b	-0.07012042
15	0x3d9803d5	0.07422606
16	0xbc819bc3	-0.015821343
17	0xbd9a1960	-0.07524371
18	0xbd34289f	-0.04398405
19	0x3d0da1a5	0.034577984
20	0x3dfc4146	0.123171374
21	0x3ddce519	0.107858844
22	0xbdde49da	-0.1085393
23	0xbd32757c	-0.043569073
24	0x3e07324a	0.13202778
25	0xbcd0fb78	-0.025510535
26	0xbc1f2a8f	-0.009714737
27	0x3b8e91e8	0.0043508895
28	0xbd45885a	-0.048225738
29	0x3dac7548	0.08420807
30	0xbd8f06cc	-0.06983718
31	0x3a0cd7ae	0.0005372715
32	0xbd863371	-0.065527804
33	0x3dc68883	0.09694006
34	0xbcb3e843	-0.021961337
35	0xbd7887cb	-0.060676377
36	0x3d3cea2a	0.046121754
37	0x3d7718f9	0.06032655
38	0xbcee17c1	-0.029064061
39	0x3d496c40	0.0491755
40	0xbd9e96be	-0.077435955
41	0x3d086160	0.03329599
42	0xbd8d6287	-0.06903558
43	0xbd2ad41d	-0.041706193
44	0x3da3aa3b	0.07991453
45	0xbd93168c	-0.07182035
46	0x3de7d5ae	0.11320053
47	0xbd00433b	-0.031314116
48	0xbd6952fe	-0.056963913
49	0x3ddeda9d	0.10881541
50	0x3c67b00d	0.014141095
51	0x3d801ef0	0.06255901
52	0xbd8ed910	-0.06974995
53	0xbd1a1b3c	-0.03762363
54	0xbdb2fdc7	-0.087398104
55	0xbe098a3e	-0.13431641
56	0x3d4ddcc6	0.050259374
57	0x3d81039f	0.06299519
58	0x3d8b8679	0.06812758
59	0x3d988a4f	0.07448255
60	0x3de2d680	0.11076069
61	0xbc579061	-0.013156981
62	0x3e03aa67	0.12857972
63	0xbd3f2388	-0.046664745

action_head.weight f4 [5, 64]
0	0x3dda1d9c	0.10650179
1	0xbdb49240	-0.088169575
2	0x3d908984	0.07057479
3	0xbd0fd5c6	-0.03511598
4	0xbd918745	-0.07105879
5	0x3e014011	0.12622096
6	0x3d35e243	0.044405233
7	0xbd9437d3	-0.0723721
8	0xbdb502c1	-0.08838416
9	0xbc8b0b79	-0.016973244
10	0x3b834ca7	0.0040069404
11	0xbdff955e	-0.124796614
12	0xbd7e7813	-0.06212623
13	0xbdee8033	-0.11645546
14	0x3d9b8cc5	0.07595209
15	0x3da40b3b	0.080099545
16	0x3db9b207	0.09067159
17	0x3d4626de	0.04837691
18	0xbdb11b40	-0.08647776
19	0x3e0e7f12	0.13915661
20	0xbe018441	-0.12648107
21	0x3d23b813	0.03997047
22	0x3d181e75	0.03713842
23	0x3d0ce274	0.03439565
24	0xbdbf4aae	-0.09340416
25	0x3d96515b	0.07339736
26	0x3c93b8fc	0.018032543
27	0xbd913dd8	-0.07091874
28	0x3e1ec36d	0.15504237
29	0xbdd4362b	-0.10361894
30	0x3e032743	0.12807946
31	0xbd4109d3	-0.04712851
32	0xbdd5592e	-0.104174
33	0xbdcd58ef	-0.10026728
34	0xbd491159	-0.04908881
35	0xbd4de8c8	-0.050270826
36	0xbd5155f7	-0.051107373
37	0xbdaffb44	-0.08592847
38	0x3e199e6e	0.15001842
39	0x3dc18a50	0.09450209
40	0x3ce1dbe5	0.027570674
41	0x3da862db	0.0822198
42	0xbde534ac	-0.11191687
43	0xbceee12c	-0.029160105
44	0x3d631e9c	0.055449113
45	0x3d9781b7	0.07397788
46	0xbd875ccd	-0.06609497
47	0xbd739478	-0.059467763
48	0xbba20223	-0.0049441024
49	0xbd4a4ca9	-0.049389515
50	0x3ca645ec	0.020297013
51	0xbc28aa7f	-0.010294556
52	0x3dd2274d	0.10261402
53	0x3cb8f6d1	0.022578629
54	0x3dd8f834	0.10594216
55	0x3e0234ba	0.12715426
56	0x3dcb5744	0.09928754
57	0xbce4a30b	-0.027909776
58	0x3bbadf7c	0.005702911
59	0xbdf957bd	-0.12174938
60	0xbda47121	-0.0802939
61	0x3da49cf2	0.080377474
62	0xbdd950f8	-0.10611147
63	0x3e0766bb	0.13222782
64	0x3e09658e	0.13417646
65	0xbd8b5a20	-0.06804299
66	0xbcc9259b	-0.024554064
67	0x3dc56f01	0.09640313
68	0xbdea6d9b	-0.11446687
69	0xbe14a389	-0.14515509
70	0xbe078965	-0.13236006
71	0xbdb65d15	-0.08904473
72	0xbdacd5a9	-0.0843919
73	0xbb44f1fb	-0.0030051458
74	0xbd058d9f	-0.032605764
75	0xbe06e33f	-0.13172625
76	0x3c1cfba3	0.009581479
77	0x3da48f91	0.080351956
78	0x3dc8658e	0.09784995
79	0x3cb1da4d	0.02171054
80	0xbe1356ea	-0.14388624
81	0x3d82e5fc	0.06391522
82	0xbdb1fb91	-0.086905606
83	0xbde4e80f	-0.11177074
84	0xbe08861e	-0.13332412
85	0xbceb9c2e	-0.028760996
86	0x3d927857	0.07151859
87	0xbd3aa4e8	-0.045567423
88	0xbb79ab82	-0.0038096611
89	0xbe1cb5f0	-0.15303779
90	0xbdb66e9c	-0.08907816
91	0xbe419d41	-0.18907644
92	0x3d9505f8	0.07276529
93	0x3d64181f	0.055687066
94	0xbc590766	-0.013246393
95	0xbe0cd210	-0.13752007
96	0xbd1d44b4	-0.0383956
97	0x3e18f48c	0.14937037
98	0xbdbbd2fb	-0.09171101
99	0x3cb08c3f	0.02155125
100	0x3e22213c	0.1583299
101	0x3e035019	0.12823524
102	0xbb5716d3	-0.003282
103	0x3d9c1632	0.07621421
104	0x3de0492f	0.10951459
105	0xbc545be3	-0.012961361
106	0x3ce0cfc9	0.02744283
107	0xbddf942b	-0.10916933
108	0x3e3355bb	0.17513172
109	0xbc304b84	-0.010760192
110	0x3ce92572	0.028460238
111	0xbe1e5ab4	-0.15464288
112	0xbdbbdd16	-0.09173028
113	0xba8a263d	-0.001053996
114	0xbe1be608	-0.15224469
115	0x3d897fa9	0.06713802
116	0x3dc82750	0.09773123
117	0x3e2d1a68	0.16904604
118	0x3d7ef028	0.06224075
119	0x3c22047a	0.009888763
120	0x39d6880b	0.0004091862
121	0xbb0456fe	-0.0020193453
122	0xbccb51f8	-0.02481936
123	0xbca7e1da	-0.020493437
124	0x3df2ee24	0.11861828
125	0x3dbffb7e	0.0937414
126	0xbd19ab89	-0.037517104
127	0xbd8bb4d4	-0.068215996
128	0x3c0ef3f8	0.008725159
129	0xbd319787	-0.0433574
130	0x3d7a55b4	0.06111689
131	0xbd97d66b	-0.07413944
132	0x3e19ac6c	0.1500718
133	0x3dfd7f48	0.123777926
134	0xbd9751d2	-0.07388653
135	0xbda3a622	-0.07990672
136	0x3dec53aa	0.11539395
137	0xbd32a593	-0.043614935
138	0x3d4fac1d	0.05070125
139	0xbd97dbaf	-0.07414948
140	0x3d82e6ce	0.06391679
141	0xbe15ca7b	-0.14628021
142	0xbe172103	-0.14758687
143	0xbddac65c	-0.10682365
144	0x3da1a02a	0.07891877
145	0x3d2d8525	0.042363305
146	0xbd691758	-0.056907028
147	0xbdee915f	-0.11648821
148	0x3d530e86	0.051527523
149	0xbdd23575	-0.10264102
150	0xbdd348dd	-0.10316632
151	0x3dd53a15	0.10411469
152	0x3de9f22c	0.11423144
153	0x3b93d44b	0.0045113913
154	0xbd2d0334	-0.042239383
155	0x3e0020e4	0.12512547
156	0xbcb09c8c	-0.021559022
157	0xbde5af15	-0.11215035
158	0xbcef50e8	-0.029213384
159	0xbe17cc1b	-0.14823954
160	0xbd62fc02	-0.055416115
161	0x3d8ae67a	0.06782241
162	0x3b306ac3	0.0026919104
163	0xbdac6001	-0.08416749
164	0xbe0b7373	-0.13618259
165	0x3d1180fc	0.0355234
166	0xbe00cb8c	-0.12577647
167	0x3ca62dcc	0.02028551
168	0x3cab593f	0.02091658
169	0xbd5ee643	-0.054418813
170	0x3dca0c3d	0.098656155
171	0x3d225477	0.039631333
172	0xbd42c8ab	-0.047554653
173	0xbcfa8854	-0.030582584
174	0xbddbbe3d	-0.107296444
175	0xbd9932ed	-0.074804164
176	0xbd067352	-0.03282482
177	0xbd6d8319	-0.057986353
178	0xbd68f39c	-0.05687295
179	0x3dc97564	0.098368436
180	0x3d0d6a6e	0.034525327
181	0xbe075d97	-0.13219295
182	0x3dad411e	0.08459686
183	0xbdc10891	-0.09425462
184	0xbd955a9c	-0.07292673
185	0x3d9780bb	0.073976
186	0x3d2bf7ad	0.04198425
187	0xbe084971	-0.13309266
188	0x3df1fe4c	0.118160814
189	0xbd10a84b	-0.035316747
190	0x3e1a020f	0.15039848
191	0xbdc0e4ab	-0.09418615
192	0xbcf7be88	-0.03024222
193	0xbb256d84	-0.0025242278
194	0x3cced35b	0.025247267
195	0x3d1488e8	0.036263376
196	0x3d53e4e4	0.05173196
197	0xbd665365	-0.056231875
198	0x3cfd6e34	0.030936338
199	0x3dbe72a4	0.0929921
200	0xbd210ff3	-0.03932185
201	0x3d1f966f	0.038961824
202	0x3da7df3e	0.08196877
203	0x3e09f13f	0.13470934
204	0x3dcce3e5	0.10004405
205	0x3b9de53d	0.004818587
206	0x3d278deb	0.040906828
207	0x3d688176	0.05676409
208	0x3e3b050b	0.18263642
209	0x3e189290	0.14899659
210	0x3c8b8417	0.017030759
211	0xbd4613fd	-0.048358906
212	0x3e0f6a8b	0.14005487
213	0x3e06d3d2	0.1316674
214	0x3e01e2e2	0.12684205
215	0x3de43546	0.111429736
216	0xbdf58693	-0.119885586
217	0xbd935364	-0.0719364
218	0x3d5c4ac5	0.053782243
219	0x3dd615a3	0.104533456
220	0xbcd4478f	-0.025913028
221	0x3dd88c54	0.105736405
222	0x3cecb5c8	0.028895274
223	0x3da19ce1	0.078912504
224	0xbde7d724	-0.11320332
225	0x3db5aa0f	0.08870327
226	0xbe0fe664	-0.14052731
227	0x3dec99e6	0.11552791
228	0xbd2d7a37	-0.04235288
229	0xbd7ee09c	-0.062225923
230	0xbd4d39c9	-0.050103936
231	0xbe26930a	-0.16267028
232	0xbbee3190	-0.007269092
233	0x3c0ddd7e	0.008658765
234	0xbdbae561	-0.09125782
235	0x3db74389	0.08948428
236	0xbd9f0f8e	-0.07766639
237	0xbc6e351d	-0.01453903
238	0x3c90d1e5	0.01767821
239	0x3dd2ee0e	0.102993116
240	0x3de02322	0.10944201
241	0xbd2b6a3a	-0.041849352
242	0xbcb47674	-0.02202914
243	0xbbcc4318	-0.006233584
244	0x3d814270	0.063115
245	0xbc25dfeb	-0.010124187
246	0xbcbabc5f	-0.0227949
247	0xbdfd8f3b	-0.12380835
248	0x3dc15332	0.09439696
249	0x3d8e38ec	0.06944451
250	0x3d52b8c0	0.051445723
251	0x3e119b71	0.14219452
252	0x3d122e7d	0.035688866
253	0x3d428141	0.047486547
254	0xbe0a9214	-0.13532287
255	0xbd99831a	-0.07495709

action_head.bias f4 [5]
0	0xbd0237e0	-0.031791568
1	0xbd370eb3	-0.044691753
2	0xbdc8e4b8	-0.0980925
3	0xbc955127	-0.018227173
4	0x3d13defd	0.03610133

value_head.weight f4 [1, 64]
0	0x3d2041ab	0.039125126
1	0x3cbc94e9	0.023020225
2	0x3ca6e689	0.0203736
3	0xbdad14fd	-0.08451269
4	0x3d69dd88	0.057096034
5	0xbc220cf5	-0.0098907845
6	0xbdb52a40	-0.08845949
7	0xbdaea425	-0.08527402
8	0x3d84c3e9	0.064826794
9	0x3d496f6e	0.049178533
10	0x3d9bd79d	0.07609484
11	0x3dccc1ba	0.09997888
12	0xbc45cf98	-0.01207342
13	0xbd93bf8c	-0.07214269
14	0xbd81868d	-0.06324492
15	0x3d1a552c	0.037678882
16	0xbd073176	-0.033006154
17	0xbd0a0a00	-0.033700943
18	0xbb9b6214	-0.0047419164
19	0xbdac774d	-0.08421192
20	0x3d22f4d3	0.039784264
21	0xbdc4d0b0	-0.096101165
22	0x3cd0c8e2	0.025486413
23	0xbde526ce	-0.11189042
24	0xbd945305	-0.07242397
25	0xbcf193d0	-0.029489428
26	0xbc815195	-0.015785972
27	0xbd5d6f85	-0.05406143
28	0xbda533fd	-0.080665566
29	0x3bbb425e	0.0057146987
30	0x3dea9bac	0.11455473
31	0x3c826315	0.015916387
32	0xbd8b1125	-0.067903794
33	0xbdd48a33	-0.10377922
34	0x3dfa7078	0.12228483
35	0xbd3b019e	-0.04565584
36	0xbd03d75b	-0.0321878
37	0xbdd3b160	-0.10336566
38	0x3d81d97a	0.063403085
39	0x3ddcbbbf	0.10777997
40	0x3b87f4c1	0.00414905
41	0x3d891913	0.06694236
42	0xbdcfe695	-0.10151402
43	0xbdac9c57	-0.08428257
44	0x3dd83bec	0.10558304
45	0xbd92007c	-0.07128999
46	0x3d4ac33d	0.0495026
47	0xbd78c1c2	-0.060731657
48	0xbcb8a235	-0.022538284
49	0xbceef9a4	-0.029171772
50	0xbd5c906c	-0.05384867
51	0x3d627603	0.055288326
52	0x3e01f4e1	0.1269107
53	0x3d4ff57b	0.050771218
54	0x3d05ba5f	0.03264844
55	0x3da293a1	0.07938314
56	0x3c929ec1	0.017897965
57	0xbd5852a5	-0.05281319
58	0x3deeb7cb	0.116561495
59	0xbc9f2bb2	-0.019430015
60	0x3d09db8e	0.03365665
61	0x3dfccb75	0.12343494
62	0x3b0448a9	0.002018491
63	0xbd1b5683	-0.0379243
